checkpoints/BIPED/5/5_model.pth (torch, 249139 bytes, 30 tensors)

block_1.conv1.weight f4 [16, 3, 3, 3]
00000000: aae2 32be 2f7a 98bd 3c0d 49be ce35 32bd
00000010: ee9a bdbd ab67 fabd 2979 4bbe 11a5 91bd
00000020: 4f95 0cbe 351b 363e e743 073d fcd5 1fbd
00000030: 722d f63c 8cbc 003e 7af2 a7bd bac9 2ebe
00000040: cd19 b1bd 5e79 b3bd edb9 213e c166 fc3d
00000050: 3f93 eb3d cbac 663e b058 903e 5b4a 173e
00000060: 48d7 863d 8896 1a3e 6012 b1bd b6f0 c9bd
00000070: 75c0 4abd 7879 24be f2dd 0dbe b234 06bd
00000080: bbb3 9dbd 02d9 28be e703 d3bd 9bd5 ee3c
00000090: d5ae e23e e236 123e f2ad 8f3d 37be 383e
000000a0: d14b 283e 7cea 913c 1bf5 163e 5191 493e
000000b0: 7bd1 363e 2f82 34bc 5ef8 99be b4d4 c9bd
000000c0: 821f c63d 46d7 a1bd a4c7 97bd b182 c2bd
000000d0: f4b3 e3bd d06e bb3c 30d8 0a3e afac a9bb
000000e0: c9fc 823d 1f63 3abc 47f8 04be 4b1d 3cbd
000000f0: 16bb c3bc 07c1 07be f97e 8f3d 6342 203d
00000100: 75fc b1bd f684 ac3d 1142 f43b 8d4b e6bd
00000110: a9c1 553e 1b64 f33d 5fe3 2cbe 95e3 d83b
00000120: ec0a 683d 4eae f2bd 0f51 f5bc 34ac a63c
00000130: 75da 12be b5a6 e1bd 60f8 9b3d e327 8bbe
00000140: 1eab 84bd e0ea 03bd b8d8 d83d 0f29 273e
00000150: 50e0 83bd b398 a43e 14c4 633e caa8 70be
00000160: 13da 0ebd 6264 283e 162b 44be 6584 3abe
00000170: 2869 0cbe 4499 95bc e7f4 7e3d 5914 f13c
00000180: f24b 47bd 2b31 c6bd c9d3 81be 15df d23d
00000190: 0255 c0bd f5b6 e03d c4e1 1c3e 4f9b 663c
000001a0: 3337 303e a932 5bbd 7caf 3fbc d961 d7bd
000001b0: 7fe2 02be f127 a3bd aceb b6bd 6693 58bd
000001c0: 3262 5a3d 92c3 813c 4c9a 20be 9903 823d
000001d0: f461 613d c4c0 b6bd b6fd 823d f4a2 4bbe
000001e0: 19f4 4bbc 7d39 0d3e be26 bebd 4021 003c
000001f0: d2e7 b439 ec28 e13d 9784 1d3b 86fb 573e
00000200: beb6 e03d ed45 11bd 735b 5f3e 086f ba3d
00000210: 529a 013d 0060 103e a347 1fbd afa9 16bd
00000220: f714 843d f43e cd3c 183e 7cbd 9499 403d
00000230: 3f59 1abd 3f61 a4bc 62c1 243b 7a54 4bbb
00000240: a6f0 debd 4e6e 0dbe 232d 53be 5367 6cbe
00000250: bcd3 aabd 761b b3bd 89fe 38be 7308 bfbd
00000260: de6a 69be 4955 403d 500f fe3d 1f99 c53c
00000270: a20d 3b3e ebfa 333e ef84 0d3e a561 253e
00000280: 19a5 953e abe8 3a3e 8f79 be3d 88de 483e
00000290: 4366 4a3e 6f18 a1bc 42c4 163e 8ba7 ba3d
000002a0: 7cb8 033d 3686 903e 6b22 ff3d a6a3 483c
000002b0: 8850 99bb 5835 babd a854 58bd b186 a33d
000002c0: 610b 163d 13ea c73c c4be a13d a579 a43d
000002d0: 685d d2bd d3c2 22be 0ea4 17be fb61 1e3d
000002e0: 051a bcbd 98af 91be 47ec d4bd d211 05be
000002f0: f257 79be ac99 50bd a567 9e3e 0d01 1e3e
00000300: 4ba0 b33d ac18 75bd 2aac c43d 5f07 55bd
00000310: cc4c 04be 31cb 41bc 185d 1fbe b565 813c
00000320: ed35 153e 0bba 453e 9c3c 953d 05e8 7f3c
00000330: 80a8 39be c3c8 9bbe 19be 7cbe 421b 2eb8
00000340: bb4c 2c3e a127 083d 7e54 1a3e b25c 983b
00000350: 0ca3 fc3d 0ee8 fc3c 0bbc 4dbe 90fc 40be
00000360: f363 4f3c f99d 263d 7157 af3c a8c8 8f3e
00000370: 909c 453d e3e8 833d 8856 223e f9af eebb
00000380: 96d7 053e e5e7 50be f7dd 43be 4e0a 21be
00000390: e71f 5cbe dd42 f2bd 6b6c 273b 68df 28be
000003a0: 3035 60be fecf b0bc baf2 17bd f362 4c3d
000003b0: 2465 4b3b 3769 a03c 3056 853d 63c5 853e
000003c0: 32b5 413d 0a06 d8bb 99dc 533e d755 47be
000003d0: 6810 05bd dd8f aebd f998 a4bc 1243 923c
000003e0: 1501 033e c75f 2fbc 2bef e53c 4fde 363e
000003f0: fd48 3ebe 3d9f 50be ad5f 9ebd edfc ec3d
-0.17469278 -0.0744518 -0.19633955 -0.043508343 -0.09258066 -0.12226804 -0.19870438 -0.07111562
-0.13728832 0.17783816 0.03302374 -0.03902243 0.030050967 0.12571925 -0.082005456 -0.1706914
-0.08647499 -0.08763383 0.15793581 0.12324286 0.11502694 0.22526853 0.28192663 0.14774458
0.065840304 0.15096486 -0.08646083 -0.09860365 -0.049499948 -0.16061962 -0.13854197 -0.032765098
-0.077002965 -0.16489032 -0.10303479 0.02915459 0.4427401 0.14278749 0.07015599 0.18041311
0.16435172 0.017812006 0.14741938 0.1968434 0.17853348 -0.011017366 -0.30072302 -0.09855023
0.096739784 -0.07902388 -0.07411125 -0.09497584 -0.11118308 0.022879988 0.13559031 -0.005178056
0.06395871 -0.011376171 -0.12985335 -0.045926373 -0.02389292 -0.13257228 0.0700664 0.03912581
-0.086907305 0.08423798 0.007454165 -0.11244879 0.20874657 0.11884328 -0.1688361 0.006618927
0.05665104 -0.11849652 -0.029945878 0.020345785 -0.14341147 -0.11018125 0.07615733 -0.2717887
-0.064779505 -0.032206416 0.10588211 0.16324256 -0.064392686 0.3214775 0.22242767 -0.23501888
-0.03487594 0.16444543 -0.19157061 -0.18214567 -0.13711989 -0.01826156 0.062245276 0.029428648
-0.04865641 -0.09677347 -0.25356892 0.10296456 -0.09391214 0.10972396 0.15320498 0.014075114
0.17208557 -0.05351511 -0.011699554 -0.1051671 -0.12781714 -0.079666026 -0.089316696 -0.052874945
0.053316303 0.015840326 -0.1568386 0.063483424 0.055025056 -0.08923486 0.06396048 -0.1988638
-0.012448334 0.13791461 -0.09284733 0.007820427 0.00034504995 0.10994133 0.0024035329 0.21092042
0.10972355 -0.035467077 0.21812229 0.09103209 0.031641312 0.14099121 -0.038886677 -0.036782917
0.06449311 0.025054432 -0.061582655 0.047021464 -0.037682768 -0.020065902 0.002513968 -0.0031025694
-0.10885744 -0.13811609 -0.20622687 -0.2308629 -0.083411664 -0.08745472 -0.18065847 -0.093277834
-0.22794673 0.046956334 0.124052644 0.024120865 0.1826692 0.17576186 0.13820241 0.1615053
0.29227522 0.18252818 0.09300529 0.19616139 0.19765572 -0.019664971 0.14723304 0.091139875
0.03215836 0.28227395 0.124577366 0.012246048 -0.0046787895 -0.09092206 -0.05281511 0.07984675
0.036631946 0.024403607 0.07897714 0.08031014 -0.10271722 -0.15894632 -0.14808676 0.03866766
-0.0918465 -0.2845428 -0.10396629 -0.12995079 -0.24349955 -0.050927803 0.3093845 0.15430088
0.08770808 -0.059837982 0.0960315 -0.052008983 -0.1291992 -0.01182823 -0.15562856 0.015795568
0.14571352 0.19309251 0.07286951 0.015619283 -0.18130684 -0.30426607 -0.24681892 -4.151022e-05
0.16826145 0.033240918 0.15071294 0.004649722 0.12335786 0.030872371 -0.20091264 -0.18846345
0.012658107 0.040678 0.021404 0.28082776 0.048245013 0.06440904 0.15853322 -0.007284161
0.13070521 -0.2040096 -0.19127642 -0.15726587 -0.21496545 -0.118291594 0.00255468 -0.16491473
-0.2189529 -0.021583553 -0.037096716 0.049899053 0.0031035626 0.01958142 0.065105796 0.26127157
0.047291942 -0.006592517 0.2068962 -0.19466339 -0.03248635 -0.085235335 -0.020092474 0.017854247
0.12793382 -0.010703987 0.028068146 0.17858241 -0.1858253 -0.20373245 -0.077330925 0.11571679

block_1.conv1.bias f4 [16]
00000000: a3e2 823d bcfd 8a3d 7b31 9b3d dcd6 843e
00000010: bf39 843e 90bc 7a3e 39fc 943e 97e4 ffbd
00000020: e7e0 083f 405b c4be fe7a ddbe a548 263e
00000030: d7d7 00bf c9f0 e5be 17c4 fcbe e26d b7bd
0.06390884 0.06786677 0.07577797 0.25945175 0.25825307 0.24485993 0.2909868 -0.12494772
0.53468174 -0.38350868 -0.43257898 0.16238649 -0.50329345 -0.44910267 -0.49368355 -0.08956505

block_1.conv2.weight f4 [16, 16, 3, 3]
00000000: eaf1 75bc df28 d23c ce36 f53d 92cf 8bbd
00000010: 5633 85bd c2e5 8fbd 6c37 f33d 2967 d73d
00000020: eb27 a3bd b038 053c cde2 fd3c f4b4 91bc
00000030: b94e 29bc 8ef4 ea3c 0a41 ea3d a512 a53d
00000040: e0c6 0abe 2520 6bbc 5fc0 b1bc 1f3b 563d
00000050: fda4 6e3e cbbe 14be 1570 3cbe 1f31 403e
00000060: 567d 1cbe 32b1 7fbe 46bb 373e 866c c33d
00000070: 8662 063e d4fe 503d 491c d7bd a93e 93be
00000080: 4571 0ebe f032 8c3d 019c d2bc 7e69 c83d
00000090: e901 873d 0896 28bd 7523 23bd f454 c33d
000000a0: a889 f6bc 88c1 31be 6e53 ca3d 9596 0a3e
000000b0: a846 0abe df45 5d3c 9213 40bd 0fe7 af3a
000000c0: 6a0b 8c3d 505a 043d 44d8 6abe b144 0a3e
000000d0: 97cb f03d c62f 0dbd f94e 093c 5172 58bd
000000e0: da65 ac3d d1a0 a43d 45c1 213d 0fa7 84bd
000000f0: 2ef8 02bd 7fe0 dd3d 1087 b6bd 391c de3c
00000100: 197e ebbd 4600 99bd 9658 e0bd 54a8 61be
00000110: 290f 063d ed48 a8bd 0b44 2abd beb0 953d
00000120: 9145 45bd fe09 443d a2ee 853d ab90 d43d
00000130: 9032 44be 771b b0bb bc00 c23d 5f4d 05be
00000140: dd53 083e 78ab 39bd 353f 92bd 2073 f9bd
00000150: 5396 143d 1a93 0b39 b6c7 1abe aa64 acbc
00000160: 43c3 e73d f568 073d acfd 71bd 8e8b 5d3d
00000170: fdb1 abbc 9b99 44be ee18 7c3d f962 4cbe
00000180: ec46 79be 9e44 3e3e ac1c 11be 674c 78bb
00000190: 22f6 c93b 597a a43d b5e0 c8bb cb36 debc
000001a0: fcdb e93d e6a2 84bc d7d8 32be e3c6 983d
000001b0: b4cb 9a3d cd6a d03d f685 4d3d 3bcb 5a3d
000001c0: c443 6b3e 3415 4b3d 3e47 813c dfbc 2f3d
000001d0: 2482 a03e d34f 1f3d cca5 d53d 1762 54bd
000001e0: 01d1 46bd 9843 ff3c 1324 3f3e f816 0ebe
000001f0: 5d58 73bd d3ad afbd d42e c7bc c0b3 35bd
00000200: 3e19 abbd e619 d1bc e09f c63d b1f1 183e
00000210: b7a5 8fbe 10c9 9bbe 0b8b a7bd c1e4 803d
00000220: c608 743d 1f26 64bd 9cc2 05bc ef4d 933d
00000230: 04f0 163e 0fab d9bd 5e1b 903d 0b1a 49bd
00000240: 87b0 223d a897 a1bc edf1 8dbd e983 1bbd
00000250: 3087 c63c 7002 e43c e390 75bd b748 153d
00000260: ec49 cd3d 8a04 f6bd b2e8 883a 7c72 b8bc
00000270: adde 45bd ddf3 24bc 4b16 013e c8cd adbd
00000280: 4e2d 00bd d184 263e d1f4 c73c a745 62bd
00000290: 9055 3d3b 956f 4b3d 0341 743c a8cf 8e3d
000002a0: 2d4f a73d 31d6 8f3c d574 e03c 096a 3b3b
000002b0: 0346 5c3b 82ca c8bc 78ae 4b3d 8b8d a13c
000002c0: c992 c5bd 50f5 143d f7d3 333d ea61 be39
000002d0: 6e72 20bd 1cb0 30bc 6a87 ecbc 21d7 d33c
000002e0: 46b3 403e 0c29 673d b948 a7bd 5737 d73c
000002f0: c020 21bd 9279 84bc a5c5 0d3c a807 923d
00000300: f482 7bbc c63c 593d eb6f 843d 3730 68bd
00000310: 37a3 ba3c 3cc5 953d 1973 90bd b0a1 563d
00000320: a8ea 013e 5084 943c 0f59 3b3e a22a b9bc
00000330: 7292 a9bd 75dc 8e3c 1236 a0bc f1b0 873e
00000340: 1001 e5bd cc61 3abe d557 543d 8ef2 67be
00000350: cc7b 1fbe 6173 513d ed96 8ebb a618 693b
00000360: d201 e83c cb6d 103e b092 623d 0fb0 403e
00000370: 26f8 cebc c78d ebbc c2db bc3c f95b c9bd
00000380: 4e2d f3bd 10f6 a5bd 4f06 9e3d 2a23 7d3d
00000390: 5906 153d 91d5 abbd 9c0b 93bc eafe 683c
000003a0: e042 983d 866c fd3d d95a 873e cba1 b9bd
000003b0: eec7 aabd e72e 0abe 3e63 81be b2e3 95bd
000003c0: 9268 16be 2eb8 18be 2377 b93d c8b8 75bd
000003d0: fc98 3ebd 8342 9fbc 53ce 2cbd 17b0 3fbd
000003e0: decf 43bc 8e59 5dbd cda0 713c 69fd 803c
000003f0: e2f6 0c3e 3497 2fbd 17ea 7bbd 1e5f e73b
-0.01501129 0.025654254 0.11973344 -0.068267 -0.06503932 -0.07026245 0.11875805 0.10517723
-0.07966598 0.008131191 0.030991936 -0.01778648 -0.01033371 0.028681066 0.114381865 0.08060197
-0.13552427 -0.014350926 -0.021698175 0.052302476 0.23305126 -0.14525907 -0.18402131 0.18768738
-0.15282187 -0.24969938 0.17942533 0.095421836 0.13123521 0.051024273 -0.10503442 -0.28758743
-0.13910396 0.06845653 -0.025709154 0.09785746 0.06592161 -0.041158706 -0.039828736 0.09537688
-0.030094936 -0.17358983 0.09879194 0.13534005 -0.13503516 0.013505428 -0.046893664 0.0013420301
0.068381146 0.03231269 -0.22934061 0.13502766 0.11757582 -0.03446939 0.008380645 -0.052843396
0.08417864 0.08038486 0.039490957 -0.064771764 -0.031974964 0.10833835 -0.0891248 0.027113067
-0.114986606 -0.07470755 -0.109543964 -0.22036868 0.0327293 -0.082170345 -0.041568797 0.073091015
-0.048162047 0.04786109 0.06539656 0.10379156 -0.19159913 -0.005374368 0.09472796 -0.13017796
0.13313241 -0.04532954 -0.07140962 -0.121801615 0.036276173 0.00013310873 -0.15115246 -0.021044094
0.1131654 0.03305908 -0.05907981 0.054088168 -0.020958895 -0.19199221 0.061547212 -0.1995963
-0.24343461 0.18580863 -0.14171094 -0.0037887336 0.0061633745 0.080311485 -0.006130303 -0.027125737
0.11418912 -0.016190957 -0.1746553 0.0745981 0.075583845 0.10176621 0.050176583 0.053416472
0.2297507 0.049580768 0.015781041 0.04290473 0.3134929 0.038894486 0.10432014 -0.05185136
-0.048539165 0.03116016 0.18666105 -0.1387595 -0.05941044 -0.08578076 -0.024314322 -0.044360876
-0.08354424 -0.025525045 0.096984625 0.14935948 -0.28056118 -0.30426836 -0.08180817 0.06293631
0.05957868 -0.055700418 -0.008164074 0.07192599 0.14739996 -0.1062833 0.0703647 -0.049097102
0.03971913 -0.019725636 -0.06930909 -0.037967596 0.024234384 0.027833194 -0.059952628 0.0364463
0.10023865 -0.120125845 0.0010445325 -0.022515528 -0.048308063 -0.010067907 0.1260616 -0.08486515
-0.031293206 0.16261603 0.02440873 -0.055242207 0.002889011 0.04966696 0.014908078 0.06973201
0.081693985 0.01755819 0.02739946 0.0028597137 0.0033611066 -0.024510626 0.049726933 0.019720813
-0.09647138 0.03636676 0.043903317 0.00036312576 -0.03917163 -0.010784175 -0.028873164 0.025859417
0.18818387 0.05643563 -0.081681676 0.026271505 -0.039337873 -0.01617125 0.008653079 0.071303666
-0.015351046 0.053036474 0.06466659 -0.056686606 0.022782905 0.0731301 -0.07053203 0.05240029
0.1268717 0.018129498 0.18295692 -0.022603337 -0.08279885 0.017439106 -0.019557033 0.26502183
-0.11181843 -0.18201369 0.051841576 -0.22651121 -0.15574569 0.051135425 -0.004351488 0.003556767
0.02832118 0.14104383 0.055315673 0.18817161 -0.02526481 -0.028754128 0.023054007 -0.098319955
-0.118738756 -0.08103573 0.07716047 0.061801113 0.036383007 -0.08390344 -0.017949872 0.0142209325
0.074346304 0.12374215 0.264365 -0.09064063 -0.08338915 -0.13494454 -0.25271028 -0.0731882
-0.14688328 -0.14914009 0.09055927 -0.059990674 -0.046532616 -0.019440895 -0.042188954 -0.04679879
-0.011951415 -0.054040484 0.014747811 0.015745835 0.13766053 -0.042868808 -0.061502542 0.0070608994

block_1.conv2.bias f4 [16]
00000000: 03fe 4abd d4e7 09bc 04ce 8f3e 07e2 943d
00000010: 7f4c 27be c125 d73f 24fd aebe 97af 593d
00000020: 0906 7bbd 6c3d fd3e 6ac0 603f 574f 893e
00000030: a059 083c c333 30be 62e1 06be 9108 11be
-0.04955865 -0.008417089 0.28086865 0.07269674 -0.16337775 1.6808397 -0.34177506 0.05314597
-0.061285052 0.49460924 0.877936 0.26818344 0.0083221495 -0.17207246 -0.13171914 -0.14163424

block_2.conv1.weight f4 [32, 16, 3, 3]
00000000: 6c73 82bd 6415 d5bd e279 e1bd ec88 45bc
00000010: 725d ddbd 2804 a83d f143 213d f058 95bd
00000020: ddce 813c bc04 c23c bac0 b1bd 2be4 25bd
00000030: e5fa 3f3d 1cf0 b9bd f15e afbd 00b5 8e3d
00000040: b575 153d de94 d0bd 68e2 38bc e851 e73d
00000050: 369d 883d ae29 c4bd dff2 82bd ed46 98bd
00000060: 3bf0 a9bd 16f4 7a3d a2f8 61bd 764a 61bd
00000070: d12f 6bbd bb74 b1bd fbea fcbc 06e3 75bc
00000080: a570 d43c 98ae 983d 8e84 c5bc bca5 873d
00000090: 8d6b 7a3d 3206 833d 8f9c 5b3c 6a48 a83d
000000a0: bee1 20bd 8fa4 fabc 5bf1 fa3a ffdd 8abd
000000b0: 0cf4 53bd 93e6 aebb d600 30bc e9f6 58bd
000000c0: db0d 19bd e63d 87ba f3b1 49bd c605 dfbc
000000d0: 1352 ac3c cce7 a9bc b045 323d 8e3d a3bc
000000e0: f404 05bd 554a ddbd a550 003d f482 35be
000000f0: 5af8 71bc 56c9 18bb 4895 64bd 6130 82ba
00000100: 7d41 3bbd b431 9fbd 3444 123c 2246 46bb
00000110: 49a3 09bd 2813 1e3d 5076 b63c bd08 333d
00000120: 6991 e7bd 0e52 623d 3029 1c3d 9b95 80bd
00000130: 6367 903d fc94 d6bc a185 6dbc 5315 693d
00000140: 8ecc 5f3d c250 10bd 45c1 2abc 964e 113d
00000150: 2aae 81bc 1d93 57bc 0380 cbbc 4048 213c
00000160: b963 053d 9839 afbc 3b0f 623c da70 f03d
00000170: 76fc 3c3e ffd1 9cbb 9016 203d c73b f13d
00000180: 2f5f a3bd 0a3e a1bd fd96 173e 4687 45bd
00000190: 4000 563c d988 313d c4ca 35bd fbad 103d
000001a0: 1db0 a13d f61a 41bd aebf f4bc 5cfe d03c
000001b0: 9855 5dbd c3ff a23d 9a3d 80bc 6aee 143d
000001c0: 7e9e bf3d 3b50 983d 7c17 b9bb 36d8 eebb
000001d0: 1472 103e d94d e93c ee40 673d bce3 db3b
000001e0: ef77 5e3d 7a87 af3d 83b4 0b3d e08e 5dbd
000001f0: d49d 5abc 9139 dabd ff92 9a3c 9cbd edbc
00000200: 8f15 ccbc 2d03 8c3d a6e6 863d 503d aebc
00000210: a299 d6b9 9eb1 88bd 806a 51be 0471 813d
00000220: 89d9 1f3c 1143 ea37 68cc 583d 38f4 0b3d
00000230: bf42 b33c 5135 643d 5519 a23c 8245 2d3d
00000240: 77ee 73bd ac28 043d 1984 be3a bfef a0bd
00000250: 8e30 b0bc 96cb 44bc ebef d0bd a368 d0bd
00000260: 666e 7cbd 5d5c 213d e155 c0bc 3992 7abd
00000270: e861 55bd a2f0 f1bc a3e8 02bd 7d88 3b3d
00000280: 8fe5 dd3c e24b cf3c e8b7 7cbd 87c1 4c3c
00000290: 4522 8fbd 6bb3 4e3b cfe5 1e3d 1a63 e73c
000002a0: 9d95 7dbd 48a0 38bd def2 90bd dfc0 7c3d
000002b0: 0370 cfbb 36f8 773c 50e5 a4ba 1665 41bc
000002c0: 745b b83c ab68 1cbd b462 ee3a 2347 3c3c
000002d0: 3dc7 94bc 368c 76bd eddc 07bd bd28 41bd
000002e0: 015b 43bd 9d59 82bd 7753 ccbd 1fe9 b3bd
000002f0: f5d8 1bbe d35b 31be fe9e 053d 7a6b d8bd
00000300: 051c 6abd 3db3 113e a018 70bb e069 db3c
00000310: 1302 c83e 82a9 f93d 2a53 5e3d b1f8 6fbc
00000320: 44d9 24bd ca64 113d 700e 1dbd e02d 4dbc
00000330: e44c b03d 0243 d1bd 27d2 c4bd f1f2 20bb
00000340: 52ce 1abc 386b 8c3b 8048 2b3c 42c7 9b3d
00000350: 0072 883d 4b57 873c 4fc6 703d 1685 8c3d
00000360: 57af d83a 35a6 963c f6e3 59bd 2ce0 473d
00000370: fb95 b33c 3c2b f8bc bc26 653c 9f72 a3bb
00000380: ecc6 2c3b 19a1 59bd 89ce d3bc 0209 0dbd
00000390: b91b 57bc 4535 243d f41c 2dbc 6703 e33c
000003a0: 679c 453e 51de 923d de58 a03c 4670 c83d
000003b0: 2ea0 9a3d 6acb 9bbc 776e 4b3d 8603 b73c
000003c0: d2a0 d4bc a44c 2d3d af66 23bd a72e 97bd
000003d0: d1d4 cbba 0b75 a5bc ad43 2f3a 55ef 083d
000003e0: 5444 913c 0444 073c 85bf 153e 0198 223d
000003f0: 5aa5 64bd fad1 903c 1756 973d 8931 963b
-0.06369671 -0.104044706 -0.110095754 -0.0120565705 -0.10808839 0.08203918 0.039371435 -0.07292354
0.01584571 0.023683898 -0.08679338 -0.0405008 0.04687013 -0.09079 -0.085630305 0.06968117
0.036489207 -0.10184644 -0.011284448 0.11294919 0.066706106 -0.09578262 -0.0639398 -0.07435403
-0.082977735 0.061267935 -0.055168755 -0.055002652 -0.05741865 -0.08664843 -0.030873766 -0.01500774
0.02593262 0.07455176 -0.024111059 0.06623408 0.061137725 0.06397666 0.013404026 0.08216937
-0.039277785 -0.030596046 0.0019145416 -0.06780624 -0.051746413 -0.005337545 -0.010742387 -0.052969847
-0.03736673 -0.001031813 -0.04924197 -0.027224433 0.02103523 -0.020740412 0.04352349 -0.019926812
-0.032475427 -0.10805193 0.03132691 -0.17725736 -0.014768684 -0.0023313365 -0.05580643 -0.0009932631
-0.04571675 -0.07773152 0.008927394 -0.0030254205 -0.033602986 0.038592488 0.022273213 0.043709505
-0.11307032 0.055254035 0.038125217 -0.06278535 0.070509695 -0.026194088 -0.014497192 0.056905102
0.054638438 -0.035233267 -0.010422056 0.035475336 -0.015830118 -0.013157633 -0.024841314 0.009843886
0.032565806 -0.021389768 0.013797577 0.11740275 0.18455681 -0.0047857757 0.039084017 0.1177898
-0.07977139 -0.07873161 0.14803691 -0.04822471 0.013061583 0.0433434 -0.044382825 0.03532217
0.07894919 -0.047144853 -0.029876556 0.025511913 -0.054036707 0.07958939 -0.015654374 0.036360182
0.09356402 0.07437178 -0.0056485515 -0.007288958 0.14106017 0.028479503 0.056458406 0.0067104977
0.054313596 0.08570762 0.034107696 -0.054091334 -0.013343293 -0.10655511 0.018868921 -0.029021077
-0.024912624 0.06836543 0.065869614 -0.02126947 -0.00040931726 -0.06674503 -0.20450783 0.06320384
0.009756454 2.7926204e-05 0.052929312 0.034168452 0.021882413 0.05571491 0.01978747 0.042302616
-0.05955359 0.03226535 0.0014535218 -0.07858228 -0.021507528 -0.012011429 -0.10202011 -0.10176208
-0.06162872 0.039394725 -0.02347845 -0.061174605 -0.052095324 -0.029533688 -0.03196014 0.045784462
0.027087001 0.025304738 -0.061698824 0.012497312 -0.06988958 0.0031540047 0.03879338 0.028245497
-0.06191026 -0.04507473 -0.07077573 0.061707374 -0.0063304915 0.015134862 -0.0012580547 -0.011803886
0.022504546 -0.038185757 0.0018187375 0.01149157 -0.01816141 -0.06019231 -0.033169676 -0.04715799
-0.04769421 -0.063647486 -0.09976857 -0.08784699 -0.15219481 -0.17320184 0.03262233 -0.105673745
-0.057155628 0.1422853 -0.0036635771 0.026783884 0.39064083 0.12190534 0.05427853 -0.014646695
-0.040246263 0.03549651 -0.038343847 -0.0125231445 0.08608416 -0.10217859 -0.09610396 -0.0024558867
-0.009448605 0.0042852424 0.010454297 0.07606365 0.06662369 0.016521117 0.05878287 0.06861322
0.0016531748 0.0183898 -0.053195916 0.04879777 0.021922102 -0.030294053 0.013986286 -0.004988029
0.0026363684 -0.05313215 -0.02585532 -0.03443242 -0.013129168 0.040089864 -0.010565985 0.027711583
0.19297944 0.0717131 0.019573625 0.097870395 0.07550083 -0.019017894 0.049665894 0.022340547
-0.025955591 0.04230942 -0.03989285 -0.07381945 -0.0015551095 -0.020197412 0.00066858047 0.03343137
0.017732777 0.008255962 0.1462384 0.039695743 -0.055821754 0.01767825 0.07389467 0.004583542

block_2.conv1.bias f4 [32]
00000000: fc8f a6bd 18be 8b3f 84a3 b53b ce70 813e
00000010: 4431 2d3d 915c f83d 305d a43d a7ee 64be
00000020: 9d7e 6c3e cfbe d73c 979f 513e f621 763d
00000030: 1930 323d 022a 21bc 14c3 733f d9e3 1f3d
00000040: f149 d5bc 9fce c63d 5b53 f6bc 4faa ac3d
00000050: 5240 bfbd 0eb6 6bbc 0c90 423e c3d6 ea3e
00000060: d92d 6bbb 20d4 d23d 80bd 0a3e afd8 b0bc
00000070: ee04 6d3d efa5 773d 5b14 663e 025c d93d
-0.081329316 1.0917387 0.005543174 0.25281376 0.04228331 0.12127031 0.080255866 -0.22356664
0.23095174 0.026336102 0.20471035 0.06009098 0.0435029 -0.009836676 0.9521954 0.03903565
-0.026036235 0.097073786 -0.030069044 0.08430921 -0.0933844 -0.014386667 0.19000262 0.45866975
-0.0035885482 0.10294366 0.13548851 -0.021587698 0.05786603 0.06046098 0.22468702 0.10613252

block_2.conv2.weight f4 [32, 32, 3, 3]
00000000: 9025 7abd c588 cbbc 7942 4ebd 9644 663d
00000010: 9296 443a ed03 0abd 58a3 d13d 7fca 1f3d
00000020: 1017 87bb 14cc a03d 427a 0f3d d2ce e83c
00000030: 61f7 b13c ba8f b63c eb43 debc 6520 1a3d
00000040: 1e01 293d 24ca 6ebd ea75 16bd 5cc5 0dbd
00000050: 2574 29bd 5515 2fbd 0860 20bd abed 19bd
00000060: e468 3ebd c374 f2bc 2000 f2bc 717e 6abd
00000070: 3a5b 833c c528 4b3d 9ed3 96bb 7881 9ebc
00000080: 47cd 003d 3701 243d e595 3ebd 9c0d 1fbd
00000090: 1da1 eebc 1363 95bc fed5 743c a30d f6bc
000000a0: 1c84 82bd 988d 43bd e8e5 09bd 1e6d 97bd
000000b0: 7c27 ccbc 9831 8ebd 8b69 523c afde 83bd
000000c0: 81da 46bd 047c 6ebd 01b6 50bc 9efc 16bd
000000d0: 9b01 80bd bb1e 92bc ac94 f3bc 641f 4bbd
000000e0: 80af f7bc 5839 0a3d a834 52bd 4455 e6bb
000000f0: bd01 753d a13b 123d 9454 c53b 00d2 cf3c
00000100: 70cc 2bbc 0ed9 25bd 5ad1 cdbc b5d2 ffbc
00000110: 0fab 8b3a aa76 7bbd 317b 5cbc bbf7 d73c
00000120: 01e0 a2bd aabe b33c 11ff 443e 0ec6 07be
00000130: 6f14 41bd 1708 c63d a062 f8bd 599a 9cbd
00000140: 048f 16bd 0ed1 7bbc 38a4 a1bc 0b82 b1bc
00000150: a156 93bc bd3d a4bc ce69 bbbc e0df 87bc
00000160: 8169 7bbc 1965 82bc 74f3 9d3c b344 02bd
00000170: c5e1 b0bb e3b6 3e3d fe65 babd 48b4 babd
00000180: 511b a63c fdb2 ffbc 2ecb 8fbd 8a23 d23c
00000190: aba2 8f3d f87f ca3c 0641 fdbc 83a8 d53d
000001a0: 2d2e 9f3d 15d7 15bd a1e5 e3bc 2935 a13d
000001b0: 0056 6b3d 269e 39bd e49e 183c 266e d83c
000001c0: 6ce0 2bbd 7b7b a4bc 731c 25bd ddb4 f2bb
000001d0: 87cc 8bbd 93e6 84bd a4cb a83c ab0b 93bd
000001e0: dbac 0ebd b7f4 593c d227 bd3c 9ea0 a7bd
000001f0: 2b07 dcbb b691 7f3d 431e 33bd 1688 1fbd
00000200: ca72 2d3c 1481 743d c47d afbd 1986 11bd
00000210: fe01 dc3d f608 3f3c c3d5 84bd 1cca 67bc
00000220: ae39 473d 7bd2 743c 9f42 c6bd 759c a23c
00000230: 8dbf 063d f410 f1bd 711a 0dbe 2aa2 dd3c
00000240: 70b5 a8bc d27e cbbc ae12 e1bc 2554 cfbc
00000250: cde0 b1bc 92d2 f0bc d832 dabc 932f 85bc
00000260: 34de 97bc 5015 93bd fee2 81bd bd8c e9bc
00000270: 6fbb 933d 873b f8bd b202 e5bb 4913 4b3d
00000280: 2ea0 d93c 5b7c b5bd b603 f1bd 9533 b8bd
00000290: 3e67 1cbd d176 87bd a817 bc3c 377f 57bd
000002a0: 99d3 97bd 43ad 8dbb db26 1cbd c259 d9bb
000002b0: 54e3 26bd bee8 07bc 4024 d7bc 4c14 b9bd
000002c0: 3504 37bd 88d9 c8bd e990 c3bd 4e81 d1bd
000002d0: 81d8 b83c af69 6839 f8d9 6dbd f43d 61bd
000002e0: a71b ab3d dc3a 46bc 0f79 d3bd 5909 c73b
000002f0: c6f2 903c 5d23 143d 5981 6bbd 88fc 90bc
00000300: 181c 333d e9aa abbd 1175 cbbd 94fb 5d3c
00000310: 3a75 21bc 09d6 adbd 1ffc bfbd 1d61 e3bd
00000320: 9881 0fbd 5dd1 03bc 514f e7bc 05fe 42bd
00000330: e541 4d3d 044e 503d d268 f8bc 83f9 42bd
00000340: d5a6 74bd f28b 9c3d 7177 a43c e1ba f33b
00000350: 8996 abbc f9ad e7bc 229f 033d dd6a 59bd
00000360: a8f7 88bd c864 07bc 1d69 04ba 2f65 5a3b
00000370: 51a8 dfb8 053e c43d d4cb 02bc 2d79 f7bc
00000380: 98ac 113e 4cbe d4bd a497 2d3c 2fd2 2a3d
00000390: d7f1 af3d f514 d0bd e5ea 003e 74d7 af3d
000003a0: 9b5e 0939 bb19 c5bc ae64 b6bd 102c 5dbd
000003b0: 833f 503d 4abf 38bd 5a20 a23b 660a e13c
000003c0: 341f 5ebc 6b5f e83c 90d8 313d eb88 0ebd
000003d0: 6975 1dbc 28bb a73c e1e5 b8bc d16f 29bd
000003e0: 18df 07bd 7232 3dbc 5e36 09bd 10f1 35bd
000003f0: 8ef9 92bd a1db 0fbd 399b a63d 7cb7 163d
-0.06107098 -0.02484549 -0.050356362 0.056217752 0.00074992434 -0.03369515 0.102362335 0.039011475
-0.0041226223 0.07851425 0.035028704 0.028418932 0.021724405 0.022285331 -0.027131995 0.03762855
0.04126083 -0.058298245 -0.036733545 -0.034612045 -0.04137053 -0.042744953 -0.039154083 -0.037580173
-0.04648675 -0.029596692 -0.029541075 -0.05724949 0.016034711 0.049599428 -0.0046028635 -0.019348845
0.031445768 0.04004022 -0.04652967 -0.03883134 -0.02912956 -0.018235719 0.014943598 -0.0300358
-0.06372854 -0.047742456 -0.03366652 -0.07393859 -0.024921171 -0.06943053 0.012842546 -0.06438958
-0.048548225 -0.05822374 -0.012738706 -0.03686201 -0.06250306 -0.017836919 -0.029733978 -0.049590483
-0.030235052 0.033746094 -0.05131975 -0.0070292074 0.05981611 0.035701398 0.0060220454 0.02536869
-0.010485753 -0.040490203 -0.02512424 -0.031228403 0.0010655838 -0.061392464 -0.0134571055 0.026363244
-0.079528816 0.021941502 0.19237925 -0.13259146 -0.047138628 0.09669512 -0.12128186 -0.07646627
-0.036757484 -0.015369667 -0.019731626 -0.021668455 -0.017985644 -0.02004897 -0.0228776 -0.016586244
-0.015344978 -0.015917348 0.019281127 -0.031803798 -0.0053980076 0.046561133 -0.09101485 -0.09116417
0.020276697 -0.031213278 -0.07021175 0.025651712 0.07013448 0.024719223 -0.030914795 0.10432532
0.07772479 -0.03658207 -0.027819457 0.078714676 0.057455063 -0.045316838 0.009315226 0.02641971
-0.041962072 -0.020078411 -0.040310334 -0.0074068145 -0.0682612 -0.06489291 0.020604916 -0.0717996
-0.034832817 0.0133029735 0.023090277 -0.08184932 -0.0067147217 0.06239482 -0.04373003 -0.03894814
0.01058645 0.05969341 -0.0856891 -0.035528276 0.107425675 0.011659851 -0.06486084 -0.014147308
0.048638992 0.014942761 -0.09680676 0.019849995 0.03289752 -0.11770812 -0.13779618 0.027054865
-0.020594329 -0.024840746 -0.027474727 -0.025308678 -0.021713639 -0.029397283 -0.026635572 -0.016258037
-0.018538572 -0.071817994 -0.063421234 -0.028509492 0.072134845 -0.12120729 -0.0069888467 0.04957894
0.026565637 -0.088616095 -0.11768286 -0.089942135 -0.038184397 -0.06614459 0.022960499 -0.052611556
-0.07413406 -0.004323633 -0.038122993 -0.0066330144 -0.04074414 -0.008295236 -0.026262403 -0.090370744
-0.044681747 -0.09807116 -0.09549124 -0.10229741 0.022564175 0.00022164614 -0.0580692 -0.054990724
0.08354884 -0.012098994 -0.103258245 0.0060741124 0.017693888 0.036166538 -0.057496402 -0.017698541
0.043727964 -0.08382208 -0.09934438 0.01354875 -0.009854609 -0.084880896 -0.0937426 -0.11102507
-0.0350357 -0.008045522 -0.028236063 -0.047605533 0.05011167 0.05085565 -0.03032342 -0.047601234
-0.059729416 0.0764388 0.020076485 0.007438049 -0.020945804 -0.028281199 0.032134183 -0.05308043
-0.06687862 -0.008263774 -0.00050510635 0.003332447 -0.0001066482 0.09582142 -0.007983167 -0.030209148
0.14225996 -0.10387859 0.010595236 0.041704353 0.08591049 -0.10160247 0.12589605 0.08586016
0.00013100581 -0.02406012 -0.08905922 -0.0539971 0.05084182 -0.045104302 0.0049477043 0.027470779
-0.013557244 0.028365811 0.04341942 -0.034798544 -0.009610512 0.020474985 -0.022570552 -0.041366402
-0.033171743 -0.011547672 -0.033499114 -0.04441935 -0.07176505 -0.035121564 0.08135075 0.036796078

block_2.conv2.bias f4 [32]
00000000: 2b09 613c 8f74 14be 1903 143d bb60 5a3d
00000010: ca63 f33e 932b a5bd 9e01 d9bd 1576 babd
00000020: ff8c 85bd fd6a 0fbd 3210 4d3e f52a fa3c
00000030: 8723 c33d 38f4 d03d b3ad 9dbd c69d 3b3e
00000040: 389b 73be 14e6 113d eddf 013d 72b7 fdbd
00000050: e0c8 843c 7f18 8dbe 3380 cfbc 2641 0bbe
00000060: 91e0 af3c 0cc0 10bf cb2a 2cbd 9744 babd
00000070: 56b5 cfbd 61fe d63b 8421 233e 838d bf3b
0.013735096 -0.14497589 0.036135767 0.053314906 0.4753707 -0.08064952 -0.105960116 -0.091045536
-0.065210335 -0.03501414 0.2002571 0.030538062 0.09528261 0.10202831 -0.07699146 0.18321905
-0.2378968 0.03561981 0.031707693 -0.12388505 0.016209066 -0.27557752 -0.025329685 -0.13599071
0.021469386 -0.5654304 -0.042032998 -0.09095114 -0.10142009 0.006561086 0.15930754 0.005845727

dblock_3.denselayer1.conv1.weight f4 [48, 32, 3, 3]
00000000: a996 ad3d 26c3 963d 3e72 563d 0874 8c3c
00000010: ce5e b73c 853e 9f3d 57d7 883d 9bf3 2b3d
00000020: 2ca4 413d e88a 1f3d 65f4 283d 9e07 f43c
00000030: 8693 933d 95d1 a83b 615b e13c cae6 f93c
00000040: eeb6 183d 2a40 403d e979 8f3c b6f6 70bd
00000050: c71f 203b c0fd 6dbd afa9 1bbd c33e a5bc
00000060: 8887 643d 5eef 35bd cd86 003d c8db 953b
00000070: aa06 9a3c aa48 593b d1d8 c3bc b85a 1b3c
00000080: 9061 133d 735d 163c 0103 8a3c ff51 aabc
00000090: 4d9d 25bd 5e3c 69bc d608 0c3d 4706 883c
000000a0: 98a8 833b 7033 eb3c 8d1b 1ebd adc6 05bd
000000b0: 054d 7a3b 9277 533d e29e 173d 397e c93d
000000c0: 46d4 cbbc 9da3 1d3d bf13 5d3d 53c7 2e3d
000000d0: 3a9f cebc 55b2 a63d 9f63 d1bb f295 45bd
000000e0: 7831 25bd fb37 b6bd c0a4 ddbb 5db1 c13a
000000f0: 9f94 86bd 04bc a4bd 1f36 f9bd aab0 d2bc
00000100: d6c3 14bc ccca 16bd 0c46 aabc 4fca b0bc
00000110: fdbd e43c 9673 00bd 1a9a 793c 814f 54bd
00000120: 77ed edbc 6cc8 90bd a93d a0bc a883 37bd
00000130: 4e87 0b3e 4da2 743c 0428 0c3b 3545 31bd
00000140: 905f b33b aad0 203d 541b 353d 7aa1 4e3b
00000150: 242d 003d 6700 a8bd eb3f d03c 3054 c93d
00000160: 2187 86bc acae 033d 3dee 33bd c409 09bc
00000170: c0a3 55bd 656b 8dbd 6d04 393d 1943 a63d
00000180: a5ad 4cbd efc9 7dbd b06a 6abd eac2 0bbe
00000190: 759d d0bd 38d0 a0bd c1b8 bcbd 066f 85bd
000001a0: cd1c 06be 33af 43bd c985 3dbe 9324 e7bd
000001b0: 7e11 e43b 2f67 75bc 282f 563d 85cf 6dbd
000001c0: dcbf 9d3d 786b cdbc 6a37 15bc 9721 4c3b
000001d0: 4cc4 25bd 2a4d 1a3d 13f1 2bbd ed8d 593d
000001e0: 0718 933d 9524 d6bc 4bb9 d03b 98c9 c3bc
000001f0: 1d68 303d 7b0b 803c 7cb7 3b3d 6f93 043d
00000200: d910 a23d df94 143d ce6c cfbc 3c08 09bd
00000210: 823c 033c 708a 01bc dcfc c93d 9693 493d
00000220: 0df0 843d 4aaf 493c cd0e 1a3d db48 dabc
00000230: dae4 873d de30 573d 63bf 533d 7528 213d
00000240: ed37 7b3d e1f4 893d 7538 b63d c123 623d
00000250: 6070 60bb e54f e23d 008e cc3d 8243 b83d
00000260: d856 023d 5b38 053d 0408 ce3c 8646 d53c
00000270: c702 2fbd dc19 153d 2c7f 4bbd 7693 94bd
00000280: c709 0dbd 63a0 b03c 71fa e43c 02e1 c73c
00000290: 6d6e 49bb c6d1 02bc e1ed 20be 71e2 253b
000002a0: f4ad 883c 9ee6 da3d 1196 3fbd abba 5abd
000002b0: f35e f6bc 755b 61bd 12e6 2dbd 1d05 3fbd
000002c0: cba5 05bd d7d6 34bd 2b5e 6cbd 70d3 e6bd
000002d0: 9062 53bd f3a7 19bd 2de1 dfbc 9940 07bd
000002e0: 1722 06bd 0253 d23c d43a d9bc 70a2 a3bd
000002f0: f8b3 4ebd 9828 eab9 81ca 02bb 6f7b 623d
00000300: 8dec 8f3c 1a41 1d3e 8b17 583d 2d44 5f3d
00000310: 08f9 2abd 9f2f 7f3d 94ca 0e3c 424b 143d
00000320: e91d 403c a39f c23c 99ad 7bbd d0ef 6ebc
00000330: 7089 b7bc 9ad7 e63b bd64 9b3c fcaa 823b
00000340: 521a d4bc 888e 16bd faf2 2abd 2127 383c
00000350: 4861 d73c 3964 983c 35bd 81bc 888a d7bc
00000360: 495e f6bc a0ab 37bd ef75 cbbb d0df 8bbd
00000370: bc58 a23d 71dd 4abc 0d34 55bd 17a5 14bd
00000380: 9350 f0bc 6759 7fbb ac8e 0a3b b431 a7bc
00000390: 4859 003a 977b 82bc b0a2 ecbc e506 f4bc
000003a0: 1b34 bcbb 77ac 0c3c adb0 7b3c 7a20 1d3d
000003b0: 01d8 6a3b 3ca1 023d 85a4 c43d e2ae 803d
000003c0: 4074 bf3c 066c cb3c 08b2 363c 8bc3 27bd
000003d0: a9a6 4ebc 9c2f c43c 5ba1 fc3d 46c3 a4bc
000003e0: b065 c6bd ec87 51ba c46f 8bbb 505f c63d
000003f0: 952b b03d fe53 3a3d fcfe 2a3d f048 6fbd
0.08476002 0.0736144 0.052355044 0.017145172 0.022384074 0.077755965 0.06681698 0.041980367
0.047275707 0.03895083 0.041248698 0.029788788 0.07205872 0.0051519373 0.027509393 0.030505557
0.03728383 0.04693619 0.017514186 -0.058829032 0.0024433003 -0.058103323 -0.03800362 -0.020171529
0.055793315 -0.04441773 0.031378556 0.004573319 0.018802006 0.0033154883 -0.023907097 0.009482078
0.035981715 0.0091775535 0.016847135 -0.020791052 -0.040433217 -0.014235584 0.034188114 0.016604556
0.0040179007 0.02871105 -0.038600493 -0.032660175 0.003819288 0.051627703 0.037016757 0.09838528
-0.024881493 0.038486112 0.05397391 0.04267056 -0.02522241 0.08139483 -0.0063900496 -0.048238702
-0.04033038 -0.08897396 -0.0067640245 0.001477759 -0.06571316 -0.08043674 -0.12168526 -0.025719006
-0.009079894 -0.036814496 -0.020785354 -0.021580843 0.027922625 -0.03136023 0.015234495 -0.051833633
-0.029043896 -0.070694774 -0.019560652 -0.04480329 0.13625833 0.014931274 0.0021386156 -0.04327889
0.0054740384 0.039261498 0.044215515 0.0031529353 0.03129305 -0.08203202 0.025421103 0.098305106
-0.016421856 0.032149002 -0.043928374 -0.008364145 -0.052158117 -0.069052495 0.045170236 0.081182666
-0.049970288 -0.061960157 -0.05723065 -0.13648573 -0.101862825 -0.078522146 -0.092149265 -0.06515317
-0.13096924 -0.047774505 -0.18508066 -0.11286273 0.006960093 -0.014978214 0.052291065 -0.058059234
0.0770261 -0.02507566 -0.00910745 0.003114795 -0.040470406 0.037671246 -0.041977953 0.053113867
0.07182317 -0.02614049 0.006369745 -0.023899838 0.04306804 0.015630474 0.04582928 0.032367166
0.0791337 0.036274787 -0.025320437 -0.03345512 0.008010032 -0.007906541 0.09862682 0.049213015
0.064910986 0.012309859 0.03761177 -0.026646068 0.06635447 0.052536838 0.051696192 0.039345223
0.06133263 0.0673616 0.08897487 0.05520988 -0.0034246668 0.11050395 0.09988022 0.08997251
0.031821102 0.032524448 0.025150307 0.026034605 -0.042727258 0.036401615 -0.049681827 -0.072546884
-0.034433153 0.021560853 0.027951451 0.024399284 -0.0030735985 -0.007984584 -0.15715744 0.0025311972
0.01668451 0.10688518 -0.046773974 -0.053400677 -0.030074572 -0.05501886 -0.04245574 -0.046635736
-0.032628816 -0.0441502 -0.057706993 -0.11270797 -0.05160767 -0.037513684 -0.027329052 -0.03302059
-0.032747354 0.025674347 -0.02651731 -0.07989967 -0.0504646 -0.00044662203 -0.0019957128 0.055293497
0.01756885 0.15356866 0.052756827 0.054508377 -0.0417414 0.062301274 0.008715291 0.036204584
0.011725881 0.023757761 -0.061444853 -0.014583543 -0.022404402 0.0070447447 0.018968934 0.003987668
-0.025891457 -0.036757022 -0.041735627 0.011239798 0.026291505 0.018602477 -0.015837291 -0.026311174
-0.030074256 -0.04484141 -0.006209127 -0.06829798 0.07927081 -0.012381897 -0.052051593 -0.036290254
-0.029335296 -0.00389632 0.0021142168 -0.020409442 0.00048961164 -0.015928073 -0.02888617 -0.029788444
-0.005743516 0.008586041 0.015361947 0.03836105 0.0035834315 0.031892046 0.09601692 0.06283356
0.023370862 0.024831783 0.011150844 -0.04095797 -0.012612977 0.023948483 0.123354636 -0.020112645
-0.09687364 -0.0007992971 -0.004255267 0.09686148 0.086020626 0.045490257 0.04174708 -0.058419168

dblock_3.denselayer1.conv1.bias f4 [48]
00000000: 631c 173c 7f4f 553d 9725 00bd ee1b 40bb
00000010: 78d5 363c 928e 963c eac2 cf3d 8ccd 473d
00000020: 3f8b e33b 1c7d ab3c c7f2 9bbd 0cb9 64bc
00000030: 6861 343e b0d4 9c3d b4ac 87bc a562 d7bc
00000040: 038e e33b 5881 e33b c9c9 18bc a916 1bbd
00000050: b48a e33b 74f7 e73c e811 953c e355 0bbd
00000060: 584e be3c 7b6f 853d 08a0 dcbb 0f9c 2bbd
00000070: 2c92 583d ef65 e33b d6b9 143d 4dcb 6c3c
00000080: cfcb b6bc 140f 8cbc d88e e33b 8281 e33b
00000090: 71b7 13bd a64b 193e 2b04 c73c a5ce a8ba
000000a0: 9c46 813c f21c 523d 1a7d 743d 7dcd c43c
000000b0: e8c3 873d 1b00 debc 762c cfba 1d86 e33b
0.0092230765 0.052077767 -0.03128585 -0.0029313522 0.011159293 0.01837853 0.10144599 0.04878001
0.0069440897 0.02093368 -0.076146655 -0.013960134 0.17615283 0.076577544 -0.016561843 -0.026292155
0.0069444194 0.006942909 -0.009325453 -0.037863407 0.006944025 0.028316237 0.018197015 -0.034017455
0.023230717 0.06515404 -0.0067329444 -0.041896876 0.052873775 0.0069396417 0.03631004 0.014452768
-0.02231398 -0.017097034 0.0069445185 0.006942929 -0.036063615 0.14970264 0.02429398 -0.0012878968
0.01578074 0.051297136 0.05968962 0.024023766 0.06629163 -0.02709966 -0.0015806097 0.006943478

dblock_3.denselayer1.conv2.weight f4 [48, 48, 3, 3]
00000000: cdb3 323c 4c96 28bd cd04 fcbc 7534 63bd
00000010: 1240 22bc df68 2b3b c856 3abd e490 613c
00000020: 4d97 71bd 783f 8fbb 3f1c 9b3c 436c 30bc
00000030: efc0 113d cf48 ddba 9479 c0bc 85d9 fcbb
00000040: 81d9 fcbc c05e 413d 0289 8e3c b57b 873c
00000050: 03d7 74bd 24f4 11bd 157d 483d 9307 31bd
00000060: 9432 25bb 4cce 2bbd 8038 113d 0fe7 6f3d
00000070: c5d5 583b 029d fd3b 9c01 853c d1c3 463d
00000080: 5ff9 f53c 70cd bd3a cf83 823d 0e89 d6bb
00000090: f380 3cbb 1630 3c3d 76c7 87bc 1b84 eb3c
000000a0: 9202 05bd c35e 653d d0ba c03c 4a76 6d3d
000000b0: 34e3 52bc 7c3e d2bc 6e26 cdbc 205d 1abd
000000c0: fbe1 80bc e421 aebc 68b4 16bd 1e15 e0bc
000000d0: f954 d2bc 5a80 5dbb 6d86 56bc ef48 abbc
000000e0: a8c4 b4bc 89c1 dcba ce1f 1fbb 91e4 103b
000000f0: f6d4 4b3b af44 f3bc 1b34 203c 872b e8b9
00000100: 2272 08bc db6e 8fbd d499 b6bb 37bc e03b
00000110: a439 babc 3826 c23c c0fb 1e3c 3b6d 06bc
00000120: 88eb 88bb 41fc 35bb face 9fbb eda7 55bb
00000130: b463 2fba d57b f3ba 1f30 e8bb 576f 90bb
00000140: f85a 94bb cc69 42bc e755 53bd 6e9e d5bc
00000150: 4a14 86bc 6dca 3e3a 74a6 c4bc 26ee 39bd
00000160: 19e7 33bc d00d 183c 4168 c5bc 861d 3fbd
00000170: 0d84 d7bc 1af9 a2bc 3efb d83c 2662 56bd
00000180: 57b1 3439 e0d2 12bc 1587 cfbb 0922 30bd
00000190: 71bf 8cbc dbe7 523b 1a53 6dbd 19a5 9ebd
000001a0: 5126 cebc 1b4c a5bb 6395 aabd 7229 83bd
000001b0: 5fcf 953b 3c7c fb3a 2b46 e0bc 3181 143c
000001c0: 3cb9 bc3b ebd2 18bd c63e 7dbc 6d0f febc
000001d0: d731 24bd ec10 10bd e4af 843b fe33 c0bc
000001e0: 738e f33b 86c7 42bd 9bfa 41bc 8ec1 04bd
000001f0: 234e 37bd 37cf cabb c435 b83d 731a a63d
00000200: 2430 9c3b 5a49 c03b c95b d33d e36a 83bb
00000210: 9ca7 f8bb 4d66 9dbb a5eb c63c f965 5c3c
00000220: 200a 7b3d 2c39 4e3d 9d1b 873d 9b07 a43d
00000230: 0e86 be3c 380b 973d 4dce 363d 6e68 133d
00000240: ebeb 88bb 30ff 35bb 9fd0 9fbb 8ca9 55bb
00000250: 756c 2fba a281 f3ba 9230 e8bb 1b70 90bb
00000260: 885b 94bb dee9 88bb 26f3 35bb c8c9 9fbb
00000270: a0a2 55bb 6248 2fba 0e6c f3ba 9f2e e8bb
00000280: f16c 90bb 8c59 94bb 5cc8 edbb 7f8f 43bd
00000290: d59f 643c b281 d43b e88e ab3d a7a0 2ebd
000002a0: 0b90 d4bc 91b3 0a3c f809 ed3c 78e9 873b
000002b0: 6dc5 8b3d 8a0d 6abd 60a4 48bd ba9a 9e3d
000002c0: 45b3 1a3d 548d 8c3c 496a 83bd 4090 7d3c
000002d0: 67eb 88bb 17fc 35bb d9ce 9fbb cfa7 55bb
000002e0: 7663 2fba 037c f3ba 1330 e8bb 436f 90bb
000002f0: fd5a 94bb 0005 2abc 0fe4 163d 70e6 0d3c
00000300: 8ca2 efbb a1ae 223c b76f 223c e955 a8bc
00000310: d56b 67bc 3f87 26bd 53cc 4cbd 6b7a 3f3c
00000320: e4fd ad3b ff2a 9f3d c7f4 88bd 05f6 2bbb
00000330: 92c6 843c 2f23 813c 46ff ad3b 9499 da3c
00000340: 5066 86bd 9ba3 5f3c 3ed0 b73c eb1f 6bbc
00000350: 1fc2 90bb 559d 0c3c 57a0 04bc 3827 c4bb
00000360: bdc8 7b3c 556f 0cba be70 f03a c52c 3c3c
00000370: d669 6bbc a660 693c 80f9 173c 2648 cb3c
00000380: a72c b2ba 24ef 22bd 0aa9 46bd b432 0fbd
00000390: fab4 1cbd f868 51bd ccdd 12bd 46cb 0bbd
000003a0: 33d8 f4bc 402b b53c 5fb6 003c f3a0 683a
000003b0: 05e5 e43c cfcb ca3c d679 fe3c 6689 353d
000003c0: f166 8a3b c076 593d feaa 0d3c 9ca9 243c
000003d0: 6e4a 443d 1953 2cbc b230 1e3d 505c 6a3d
000003e0: b283 c23c 4c16 fbba 59f3 7b3c 5467 2a3b
000003f0: d040 053b c246 b0b8 d693 1dbc 2463 c13b
0.010907126 -0.04115896 -0.030764008 -0.05546995 -0.009902971 0.0026155037 -0.045492917 0.013767455
-0.058982182 -0.0043715797 0.018934367 -0.010767999 0.035584386 -0.001688266 -0.023495473 -0.00771636
-0.030865433 0.0472095 0.017399315 0.01653848 -0.059775364 -0.03563322 0.048947413 -0.043220114
-0.002520715 -0.041944787 0.035454273 0.058569964 0.00330864 0.007739664 0.016236119 0.04852659
0.030026136 0.0014480781 0.06372797 -0.0065471 -0.0028763383 0.045944296 -0.016574603 0.028749516
-0.032473154 0.055998575 0.02352658 0.057974137 -0.012871552 -0.02566456 -0.025042739 -0.037686467
-0.015732756 -0.021256395 -0.036793143 -0.02735382 -0.025675284 -0.0033798427 -0.013093573 -0.0209088
-0.02206643 -0.0016842346 -0.0024280432 0.0022108892 0.0031102276 -0.029695837 0.009778048 -0.0004428292
-0.008327993 -0.07003566 -0.005572537 0.0068583745 -0.022732563 0.023699865 0.009703577 -0.0082047535
-0.004178468 -0.0027768763 -0.0048769685 -0.0032601312 -0.0006690577 -0.0018576334 -0.0070858146 -0.004407804
-0.004527446 -0.011866044 -0.051595595 -0.026076522 -0.016367096 0.00072780886 -0.024005152 -0.04539313
-0.010980391 0.009280637 -0.024097564 -0.046659015 -0.026308084 -0.019894172 0.02648699 -0.052339695
0.00017232202 -0.008961409 -0.0063332417 -0.04300121 -0.01718113 0.0032181654 -0.05794058 -0.07746334
-0.025164755 -0.005044473 -0.083292745 -0.064043894 0.0045718397 0.0019186805 -0.027377209 0.009064005
0.0057593863 -0.037310522 -0.015456861 -0.031013215 -0.040086593 -0.035172388 0.004049288 -0.023462292
0.0074327528 -0.04755356 -0.011839534 -0.03241115 -0.04475225 -0.0061892527 0.0899463 0.081105135
0.004766481 0.005868119 0.10320241 -0.0040105446 -0.00758834 -0.004803455 0.024282286 0.013452047
0.061288953 0.050347492 0.06597064 0.08009263 0.023257282 0.07375187 0.044630338 0.035988264
-0.0041785142 -0.0027770512 -0.0048771645 -0.0032602279 -0.00066918816 -0.0018578062 -0.007085868 -0.0044078953
-0.004527513 -0.0041782698 -0.0027763336 -0.004876349 -0.0032598153 -0.0006686506 -0.0018571632 -0.007085636
-0.004407518 -0.0045272764 -0.0072565507 -0.04774427 0.013954123 0.0064851874 0.083768666 -0.04263368
-0.025947591 0.0084656635 0.028935418 0.0041477047 0.06824765 -0.057141818 -0.048984885 0.077443555
0.03776862 0.017157234 -0.06416757 0.015476286 -0.004178453 -0.0027768665 -0.004876953 -0.0032601242
-0.0006690541 -0.0018576387 -0.007085809 -0.0044077947 -0.004527448 -0.010377169 0.036838587 0.008660898
-0.0073130783 0.00992933 0.00991433 -0.020548778 -0.01412483 -0.040656324 -0.049999546 0.011686902
0.005309807 0.07771873 -0.066873126 -0.0026239168 0.016207967 0.015763847 0.005309972 0.02668456
-0.06562483 0.013649846 0.022438165 -0.014350872 -0.0044176723 0.008582433 -0.008094869 -0.0059861206
0.015367684 -0.0005357166 0.0018344147 0.011485283 -0.014368495 0.014244234 0.009275794 0.024814676
-0.001359363 -0.039778844 -0.048501052 -0.034960464 -0.03825853 -0.051125497 -0.035856053 -0.034129404
-0.029888248 0.02211535 0.007855981 0.0008874081 0.027941236 0.024755387 0.031063955 0.044320486
0.0042236974 0.053091764 0.008646725 0.010050204 0.047922544 -0.010517859 0.03862066 0.057216942
0.023744438 -0.0019156425 0.015377843 0.002600153 0.002033282 -8.405514e-05 -0.009617766 0.005901711

dblock_3.denselayer1.conv2.bias f4 [48]
00000000: 75cb 103c aabd 673d daf2 4b3d 86b4 1639
00000010: bffa 89ba 51b4 d2bc 3087 e8b9 ad90 a939
00000020: 8390 2bbc 710b 85bd b8cc 01ba a983 8fbd
00000030: 0607 a43c be6f 603c 5d56 c13c 8ceb cc39
00000040: 24f8 603d 45d8 cebd 3d44 643c b974 7cbc
00000050: 93c4 c7bc 6d1b 723a 1fab 14bb 374e 403d
00000060: 9312 f4bc ac93 48bd fe25 c8b9 8dba 7d3a
00000070: 8f54 613a ffdc e839 8e17 8cba b1f8 f6bc
00000080: f6e6 96bd 5ff1 9cbc 0ddf e9bc eed9 633d
00000090: 59a5 e2b9 f935 f83c 4ad6 77bc b39f e8bc
000000a0: 667a 133d 69ce 923c 2a06 92bd 8f50 ebbc
000000b0: 0f58 3bb6 c395 2f3d ff23 a3ba ea0b 54bd
0.00883757 0.056577362 0.04979215 0.00014372365 -0.0010526999 -0.025720747 -0.0004435121 0.00032341984
-0.010471466 -0.06496323 -0.0004951465 -0.07007534 0.02002288 0.013698516 0.023600752 0.00039085408
0.054924145 -0.10099844 0.013932285 -0.015408688 -0.024385726 0.0009235654 -0.0022685004 0.04694959
-0.029794013 -0.048968956 -0.0003817528 0.00096789823 0.0008595669 0.00044415143 -0.0010688172 -0.030147882
-0.07368271 -0.019158063 -0.028548742 0.055627756 -0.00043229273 0.030299174 -0.015126774 -0.028396463
0.0360054 0.01792069 -0.07130082 -0.028724937 -2.7916428e-06 0.042867433 -0.0012446641 -0.051769175

side_1.conv.weight f4 [32, 16, 1, 1]
00000000: 208a 9a3d 2742 103a c836 c4bd a4b4 863d
00000010: c6b0 a83d 3b4e 923d 7897 00bd 2296 1b3e
00000020: fff9 bcbd b896 af3d 489b 023e 9bea 0b3e
00000030: b2b1 bd3d f060 4ebe 2755 37bb b650 a9bd
00000040: 67ef 063e cc4f b7bd 2390 7a3d 664f a4bc
00000050: a831 c13c a2d8 663d 4d1c 653d e565 58bd
00000060: fc37 84bd c9c7 0cbb 35b8 edbd 5561 383d
00000070: 764f c23d 12e5 413e 289e 3dbd 24f5 0ebd
00000080: 5ea9 0e3d 79c3 c03d e844 863d b646 383b
00000090: 5a1a 483d 7c69 023e eea4 8f3d 9310 70bd
000000a0: 4dc3 733c 3b4d cebd 20b6 343e 6e5a 483d
000000b0: 8109 54bd e5c5 7dbd be65 353d 6bc1 193e
000000c0: 0e46 68b9 47d8 d2bd fc94 60bd 2d7f adbc
000000d0: 3398 c63c 2acd a4bd 7f85 c4bd cb92 3fbd
000000e0: d80e 99bd 2daf a43d fe12 023d 9720 113e
000000f0: 6ca2 ffbc eb2a 043e a8c8 c03d e11a fb3d
00000100: aa00 0ebd df4e 083d 7892 45bd 84d7 0b3d
00000110: e841 6cbd 15b6 8c3e 4606 85bd 92c9 4b3d
00000120: 49fc 5fbd e0ca dc3d e2ee 0c3e 5645 413e
00000130: d562 1dbd 7b2b 07be 7c8f 40be e18a 80bd
00000140: a7e7 033e d769 fabd 32e2 0c3e 3e5f a43d
00000150: 1e56 073e 8d3f 8b3c c40d 953d 1e4d 203e
00000160: 7477 a03a f7ca 51bd f957 f33c 68e1 08be
00000170: 82c4 d0bd 5b2e 50bd ab84 a13c 5a86 a23c
00000180: 5a2b 7ebd f2ff acbc e244 29bd 83be c03d
00000190: 0168 f13d 34a3 453d 4b45 0dbe 3a13 e83b
000001a0: fd08 aa3d e99d 193d 0076 a13e 4e64 893d
000001b0: bf49 eebc d947 ddbd 95f2 79bb 1af9 0a3e
000001c0: 07b0 06bd b14f c53d 5a5a 6cbc 7b23 adbd
000001d0: 6f47 4a3d 2f45 323e 922b b3bd fcf4 1e3b
000001e0: 059d 093e d3e9 643e 91e7 16bd 667e 103e
000001f0: d91b 023e 468f be3d 5f73 aabd fb12 783c
00000200: 4598 823e b8f0 393d e958 8b3e 3c44 6dbd
00000210: 7bb4 91bc e4d0 ce3d 821f 553c 7140 adbd
00000220: eb0a a33d f3e6 41be b9e6 86bd e098 f5bc
00000230: 070f 89bc 404b cfbc cb7e 8b3e 1be3 c03d
00000240: 5f0e 1a3d 67e8 e7bd 6764 e1bd 10a5 073e
00000250: f080 f9bc 83eb 1fbd c624 edbd c0af b43c
00000260: c9f8 0ebe b119 5b3c 9757 933d aeef d7bd
00000270: 5ddf e83d e5e5 733e 29ac 8e3d 8486 bdbd
00000280: 06b6 683d 9c34 c4bd ea2e 923c 1577 653d
00000290: 45dd 1cbd 6969 1d3e 143e 88be 9321 a6bd
000002a0: b6ab 8bbd 9d4c 533d c711 503e b1ea a1bb
000002b0: a26f 033e 0590 d0bc 68a8 183e f1ee e33b
000002c0: cb67 15bd e239 d9bd 8e6e f9bd 5f69 903d
000002d0: 0ed9 023e 4113 08be 4b64 2b3e 210c 50be
000002e0: dd82 f53c e2a8 d7bd 6aee 8d3e 0af4 a3be
000002f0: e665 d6bd 1bd6 4cbd 8f1f bcbd 87f1 883d
00000300: 4f7e d7bd e776 1bbe 0714 573e 1602 9dbe
00000310: 4b2a 5b3e 68ac 79ba 0412 3bbd b753 95bd
00000320: c745 babd 02bf 143c fe37 d93b 324b 683c
00000330: 511d bcbd f600 033e 0bfd 7dbd 15ed c63d
00000340: 4f33 52be 373f ef3d a73b 0d3e 6d8e b1bd
00000350: 89a4 c2bd aa16 dd3d 00ee 053e e678 dcbd
00000360: cb14 8cbe 17bf 053e 51db bebd ec55 c33d
00000370: 8973 35be a609 26be df29 a63c 5cd4 8bbd
00000380: 25d7 92bd 3b4b a43d 41ee 4ebc 4d50 c33d
00000390: 7fa8 49bb 3af6 043e 696e f33d fbb7 963d
000003a0: 21bd c13d 2373 19bd 1691 cabc a8c8 5dbd
000003b0: 7e54 fc3c 2ced 583e 0f1d 31be 2f92 e33b
000003c0: 9209 933d bb81 803d 9d37 673d d540 a23d
000003d0: 5ed9 cf3c e01e 4a3e a8d3 d83d 37f9 73be
000003e0: 27d7 65bd e7ec bebd 6e5c f13d db15 3d3e
000003f0: de5e f53d 34c3 23be d998 7cbd 8d58 703e
0.075458765 0.00055030215 -0.09580761 0.06577423 0.08236842 0.071438275 -0.03139445 0.1519399
-0.092273705 0.08573669 0.12754548 0.13663714 0.09262408 -0.20154166 -0.0027974339 -0.082673475
0.13177262 -0.08950767 0.061172616 -0.020057391 0.023583248 0.05635894 0.055935193 -0.05283155
-0.06455991 -0.0021481386 -0.116074 0.045014698 0.09487812 0.1893504 -0.046293408 -0.034901753
0.03482949 0.094122835 0.065561116 0.002811832 0.048853256 0.12735552 0.0701388 -0.058609556
0.014878106 -0.10073324 0.176476 0.048914365 -0.051766876 -0.061956305 0.044286482 0.1501519
-0.00022151342 -0.10295158 -0.054829583 -0.021178806 0.024242496 -0.080469444 -0.09595775 -0.046770852
-0.07473534 0.08041225 0.031756394 0.14172588 -0.031205378 0.12906997 0.09413272 0.12260986
-0.034668602 0.033278342 -0.048235387 0.03414108 -0.05768004 0.27482668 -0.06495337 0.04975278
-0.054683957 0.10780883 0.13763002 0.18874106 -0.03842433 -0.1320018 -0.18804735 -0.06276489
0.12881337 -0.122272186 0.13758162 0.080259785 0.13216445 0.016998077 0.07278016 0.15654418
0.0012242631 -0.051218953 0.029705035 -0.13367236 -0.10193731 -0.050825458 0.019716581 0.019839454
-0.062053062 -0.021118138 -0.041325457 0.09411337 0.11787415 0.048251346 -0.13795964 0.00708237
0.08302496 0.03750411 0.3153534 0.06708585 -0.0290879 -0.108047195 -0.0038138975 0.13571587
-0.032882717 0.096343406 -0.014425838 -0.08454033 0.04938453 0.17409204 -0.08748545 0.0024254909
0.13438804 0.22354822 -0.036841933 0.14110717 0.12705936 0.09304671 -0.083227865 0.015141244
0.25506797 0.045395583 0.2721627 -0.0579264 -0.017786255 0.100984365 0.013008 -0.08459557
0.07961067 -0.18935756 -0.065869756 -0.029980123 -0.016730798 -0.025304437 0.27245173 0.09418317
0.03761136 -0.11323624 -0.11005478 0.1324656 -0.03045699 -0.03904296 -0.115792796 0.02205646
-0.13962092 0.0133728245 0.07194441 -0.10543762 0.11370728 0.23818167 0.06966431 -0.092541724
0.056814216 -0.09580347 0.017844636 0.05602177 -0.038296957 0.15372242 -0.26609862 -0.081118725
-0.06819861 0.051586736 0.20319282 -0.0049413075 0.12835553 -0.025459299 0.14907992 0.0069559743
-0.036475938 -0.106067434 -0.1217929 0.07051348 0.12778112 -0.13288595 0.16737477 -0.20317127
0.029969627 -0.10530259 0.27720958 -0.32022125 -0.10468654 -0.050008874 -0.09185707 0.06686693
-0.10522138 -0.15182076 0.21003734 -0.30665654 0.21402852 -0.0009524287 -0.045671478 -0.07291358
-0.0909534 0.009078743 0.0066289892 0.014178084 -0.09185279 0.12793335 -0.0620089 0.097131886
-0.20527385 0.11681979 0.13792287 -0.08669744 -0.09504039 0.107953385 0.13079071 -0.10765247
-0.27359614 0.13061176 -0.09319175 0.09537873 -0.17719854 -0.16214618 0.020283638 -0.06827614
-0.07169942 0.080221616 -0.012630046 0.095368005 -0.0030770598 0.12984553 0.118862934 0.0735931
0.094599016 -0.03746332 -0.024727385 -0.05414644 0.030802008 0.21184224 -0.17296241 0.0069449167
0.0717956 0.06274744 0.05644952 0.07922522 0.025372203 0.1973834 0.10587245 -0.23825537
-0.05611339 -0.09322529 0.11785208 0.18465368 0.11980985 -0.15992433 -0.061669204 0.2347128

side_1.conv.bias f4 [32]
00000000: a29a 4d3d e518 aabd 1512 0f3e 3ad9 a33d
00000010: 53a6 a33e 2846 c6bd 31cc 493d 1810 f13b
00000020: 9ef7 3c3c 9470 b1bd 510b 023e 7c03 8bbb
00000030: 969f 063e 47af d13d 7259 4dbc 003b 943d
00000040: 0d48 adbd 5816 933d aed2 49bd 432c c93c
00000050: 95fb 623d 45ae 30be 7332 9fbb 14f2 7e3c
00000060: 2688 823d 82b2 56be 4ef4 2d3d 025c 8fbd
00000070: 72a1 ddbc c4bf 91b8 d833 183e a4cc b03d
0.050196297 -0.083055295 0.13971741 0.08000417 0.31962833 -0.0968135 0.049266998 0.007356655
0.011533646 -0.08664051 0.1269963 -0.0042423587 0.13146815 0.102385096 -0.012533532 0.07237816
-0.08461008 0.07181996 -0.049273185 0.024557238 0.05541571 -0.17253979 -0.004858309 0.015560646
0.063736245 -0.20966533 0.042469315 -0.06999971 -0.027054522 -6.949858e-05 0.14863527 0.08632782
