checkpoints/BIPED/1/1_model.pth (torch, 249139 bytes, 30 tensors)

block_1.conv1.weight f4 [16, 3, 3, 3]
00000000: 0ae0 35be 9231 88bd 847b 0fbe f291 7abc
00000010: 02bc ecbd 7f42 bebd a390 37be 4da2 14bd
00000020: 2a93 c4bd 1f5e 343e d64a 8cbc dc9f 27bb
00000030: dea8 403c 6f56 b93d 0fdc cdbd 33d6 39be
00000040: 47f0 e7bd 14a6 9fbd 385c 0a3e a73a 5f3d
00000050: 683d 163e b98a 663e 370b 6a3e 9eb0 0e3e
00000060: 555b e43d d907 2d3e 6c8d ccbd c86b 9fbd
00000070: 54f6 0cbd bf69 1cbe 1f7d fabd c8b4 66bc
00000080: 92a6 87bd 9a76 fbbd 5b6b 8bbd 7044 933d
00000090: 3584 ce3e 9caa b03d afee 583c 642b f23d
000000a0: 5526 d33d ebcc 55bd 387a d63d 5df1 173e
000000b0: b716 0b3e c565 fa3b 30e1 92be e3bc 8cbd
000000c0: c597 ea3d 909c 5dbd 2ab9 43bd 5a2b 8cbd
000000d0: 63ac a5bd b814 8e3d 8f5f 523e d21e 5bbc
000000e0: cf27 733d b91d 03bc b03b 03be edcc 7cbd
000000f0: 909a 9cbc 71e3 36be a628 7a3d d12f bc3c
00000100: 5b4f 0dbe 752f 323d f212 f1bc 703a debd
00000110: 6bcc 6e3e 9e0d 003e a4ac 4abe c499 8abc
00000120: 789d 5c3d a801 debd f0bd 55bb 3861 e03a
00000130: 5eba 9abd 5e1f 78bd 53c8 b93d 6e33 7fbe
00000140: f7c6 d8bb 85b4 cabb 6ed4 ec3d 7801 1f3e
00000150: 790e 7dbd f8e0 923e a474 3d3e 9836 59be
00000160: a198 10bd 1a4d 513e 3632 3fbe b61e 38be
00000170: d5d0 17be 310f f938 5319 103d 21fc 123c
00000180: 3ba4 dc3b 78a9 83bd e344 57be 4e33 b13d
00000190: 9199 d4bd f928 f03d b46a fb3d 4140 61bd
000001a0: 9dbf 183e cf5d 98bd 029b 90bc 8c01 a6bd
000001b0: 2adc fabd f1da c7bd cddb a0bd 4305 6cbd
000001c0: da39 573d a349 103c 9cc5 2cbe ee26 763d
000001d0: 6bfd 563d cde9 b6bd 1a9f 573d feed 50be
000001e0: 70b7 d9bc de76 053e c723 fcbd bdd1 b13b
000001f0: 0a8f 0bbd 6cd7 e23d 279f cb3c 7996 643e
00000200: 4983 0c3e 0f81 28bd e3a1 683e d8cd 973d
00000210: 02f6 333d 500e 063e f7a6 a2bd 69de 77bd
00000220: 6b56 283d 8916 04bb 4775 b6bd af3a 343d
00000230: 32eb 56bd 0e2e 71bc 0591 58ba 4446 09bc
00000240: aa65 a1bd d271 08be aa16 43be be60 66be
00000250: 3546 4cbd 082f 08bd 4a04 10be f796 84bd
00000260: f9d3 50be 4171 5f3d b94c ee3d 0032 993c
00000270: f1f7 353e a22b 213e 87c8 043e c174 143e
00000280: c21a 883e b61a 193e bf4b 863d a0c3 233e
00000290: 625c 213e 049b 45bd 7442 ae3d 7e19 3b3c
000002a0: bb27 053c 85d8 733e e8ab 5f3d 326d 5ebd
000002b0: 4b2e 63bd 402b 15be 47f4 b5bd c443 243d
000002c0: c508 13bc 9663 5fbc 2dbe 043d 46be 113d
000002d0: f16b cebd 1e09 afbd fa76 7bbd 99bd 143e
000002e0: f9dc 3e3d 654a 27be 24cb 84bc aa50 a63b
000002f0: e055 ebbd 90a9 84bd 0b47 a73e 2ac4 103e
00000300: 1e30 a03d 9685 96bd 104f b53d 5210 8fbd
00000310: 6dc1 adbd fa25 033c 1610 3dbe 8628 09ba
00000320: 5342 e83d de42 473e ec93 8b3d f35d 95bb
00000330: 280b 3bbe bc57 75be 64d1 61be e78b 01bb
00000340: 9092 413e a4ad df3c 894e 053e 1e4a 40bc
00000350: b761 f03d 9eae 653c c972 17be b5a9 23be
00000360: 244d 2cbd 0586 033d fb55 5a3c 4821 863e
00000370: 8c54 393d 1401 5f3d 9b78 0b3e 2fd5 b4bc
00000380: b9de 013e 56d5 51be 3ddf 16be 2f5f 03be
00000390: b63c 45be 6f81 7dbd a80b 313d 1c8d 09be
000003a0: de4b 32be 3cfc d63c 2796 b2bd b1d5 153d
000003b0: 604e e8bc 3922 c5ba 5ba3 773d ae35 7a3e
000003c0: c969 213d c0c9 9cbc 07a4 473e dde5 37be
000003d0: c085 efbc 5d99 96bd 725b 50bc 4ecd 04bd
000003e0: aca1 ca3d b5b5 eb3c ea89 a2b9 9c8d 353e
000003f0: 986a 12be 975d 3ebe af44 54bd 9763 0f3e
-0.17761245 -0.0665008 -0.14011961 -0.015293585 -0.11559297 -0.09290027 -0.17926268 -0.036287595
-0.09598382 0.1761403 -0.017125528 -0.0025577461 0.011759011 0.09049689 -0.100517385 -0.18148117
-0.11325126 -0.07795349 0.13511741 0.054499295 0.14671862 0.22513856 0.2285584 0.13934562
0.11150233 0.16897525 -0.099879116 -0.077842295 -0.034414604 -0.15274714 -0.12230896 -0.014081188
-0.06623568 -0.12278481 -0.06807586 0.07190788 0.4033524 0.08626291 0.0132405 0.11824682
0.10310046 -0.052197378 0.1047253 0.14838167 0.13582884 0.0076415264 -0.2868743 -0.06871965
0.11454729 -0.054104388 -0.047784008 -0.06844206 -0.08089521 0.069375455 0.20544265 -0.013374047
0.059364136 -0.008002692 -0.12815738 -0.06171887 -0.01911667 -0.178602 0.06107392 0.02297202
-0.13799803 0.04350229 -0.02942798 -0.1085099 0.23320167 0.12505195 -0.1979242 -0.016919024
0.05386111 -0.1084016 -0.0032614432 0.0017118817 -0.07555078 -0.06057679 0.09071412 -0.24921963
-0.0066155153 -0.0061860704 0.11563955 0.15527904 -0.06178138 0.28687263 0.18501526 -0.21212232
-0.03530181 0.20439568 -0.18671498 -0.17980465 -0.14825757 0.00011876075 0.0351804 0.008971245
0.006733445 -0.06428808 -0.21022372 0.08652364 -0.10380853 0.11726565 0.122762114 -0.054992918
0.14916845 -0.074397676 -0.017652038 -0.08105764 -0.12249024 -0.09758557 -0.07854424 -0.057622205
0.052545406 0.008806619 -0.16872257 0.06009572 0.052487772 -0.08931313 0.052641965 -0.20403287
-0.026576728 0.13033625 -0.123115115 0.005426614 -0.03407196 0.11076245 0.024856163 0.22323026
0.13721956 -0.041138705 0.22718005 0.074123085 0.043935783 0.13091397 -0.07942002 -0.06051484
0.04109804 -0.0020155034 -0.08909088 0.044001278 -0.052470393 -0.014720453 -0.00082613557 -0.008378569
-0.07880719 -0.13324669 -0.19051614 -0.22497842 -0.049871642 -0.033247977 -0.14064136 -0.06474107
-0.20393361 0.054551367 0.116357274 0.0187006 0.17770363 0.15739301 0.1296712 0.14497663
0.26582915 0.14951596 0.06557416 0.15992594 0.15757897 -0.048243538 0.08508769 0.011419652
0.008127148 0.23813064 0.054607302 -0.054303356 -0.05546407 -0.1456728 -0.08884483 0.04010369
-0.008974259 -0.013634583 0.03240793 0.03558185 -0.10079182 -0.08546661 -0.06139276 0.14525451
0.046597455 -0.16336973 -0.016210146 0.005075534 -0.11490989 -0.06477654 0.3267139 0.1413733
0.078216776 -0.07349698 0.088529706 -0.06985535 -0.08484159 0.00800466 -0.18463168 -0.0005232174
0.11340775 0.19459102 0.06815323 -0.0045583188 -0.18265975 -0.2395925 -0.22052532 -0.0019767226
0.18903565 0.027304478 0.1301824 -0.011736421 0.117373876 0.014018683 -0.14789881 -0.15982707
-0.042065755 0.032110233 0.013326163 0.26197267 0.045246646 0.054444388 0.13620226 -0.02207431
0.12682618 -0.20491537 -0.14733596 -0.12829278 -0.1926144 -0.061891016 0.043224007 -0.13432735
-0.17411754 0.026243322 -0.087200455 0.036580745 -0.028357685 -0.0015040106 0.060458522 0.2443454
0.039407525 -0.01913917 0.19496165 -0.1795878 -0.029238582 -0.073534705 -0.012717115 -0.032422356
0.09894118 0.028773168 -0.00031001802 0.17729801 -0.14298475 -0.18590389 -0.051823314 0.14002834

block_1.conv1.bias f4 [16]
00000000: 8246 4e3e 7248 ab3d 5b2d 0e3e 517f 4e3e
00000010: 8854 3f3e b8da b13e 2f94 263f 157b 033d
00000020: bb1c 993e 86ab 83be b5e7 d1be c21c 1e3d
00000030: 9134 cfbe f209 98be 11a0 c8be 69b3 0a3d
0.20144084 0.08363427 0.13884489 0.20165755 0.1868459 0.34737182 0.6506986 0.032099802
0.29904732 -0.257168 -0.4099709 0.038601644 -0.40469792 -0.29695088 -0.3918462 0.033862505

block_1.conv2.weight f4 [16, 16, 3, 3]
00000000: e894 313c c9ea 2a3d f661 a73d eb22 45bd
00000010: c1c7 54bd 95af bdbd a372 363e b4e4 9e3d
00000020: 09a0 2cbd 9c3e 1abd 9321 41bc d962 0dbd
00000030: 249a 28bd b414 4b3d 3da7 cf3d 871f 9b3b
00000040: 54bf bbbd 6d79 433b e29b b33c 6848 d33c
00000050: f9d6 313e 6f30 f7bd a852 25be 2152 d13d
00000060: bc35 09be 8c5a 55be b56d 213e 0050 c23d
00000070: a52a 233e 7561 3d3d 8078 b7bd fa8d 8abe
00000080: c30a 07be a89d e03d 8aa5 49bd 75f3 473b
00000090: f4f7 283d eac7 47bd aa7c 07bc b772 7a3d
000000a0: 04ea 74bd 7a56 25be 6c53 023e 081d 013e
000000b0: 2288 e5bd f14d 4a3d e46f febc a3a8 8bbc
000000c0: fac1 a43d 7e0b cd3c e7f2 7fbe 8aac ea3d
000000d0: 7fc5 9c3d 529e 883c b2da 2e3d 7ce5 acbc
000000e0: e201 023d 4569 f53d 8c3b 653d de23 e6bd
000000f0: b0b1 a4bc bb7d 0c3e c17a 0bbe d72f 943d
00000100: 9a2d 37bd cf42 61bd 94e1 d8bd a004 8bbe
00000110: 3e47 c5bc 2084 bfbd 25b1 c63c 5bfa 6f3d
00000120: b765 90bd 1265 843d 067f 133d 6528 9c3d
00000130: d18e 10be ac35 63bb f1bb d93d 2c36 16be
00000140: 00e8 583d cc5f 32bd 735b eabd 8fb2 00be
00000150: 9736 2e3d adae 1ebd d080 33bd 2d6a 8abd
00000160: d928 c63d 3615 1a3d de1b 3dbd 8cd9 963d
00000170: 523c ffbc 8daa 3ebe 7fa4 c13d 39fd 49be
00000180: 9aef 86be 9dfd 5c3e c10a e6bd 1919 a7bc
00000190: e87f 5a3d 4b48 c53d 7367 fbbb b8ad 0ebd
000001a0: 0ee0 d23d 78e0 1f3b 131d 6bbe 1036 093e
000001b0: 3f1c c03d d145 b43d e1b4 873d b775 0d3d
000001c0: 55a0 2a3e 094b fb3c 6545 f03c b762 8c3d
000001d0: ef72 913e 21da ea3b 0211 8c3d e39f 87bd
000001e0: 049f e1bc 5ae5 133e 168b 4a3e e2d8 2abe
000001f0: 1b41 83bb 351e 03be aa84 28bd c0e9 56bd
00000200: 145b babd a72b dd3c eae8 1e3e 0c93 ba3d
00000210: a3ea 97be 66a4 81be 3795 8fbd e6b8 d13d
00000220: f5ab f53d c6e2 84bc 02e3 913c 3560 3f3c
00000230: 6351 3f3e ab88 04be c42d 983b 483a 85bd
00000240: 6dc1 0d3d 06f4 ddbc 3359 75bd e4c0 7ebd
00000250: 6188 0d3e 22eb 5b3d 36e7 ecbc 72eb af3d
00000260: 1799 c43c e877 bcbc 4b85 913d 6372 a3bb
00000270: 1f85 bfbc 50a3 8cbc 837d a83d c2dc 92bd
00000280: a275 adbd 64e9 ba3d 4330 e23c e7da 73bd
00000290: d59f dd3c d5f8 263d c6bd 513d 20be 773d
000002a0: c049 8e3d 6c2d bc3b 8ae1 c73c 0d56 2cbd
000002b0: 134d 14bd 90f2 19bd ad28 e8bb 2200 6dbb
000002c0: 7dba 56bd f523 ee3c d975 923d ba7a 9a3d
000002d0: cb78 37bd 8511 04bd d488 79bd ac20 983c
000002e0: ba24 1e3e 770a 203d 9362 183c cf0b 5cbc
000002f0: 3ff1 93bd ea6e d4bc 5d1a 85bc a5a6 313d
00000300: 8dfc abbc 7faa 0e3e a8be 973d ff2f 91bd
00000310: 3ff1 08bc e705 9a3b 181d 77bd 84a2 893d
00000320: 9b77 123e f569 1c3d 1b2d 233e 8c63 0dbd
00000330: 32b7 b3bd 8165 1a3c ba42 8d3c eb7d 143e
00000340: b16d 2cbd 8827 33be 8ae5 babb 67eb 0abe
00000350: 5d29 44be 54d3 823d 7a03 293d 1562 27bd
00000360: 474a 52bd 3d0a 8e3d adc5 7e3c 852c 973d
00000370: c640 06bd ab1e ddbb bfe0 84bc 3d69 7ebd
00000380: 36b2 2abd 553c 6bbc d6ef a53d db03 723d
00000390: 0f67 ed3b 7b72 26bd 5ba9 6abd cdc5 193d
000003a0: f24c 873d a4e4 c13c 749a 753e b126 53bd
000003b0: fa50 cabc c6d1 64bd 5e4a 45be 7462 473d
000003c0: 1ef8 23be edc2 34be c988 9a3d 8270 51bd
000003d0: e9e7 5d3c 945d bcbb 8258 bc3b fc1a b9bc
000003e0: af6f 04bd 414c 74bd 6d4f b83c 322d 963c
000003f0: d807 5f3d 7d51 90bd 9325 36bd d076 46bc
0.010838725 0.041727815 0.081729814 -0.048129003 -0.051948313 -0.09262005 0.17817168 0.077584654
-0.04214481 -0.037657365 -0.01178779 -0.034518097 -0.041162625 0.04958029 0.1013932 0.004733983
-0.09167352 0.0029827014 0.021924917 0.025791362 0.17367162 -0.12069785 -0.16144812 0.10220743
-0.13399404 -0.20835322 0.15764506 0.09487915 0.15934236 0.04623552 -0.089585304 -0.27061445
-0.13187699 0.109675705 -0.049230136 0.0030510102 0.04125209 -0.048774637 -0.008269468 0.061144557
-0.059793487 -0.1614627 0.12727135 0.12608731 -0.11207606 0.049390737 -0.031059213 -0.017048186
0.080448106 0.025029894 -0.24995004 0.114586905 0.07654857 0.016677056 0.042689033 -0.02110552
0.031740077 0.11982969 0.05596499 -0.1123731 -0.02010426 0.13719837 -0.13621046 0.07235687
-0.044721223 -0.054995354 -0.105899006 -0.27151966 -0.024081822 -0.09351373 0.024254391 0.058588367
-0.070506506 0.0646459 0.03600981 0.07624892 -0.1411698 -0.0034669442 0.1063155 -0.14669102
0.052955627 -0.04354839 -0.11443224 -0.12568115 0.04253253 -0.038740803 -0.043824017 -0.06758533
0.0967576 0.037617885 -0.046169154 0.073657125 -0.031156693 -0.18619747 0.09455203 -0.19725503
-0.26354676 0.21581121 -0.1123252 -0.02039771 0.053344637 0.096329294 -0.007672244 -0.03483364
0.10296641 0.0024395268 -0.2296031 0.1339953 0.093803875 0.08802379 0.06626297 0.03453609
0.16662724 0.030675428 0.029329965 0.06854766 0.28408 0.0071671163 0.068391815 -0.06622293
-0.027541645 0.1444296 0.1977962 -0.16684297 -0.004005564 -0.12804492 -0.041142143 -0.052469015
-0.09099403 0.026998354 0.15518537 0.09110078 -0.296712 -0.2532074 -0.07010882 0.10240345
0.11995689 -0.016221415 0.017808441 0.011680652 0.1868339 -0.1294276 0.0046441276 -0.06505257
0.034608293 -0.027093899 -0.05989952 -0.062195674 0.13821556 0.053691037 -0.028918844 0.085898295
0.02399878 -0.023006395 0.07105502 -0.004988001 -0.023378907 -0.017167717 0.082270645 -0.071710125
-0.08469702 0.09126547 0.027610904 -0.059534933 0.027053753 0.04076465 0.051206373 0.06048405
0.069476604 0.0057427194 0.024399538 -0.042074252 -0.036206316 -0.03758484 -0.007084927 -0.003616341
-0.052423943 0.02906988 0.07151384 0.075429395 -0.04479293 -0.03224327 -0.060921505 0.018570267
0.15443698 0.03907248 0.009300846 -0.01343055 -0.072237484 -0.025931794 -0.016247923 0.043371815
-0.020994449 0.13932227 0.07409412 -0.07089233 -0.008358299 0.0047004106 -0.06033048 0.067204505
0.14303438 0.038186986 0.15935175 -0.034518763 -0.08775176 0.0094236145 0.017243732 0.14501159
-0.042096797 -0.17495549 -0.0057036327 -0.13566361 -0.19156404 0.06387964 0.04126308 -0.040865023
-0.051340368 0.069355465 0.015550059 0.07381538 -0.032776617 -0.0067480407 -0.016220449 -0.06211208
-0.04167386 -0.014357646 0.08102386 0.059085708 0.0072449516 -0.04063652 -0.057290416 0.037542153
0.06606473 0.023668595 0.239847 -0.05155057 -0.024696816 -0.055864118 -0.1926665 0.048677877
-0.16012618 -0.17652483 0.07545621 -0.051132686 0.013544061 -0.00574846 0.0057478556 -0.022595875
-0.032333072 -0.059643034 0.02249881 0.018332098 0.05445084 -0.07046793 -0.044469427 -0.012113288

block_1.conv2.bias f4 [16]
00000000: 83fb 973c c0ae 90bc 41fb 0a3f 590e af3e
00000010: 5fce bcbd 9aa0 843f 35d5 83be 2a43 003e
00000020: 7a8e a7bb b62d b73e 9fcd 623f b488 513e
00000030: 778a 02be 14cd f2bc 0d46 443d 6bcc b2bd
0.018552547 -0.017661452 0.54289633 0.34190634 -0.0921905 1.0361512 -0.25748602 0.12525621
-0.00511342 0.35777062 0.88595 0.20462304 -0.12748133 -0.029638804 0.047918368 -0.08730396

block_2.conv1.weight f4 [32, 16, 3, 3]
00000000: 8180 343d d043 e6bd 5a9c eebd 91fb 5dbd
00000010: fb3c 07be f9ea f23d dddd 973c 3a9a 9fbc
00000020: 7f91 513d accc d03b e9fc 80bd 173d 7ebd
00000030: c6ee 413d 01a2 a8bc 6998 82bd 59d4 a63d
00000040: d334 5d3d 6ad1 54bd d43e 67bb d48a ec3d
00000050: 7200 013d cb51 6cbd 71df 1abd bf5a cabd
00000060: 4fb8 05bd bd88 913d 3c85 83bb 2b59 b7bd
00000070: e8d7 60bd 1d3f 35bd 9182 2bbd 5293 06bc
00000080: 6ba2 bf3c e402 2c3d 3cbc 37bd 7868 a73d
00000090: 2d87 8f3d ecac 6e3d 3672 963d a902 cf3d
000000a0: ce1c f2bd 15ae 193c 581a e4bb 894e e5bd
000000b0: f2cd 8cbc 5e8f 42bc b6f2 48bd 65da 92bd
000000c0: 064a eabc 2f99 98bc be17 e9bc 188a a0bc
000000d0: 0244 35bc 1d56 d0bb 55f4 9f3c 7226 553c
000000e0: 1934 883b fe11 8dbd 5b40 583d fa77 1ebe
000000f0: 6545 fbbb 5f9e aebd 7764 9cbd c2e1 04bd
00000100: 48f8 88bd 6092 76bc 550a 14bd f546 b73b
00000110: 0bc7 9e3b 145a 323d 6561 223d c332 9c3c
00000120: a50f 03be 7c9f d83d 6200 163c 8beb 6fbd
00000130: 212c 13b7 b2c2 b1bb 0a05 f9bc 32eb 173d
00000140: a4e2 373d a7a9 2ebd 6203 b7bb 49eb ecbc
00000150: 615b 0abd 57d9 07bb e7e2 01bd 3ba0 7fbc
00000160: ac47 033c 6025 3a3c c366 1b3d 0b2b dc3d
00000170: de64 433e 1299 b73c f295 973c 22da c63d
00000180: ebd9 dfbd 5889 efbd a1ae 0f3e 3e82 62bc
00000190: 8bad d23c db00 bd3c b846 73bc 2873 e83c
000001a0: 90b1 a53d d1ee 78bc 3113 0ebc b98e 8b3d
000001b0: 6861 bbbc 007b 903d b10a 33bb 73bd 223d
000001c0: 3dfa 073e 796c af3d ba85 843d a2b1 0f3d
000001d0: dc9e d03d 3891 343c c6a7 333d 0738 c4bc
000001e0: 822b 123d 55a5 1a3d 4c4b 833d 8b72 b5bc
000001f0: 5b4c 21bd cca0 dcbd c4e7 e6bc b691 b7bc
00000200: e75b 53bd e02b 8d3d 3d62 023e 3663 58bc
00000210: 2f48 eb3c 002b 4cbd 7866 febd 68de 8ebc
00000220: 5921 b0bd 0561 6dbd 3cc0 b2bc a792 d8bc
00000230: c45a 2abc fcab 4f3d 9b49 de3b 55f3 5c3d
00000240: 8c74 a1bd 60ed 023d 8286 063c b54e b8bd
00000250: f666 90bc 9605 3a3c 6c6e f8bd 226b 03be
00000260: b23b 86bd 0696 dd3c 666d 66bc 0d58 18be
00000270: 68b6 5fbd 3d08 83bd e077 a9bd 65e8 cc3c
00000280: 8cec 8e3d e76d 6bbc e3a9 57bd 16e4 d3bc
00000290: 4575 25bd 0765 163d 38f4 f13a 5d2a e43c
000002a0: 8e1f e3bb e63d 26ba 156a a3bd 6f81 9b3d
000002b0: 4b5c 993c 4cbf 063c 36b9 8eb9 1750 97bc
000002c0: 77f1 c43c 06b6 833c 82d8 09bd 635b 373c
000002d0: 29ff 873c 192b dcbd 191b d6bd 23f9 b6bc
000002e0: 436e 42bd 695a 61bd a60d b5bd 1f0e c3bd
000002f0: e018 06be fd15 00be fc92 c03c 182a e4bd
00000300: 59d1 66bd c87d 023e 6a21 85bc 6bdd 123d
00000310: 31fd 913e 1ceb b53d 0dc9 b13d bf18 3dbc
00000320: 8f50 5dbd f253 393d a2b4 12bd 418d 60bc
00000330: d309 8c3d f7ee fbbd 59bb 0dbe 5c9d 06bd
00000340: a768 443c d83c febb d3fb 803c 04f1 d93d
00000350: 51b4 ab3d c485 de3b 9a82 c33d 4c37 bb3d
00000360: bd22 903c 4596 0c3d 2511 41bd 4e37 093d
00000370: bf9c fe3c 7287 b4bc 8b52 173d 0cd8 213c
00000380: 0a52 e0bc e7fa dfbd 26e9 7abd 7c10 1fbd
00000390: ea60 0fbd 4220 3e3d 22a7 7bbb eae6 2cbc
000003a0: 1faf 0d3e 0b52 6d3d f712 643d 76cf d83d
000003b0: e465 9e3d 2c94 e3bc 4070 da3d 854b 343d
000003c0: 7029 5cbd 4c4b 823d ca2a fbbc 3b4e c1bd
000003d0: 01df 6cbc 923a 03bc 3930 e9bc bc50 033d
000003e0: 2baa 5e3c 34fd 92bc 0b6e 2a3e 9d05 1d3d
000003f0: 15ab 70bd 7b96 d93b 9732 8a3d c66d f0ba
0.044067863 -0.11243403 -0.116509154 -0.05419499 -0.13206856 0.11861224 0.01853841 -0.01948272
0.051164147 0.006372055 -0.06298239 -0.06206998 0.047346853 -0.020585062 -0.06376726 0.08145971
0.054005455 -0.051957525 -0.0035285251 0.11549917 0.031494565 -0.05769519 -0.037810747 -0.0988059
-0.032646473 0.07106159 -0.0040136855 -0.08952554 -0.054893404 -0.044249643 -0.041872565 -0.008213835
0.023392877 0.041994944 -0.04485725 0.08174223 0.070082046 0.05827038 0.07346003 0.10107929
-0.118219 0.009379883 -0.006961148 -0.1119662 -0.017188046 -0.011875002 -0.049059592 -0.07170562
-0.02859975 -0.018627731 -0.028453704 -0.019597098 -0.011063578 -0.0063579218 0.019525686 0.013009654
0.004156601 -0.06888197 0.05279575 -0.15475455 -0.0076681846 -0.08526301 -0.0763635 -0.032441862
-0.06687981 -0.015049547 -0.036142666 0.0055931755 0.004845505 0.043542936 0.039643664 0.019067174
-0.12798937 0.10577294 0.009155365 -0.05857424 -8.772157e-06 -0.005424821 -0.03039791 0.037089534
0.044893876 -0.04264226 -0.00558512 -0.028920786 -0.033778552 -0.002072891 -0.03171053 -0.015602167
0.008012693 0.01136145 0.037939798 0.10750397 0.19081447 0.022411857 0.018504117 0.09709574
-0.109302364 -0.11696118 0.1403146 -0.0138249975 0.025717517 0.023071697 -0.014848404 0.028375223
0.08090508 -0.015193657 -0.008671568 0.068143316 -0.022873595 0.070547104 -0.0027319605 0.039731454
0.13279052 0.085656114 0.06470819 0.035081513 0.1018655 0.011020951 0.043861173 -0.023952497
0.035686024 0.03775533 0.06410846 -0.022149345 -0.03937946 -0.10772857 -0.028186686 -0.022408348
-0.051601317 0.06893134 0.12732787 -0.0132072475 0.028720943 -0.049845695 -0.12421888 -0.017440036
-0.086001106 -0.057953853 -0.02182018 -0.026437117 -0.010397617 0.050701126 0.006783677 0.053942997
-0.07883558 0.03196466 0.00821078 -0.08999387 -0.01762722 0.011353871 -0.12130436 -0.12833837
-0.06554355 0.027049076 -0.014064169 -0.14877339 -0.054617316 -0.06398056 -0.082748175 0.025013158
0.069787115 -0.0143694645 -0.05265225 -0.025865596 -0.04039504 0.03671744 0.0018459624 0.027852232
-0.006931252 -0.0006341621 -0.07979218 0.07593047 0.018720767 0.00822432 -0.00027222343 -0.018470807
0.02404092 0.016078006 -0.033653744 0.011191222 0.016601162 -0.10750408 -0.10454387 -0.022335595
-0.047468435 -0.055017862 -0.08840494 -0.09524178 -0.13095427 -0.12508388 0.023507588 -0.11140841
-0.056351993 0.12743294 -0.016251285 0.035855692 0.28513482 0.08882734 0.086809255 -0.011541544
-0.054031905 0.045246072 -0.035816796 -0.013705553 0.06837811 -0.12301438 -0.13840999 -0.032864913
0.011987842 -0.007758718 0.01574508 0.10641673 0.08384002 0.0067908484 0.09546395 0.091414064
0.01759469 0.034322996 -0.04713549 0.03350001 0.031080602 -0.022037242 0.036943953 0.00987817
-0.02738287 -0.10936528 -0.061257504 -0.03883408 -0.035004534 0.046417482 -0.003839918 -0.010553101
0.13836335 0.05793957 0.05568215 0.10586445 0.07734278 -0.027780615 0.10665941 0.044017334
-0.053750455 0.06362018 -0.030660052 -0.094387494 -0.014457465 -0.00800957 -0.028465377 0.032059416
0.013590376 -0.017943002 0.1664354 0.03833543 -0.058756907 0.006640253 0.067479305 -0.0018343262

block_2.conv1.bias f4 [32]
00000000: 81e3 a9bd 9ecf 863f 5874 0cbd 1d68 953e
00000010: af26 de3d d4cf 203e 8b15 103d ded1 24be
00000020: 370d 683e 9037 d73c d1fc 5b3e 46b7 86bb
00000030: 549f 033d 1aa7 2f3d c042 283f e5e6 df3c
00000040: 922b 0bbc 8dfe b23d a62c aabc 1ddc 8a3d
00000050: 131f f8bd bca6 cf3c 308c 8e3e 9311 cf3e
00000060: 28c8 be3b c9d6 083d aad4 2a3e 558e 4f3d
00000070: 57fd 823d 6f0c ad3d e9fb 373e 8d20 d73d
-0.08295346 1.053211 -0.03429064 0.29180995 0.10847222 0.1570428 0.035176795 -0.16095683
0.22661291 0.026271611 0.2148316 -0.0041112034 0.03213437 0.04288397 0.6572685 0.027331779
-0.008494275 0.08739958 -0.020773243 0.067802645 -0.12115302 0.02534806 0.2784133 0.40443096
0.0058222003 0.03340796 0.16682687 0.050672848 0.06395977 0.08449637 0.1796719 0.105042554

block_2.conv2.weight f4 [32, 32, 3, 3]
00000000: fdf5 5abd 8551 60bd b101 d5bd 15e2 833d
00000010: b4b8 e4bc 3001 18bd 1e74 223d 618d 6f3d
00000020: 4bd4 873c a634 183d 2d31 f93c ed0e 04bd
00000030: f960 27bd 3472 fcbb eebe 35bc 9d02 1f3d
00000040: c401 b23c 04a6 95bd a30b 9dbc 9d38 adbc
00000050: a0e7 c3bc 5ba2 c6bc 3c28 acbc f362 61bc
00000060: cc78 aabc 00f2 89bc 4cdd d5bb 087e 7fbd
00000070: a606 533c 4578 dd3c 3395 8abc 0050 97bc
00000080: 8e32 193d 9d80 693d 4c47 14bd 81bf 60bc
00000090: c53d debb ea21 62bd ef62 fbbc 54d9 dd3c
000000a0: 0d7b c6bc 64c0 70bd ee78 bd3c 6b41 19bd
000000b0: 8f5e 6bbd d9e1 a0bd 8fc1 e2ba 904b 89bd
000000c0: 4c1b 88bd 68d4 a4bd 812e 76bd 5b6c 6cbc
000000d0: d66e 31bd 380a 80bc 5741 83bd bbac 31bd
000000e0: cb9e 92bc 2948 093d e67b bebd 4e7e c0bc
000000f0: bf6e 6d3c 2dfc a8bc b5bb fabc 22bf c53c
00000100: feaf 13bc 3a0a 53bc b354 fcba f996 333d
00000110: 7eff 163c f2af 6ebd 4dc0 923c 69bc 803a
00000120: 9cc0 d2bd 7d46 8c3c 5dec ef3d e3fa e9bd
00000130: 57c2 a8bd 18dd 893d d55a 9dbd 402d 8dbd
00000140: dd77 2cbd 4c86 69bc 6c4e afbc b177 a0bc
00000150: 7c18 79bc 8f0a a3bc ce0a aabc eded 93bc
00000160: 124d 77bc 2a33 89bc 0742 cdbb a024 e83a
00000170: 06cc ab3c 2eb9 503d 2ba3 97bd 4ce2 34bd
00000180: ab2b ee3c 4011 963c 44e1 05bd 31e9 343d
00000190: 2fad cf3d 2df8 d83c 26a7 44bd f11a c53d
000001a0: f9e8 a73d 216b b6bd 4b06 54bd 97ca 3d3d
000001b0: 4169 463d 9da7 ec3b 8c0c 0e3d c906 493d
000001c0: edf3 35bc c15b f53c 4a67 c0bc 33e8 6a3c
000001d0: 7ff1 64bd 4b69 f2bc 8b6b a33d 695d 4bbd
000001e0: 9691 d5bc d4ec c33c 93f2 643d b9ac b6bd
000001f0: 4f87 39bd e29e cc3d c415 863c 7ca4 90bd
00000200: 3cd0 d63c 9b11 d13d 76e1 8abd 0f09 6abd
00000210: d9c7 8d3d 124b a63d 19fb 80bd 5bc3 a1bd
00000220: 85a5 61bc 5dab 183d d29c a7bd ee0c 86bc
00000230: 7693 ea3c 3991 75bc 398b 0cbe f5ce 11bd
00000240: f2be c0bc 125f dcbc e93c 00bd c7f9 d6bc
00000250: d33c bcbc 9184 e1bc f24b 01bd cd81 e3bc
00000260: dc24 a7bc fd99 5ebd d2b7 1fbd 870f c73c
00000270: 9f3d 733d 2501 02be 5de9 bc3a 28f5 663d
00000280: 4e45 40bb 26b7 e8bd 62b3 afbd 431c 98bb
00000290: 14e5 57bd 2320 80bd 3367 443d 8f9f fdbc
000002a0: 9f51 b8bd 35a9 07bd c2fa 7dbd 0e9e b83b
000002b0: c203 2fbd 2a60 6dbd d871 cdbc 2748 8dbd
000002c0: b371 a3bc 818e 94bd 6ec6 59bd 6936 e6bc
000002d0: 46a7 f73c f036 a23d 760b 63bd b8f1 96bd
000002e0: c66a 153e 04b4 013d e348 14be fe6d 11bd
000002f0: 7eae 083d 25fc 42bd db16 8dbd e982 33bc
00000300: d612 82bc 38aa fbbd eb46 c2bd be39 03ba
00000310: 6a02 99bd b321 97bd 8584 76bc 377a 36bd
00000320: f868 f6bc 9ded 513b 7999 ee3c 4810 f3bc
00000330: d100 043c 3513 693d f6a8 7c3d 4a5e 4cbd
00000340: 7c8a 2abd e60c 113c a9c1 51bb 52a0 3bbc
00000350: eb4d 9abc e88c e7bc a177 8dbc 122b 773c
00000360: 0a53 03be 1f12 28bd 5390 863c 6a21 04bd
00000370: aa12 483c 7938 e93d 396b b13c ddbb a3bc
00000380: 827a b93d 17f2 0abe 9f39 f6bb 5362 983d
00000390: 1d00 fe3c 4611 06be 8cca ed3d e00c ba3d
000003a0: f278 f8bc c4d9 10bd ee18 05be 48ec 4ebd
000003b0: 4bec e23d 86d0 66bd 653f 13bd 052e 1d3d
000003c0: 41b5 1e3b 5a59 df3b 4718 113c 1f4d 1ebd
000003d0: 415d 91bc 41bb 423c a381 d6bb 37a8 9fbc
000003e0: eeb3 b8bc 0810 89bb 2a15 a1bb 25b6 bcbc
000003f0: c6b5 4ebd c14f 38bd f43b ce3d 3c1d 973d
-0.05345725 -0.054765243 -0.10400713 0.06439606 -0.027920105 -0.037110507 0.03966152 0.05848444
0.016580721 0.037159584 0.030418957 -0.032240797 -0.040863965 -0.0077040438 -0.0110928845 0.03882085
0.021729358 -0.073070556 -0.019170588 -0.02114516 -0.023914158 -0.024247339 -0.021015279 -0.0137565015
-0.020809554 -0.016839027 -0.006526625 -0.062376052 0.012880003 0.027034888 -0.016916847 -0.018470764
0.03740173 0.05700742 -0.036200806 -0.013717533 -0.006782266 -0.055208124 -0.030686824 0.02708117
-0.024228597 -0.058777228 0.023128953 -0.037415903 -0.057463225 -0.07855577 -0.0017300117 -0.067038655
-0.066458315 -0.08048326 -0.060102943 -0.014430131 -0.043318592 -0.015629873 -0.06408947 -0.04337762
-0.017897984 0.033516083 -0.093009755 -0.023497727 0.014491736 -0.02062806 -0.030607084 0.02413899
-0.009014128 -0.012880856 -0.0019251317 0.04384515 0.0092161875 -0.058273263 0.017913962 0.0009821776
-0.102906436 0.017123455 0.117150046 -0.11424806 -0.082401924 0.067316234 -0.076833405 -0.068933964
-0.042106498 -0.01425321 -0.0213997 -0.019588323 -0.015203591 -0.019902496 -0.020757105 -0.018057788
-0.015094059 -0.01674803 -0.0062639746 0.001771111 0.02097131 0.05095785 -0.07404169 -0.044161126
0.029073557 0.018318772 -0.032685533 0.0441677 0.10140454 0.026485527 -0.048010968 0.09624279
0.08198733 -0.08907152 -0.051763814 0.046335783 0.04844022 0.0072221295 0.034679934 0.049078736
-0.01110552 0.029950978 -0.023486752 0.014337587 -0.05589437 -0.029591223 0.079794966 -0.04964963
-0.026070397 0.02391664 0.0558954 -0.08919663 -0.045295056 0.09991242 0.0163678 -0.07062623
0.02622234 0.10208436 -0.067812845 -0.057137545 0.069228835 0.08119787 -0.06297893 -0.07898589
-0.013772373 0.0372728 -0.08184208 -0.016363587 0.028634768 -0.014988237 -0.13724984 -0.03559776
-0.02352855 -0.026900802 -0.03130809 -0.02624215 -0.022978222 -0.027529033 -0.031566568 -0.027771855
-0.020403318 -0.054346073 -0.038993664 0.024299396 0.05938494 -0.12695749 0.0014412809 0.056386143
-0.0029338184 -0.11363058 -0.085791364 -0.004642041 -0.0527087 -0.062561296 0.04794998 -0.030959873
-0.08999943 -0.033120353 -0.06200672 0.005634076 -0.042728193 -0.057953037 -0.025078699 -0.068985276
-0.019951677 -0.07253743 -0.053167753 -0.028102117 0.03023113 0.07920635 -0.055430852 -0.07370323
0.14591512 0.031665817 -0.14480929 -0.035505287 0.033369534 -0.047603745 -0.06889125 -0.010956504
-0.015878122 -0.12288326 -0.09486183 -0.00050058577 -0.074711636 -0.073794745 -0.015046244 -0.044550147
-0.03007935 0.0032032498 0.029125916 -0.02967085 0.008056835 0.056903083 0.06168457 -0.04989461
-0.041635975 0.008853173 -0.00320063 -0.011451798 -0.018835982 -0.028265432 -0.017268958 0.015085952
-0.12824646 -0.041032907 0.016426241 -0.03225843 0.012211481 0.113877244 0.021657573 -0.019987041
0.0905657 -0.13568912 -0.007514193 0.07440629 0.031005913 -0.13092527 0.116108984 0.09084487
-0.030331109 -0.035363927 -0.12997791 -0.050518304 0.110802256 -0.056351207 -0.03594913 0.038373966
0.0024216922 0.0068160715 0.008855886 -0.038647767 -0.017744662 0.011885465 -0.0065462156 -0.01948939
-0.022546735 -0.0041828193 -0.004915853 -0.023036072 -0.05046632 -0.044997934 0.10070029 0.07378623

block_2.conv2.bias f4 [32]
00000000: 1f7f d13c 23e2 4fbe 3ec6 aabd 0cfc 3e3c
00000010: 2d04 e93e b6ba 18bd 8918 22be e8ea 06be
00000020: 01d9 00be d2bf 4e3d 9f5d e03d bd49 df3b
00000030: bab9 5b3d 0ca6 b43d 7199 b8bd 0cfc 103e
00000040: ded6 56be 6992 863c 2e96 453d 4152 febd
00000050: 921c 5cbc c580 87be 4396 3ebd cc50 5ebe
00000060: e93d 93bc 19a5 00bf d389 b6bd d6c7 0cbe
00000070: 1dfe c6bd 1dde 3eba 20a0 c33d e2d7 dc3c
0.025573311 -0.20301108 -0.08338593 0.011656772 0.45510998 -0.037287436 -0.15829672 -0.13175547
-0.1258278 0.050475903 0.10955357 0.00681421 0.05364392 0.088207334 -0.090136416 0.14158648
-0.20980403 0.016427236 0.048238926 -0.124180324 -0.013434546 -0.2646543 -0.04653002 -0.21710509
-0.017973857 -0.5025192 -0.08913007 -0.13748106 -0.09716437 -0.0007281022 0.09552026 0.02695841

dblock_3.denselayer1.conv1.weight f4 [48, 32, 3, 3]
00000000: 5ef9 5b3d 839a 7f3d 628f 233d 9043 62bc
00000010: aa08 1e3d 73ec e23d 6da1 e63c 45c8 6f3d
00000020: a6f8 183d 0ed6 e43c 6b32 053d 4abb 2d3c
00000030: 573f 9a3c 1c61 49bd 5ca4 0bbc a58b 5c3d
00000040: 4ae4 af3c 828a 4e3d 0f12 fd3c e309 e1bc
00000050: e5a6 adbb e5c3 bdbb e116 f7bc 2282 1cbc
00000060: 2f57 393d 227d 56bc beef e23c 63e1 183b
00000070: e664 17bd 986e e7b8 7fb5 c63c 2e53 083c
00000080: 5991 bbbc 883b dbb9 b98c 57bd fd5e 943c
00000090: a76d 0fbd 342f b6bb 0c23 283d 7575 993c
000000a0: 8344 f6bc 3faf 923d e780 60bd 96a4 9abc
000000b0: bdba e0bc 84f8 cb3c 3ff5 ae3c b1fd cc3d
000000c0: 98a6 22bd 7003 0d3d 8626 713d d267 ef3c
000000d0: d21a 71bd 09d5 873d dea9 33bd 2826 17bd
000000e0: 0efb 8cbd 5b8f 06be 7d03 a2bb 9cad 1c3c
000000f0: 9438 c5bd 4b62 cabd afd1 10be b2d9 dbbc
00000100: 39b6 e1bb a3e7 babc ed21 11bd 504f b7bc
00000110: 898f 083c 120e 61bc fb48 073b 6bbc 37bd
00000120: 7356 9ebb e1a9 3fbd b9c2 61bc f951 93bd
00000130: 0222 7e3d 52fb 53bc 5057 6a3b 21e9 babd
00000140: 23be d53c 782d 1f3c b1cf 533d d98f e7bc
00000150: 82de 433c 1f06 1cbd e74d 6b3d cfff c23c
00000160: 0c62 8abd 574c b13c 4a78 98bd 3629 45bd
00000170: 755c 44bd c3e2 a7bd 39f6 43bc 0a96 0d3d
00000180: 1ff8 96bd 360a afbd e79f 9ebd 8a26 03be
00000190: a3f2 07be 699d 9fbd 4ca3 b3bd 0a52 d9bc
000001a0: 91c0 98bd a04b 93bd 9390 14be b2b7 80bd
000001b0: c59e 793c e233 a2bb bead 433d 83af 6dbd
000001c0: 813d bc3c 1b88 a8bc b8c0 373c ce44 d43c
000001d0: d2d3 c9bc 3e01 b13c 98f0 47bd 96a8 9e3d
000001e0: eace ab3d 0af5 1cbd 8145 95bc 9187 f6bb
000001f0: 67d5 8e3d 2af4 f13c 6623 3c3d 1b8d ad3c
00000200: 0eb9 823c f257 2a3a 74bf 013d c03f 4cbd
00000210: 6953 763c 197f 1ebc d259 643d 4d05 a0bb
00000220: 1e33 723c c2a6 3fbc 1d76 cd3c 0a3f 62bd
00000230: d793 953d 74e3 ad3c 81c8 2d3b cfe2 ce3a
00000240: 1085 683c f64e 273d 68c0 653d c2f4 493d
00000250: a506 c0bc 2497 923d 7182 4f3d a42f b43d
00000260: d9a3 223d 11aa 2e3d d09e 503d 4176 db3b
00000270: 9b11 90bd c4ba 983d 1d27 99bc 6803 b8bd
00000280: 4bfe 3fbd dad9 663a 5f4c 5a3c 4033 3cbb
00000290: ea11 4bbc baeb 5d3c 3518 14be 626e 31bc
000002a0: 95e5 aebc de90 ac3d 3648 34bd 954d 86bd
000002b0: 357a 85bc 86b1 8abd 4d20 96bd d284 81bd
000002c0: 6a96 5bbd 6c11 38bd 272b 6cbd 7b61 02be
000002d0: e9f8 18bd 0dc2 d1bc cb57 0f3c 931e 59bd
000002e0: 2c50 07bd fb14 863d 50de 2ebd 5c7e 27bc
000002f0: 0477 57bd 6eca 5dbb 8d3d eebb c1df 683d
00000300: d767 c8bc 4b54 ee3d 7c30 893d 3578 aa3c
00000310: dab7 edbd baab 773d 81bd 8fbb 143c ae3c
00000320: df9d d13c 0323 2a3d 3252 62bd 57f0 97bb
00000330: 78d7 a8bc c1f9 f6bc a521 203d 5f88 423c
00000340: a82a f6bc 808f cfbc 7d15 40bd e9a5 0fbc
00000350: ce50 ca3c bed5 af3a 0307 583b 16aa 6ebc
00000360: f7d7 7c3c 119a 92bc c989 ae3a 54b2 d4bd
00000370: 58bd 713d 29ce e73c 85fc cdbc b63f 51bc
00000380: d370 06bc eae1 973c 4eb4 113a 4282 683c
00000390: 9355 313c a805 423b a911 22bd 6d40 503c
000003a0: 5fc3 bf3c 1f49 073c b651 2a3c 6235 123d
000003b0: 68c4 5f3d 7583 dd3c b621 a93d 7f4d f13d
000003c0: 915a 9d3d b9bc 5f3c c0b5 013d f979 43bd
000003d0: beba 45bc 792e aaba 2626 8f3d 77fc 5a3c
000003e0: e6f7 d5bd a3e0 873a fb27 29bd c98a aa3d
000003f0: 582c 6f3d e33c 4e3d f966 d83c 08b8 84bd
0.053704612 0.062403213 0.039931662 -0.0138100535 0.03858248 0.11080255 0.028153146 0.0585406
0.037346505 0.0279341 0.032518785 0.010603735 0.01882903 -0.049164876 -0.008523073 0.053844113
0.021471161 0.05042506 0.0308924 -0.027470535 -0.0052994364 -0.0057911747 -0.030162277 -0.00955251
0.04524916 -0.013091357 0.027702209 0.00233277 -0.03696146 -0.00011035538 0.024256466 0.008320613
-0.022896456 -0.0004181529 -0.052624438 0.0181117 -0.035016682 -0.0055598263 0.04104905 0.018732766
-0.030061966 0.07162332 -0.05481043 -0.018877309 -0.027432794 0.024898775 0.021357177 0.10009325
-0.039709657 0.034427106 0.05887463 0.02922431 -0.05886347 0.0663243 -0.04386317 -0.036901623
-0.068838224 -0.13140623 -0.0049442635 0.009562876 -0.09629932 -0.09882029 -0.14142488 -0.026837204
-0.0068881777 -0.022815531 -0.035432745 -0.022376686 0.008335003 -0.013736265 0.0020642865 -0.044857424
-0.004832083 -0.04679287 -0.013779336 -0.071933694 0.06204415 -0.012938337 0.0035757609 -0.09126497
0.02609164 0.00971543 0.05171174 -0.028266834 0.011954905 -0.038091775 0.05744734 0.02380362
-0.06756982 0.021642847 -0.07444818 -0.048135005 -0.047939736 -0.08197548 -0.0119605595 0.034566917
-0.07371544 -0.085468695 -0.07745343 -0.1280767 -0.13276152 -0.077936955 -0.08771381 -0.026528377
-0.07458604 -0.07192159 -0.14508276 -0.06285037 0.0152356075 -0.0049500326 0.047773115 -0.05802871
0.022978546 -0.020572713 0.011215381 0.025911715 -0.024637137 0.021607038 -0.048813432 0.07746999
0.08389075 -0.038319625 -0.018221619 -0.007523485 0.06974297 0.029535372 0.045932196 0.021185448
0.015957382 0.000649809 0.031676725 -0.049865484 0.015034535 -0.009673857 0.05574972 -0.0048834444
0.014782695 -0.011697473 0.025080735 -0.0552359 0.07303589 0.021226622 0.0026517215 0.0015784147
0.014191881 0.040846787 0.056091696 0.049305685 -0.023440668 0.07157734 0.050661508 0.08798149
0.03970704 0.042642657 0.050932705 0.0066974466 -0.07034608 0.07457498 -0.018695408 -0.08985025
-0.046873372 0.0008806266 0.013323872 -0.002871707 -0.012394408 0.013544971 -0.14462359 -0.01082954
-0.021349708 0.08426069 -0.04401418 -0.06557766 -0.016293624 -0.06772141 -0.0733038 -0.063241616
-0.053610243 -0.04493849 -0.05765834 -0.12732498 -0.037346754 -0.025605226 0.008748959 -0.053007673
-0.033035442 0.065469705 -0.042692482 -0.0102229975 -0.052603737 -0.0033842581 -0.007270521 0.056854013
-0.024463577 0.11637171 0.06698701 0.020809272 -0.116073325 0.060466506 -0.0043866043 0.021268882
0.025587974 0.041537296 -0.05525417 -0.004636805 -0.020610556 -0.030148389 0.039094586 0.011873334
-0.030049637 -0.02533698 -0.046895493 -0.008767583 0.024696734 0.001341514 0.0032963164 -0.014566919
0.015432349 -0.01789573 0.001331621 -0.10385576 0.059018463 0.028296547 -0.025144825 -0.0127715375
-0.00820561 0.018540341 0.00055581785 0.014191212 0.010823625 0.0029605422 -0.039567623 0.012710673
0.02340859 0.0082571795 0.010395458 0.03569544 0.054630667 0.027040223 0.08258383 0.11782359
0.0768329 0.013655835 0.03166747 -0.047723744 -0.012068449 -0.0012983821 0.06989698 0.013365856
-0.104476735 0.001036663 -0.041297894 0.083272524 0.0583919 0.050351035 0.026416289 -0.06480414

dblock_3.denselayer1.conv1.bias f4 [48]
00000000: f678 ac3c 5721 523d abfd 5cbd d4b9 16bc
00000010: 4f6d 2c3c 8537 053d 7d62 de3d 004a 693d
00000020: 40ad afbc 7cf4 973c 56f6 5dbd 2592 87bc
00000030: c559 423e 70a3 b23d 2c04 21bd d52d 0cbd
00000040: 74bc afbc 4a92 afbc e48c 14bd e0cc 4dbd
00000050: 4fb0 afbc a24b 103d 60cb a5bb 7ee5 f2bc
00000060: 4ad2 293d d7e1 9a3d 413d 1bbd 2fa2 10bd
00000070: edf6 f43c 8c38 afbc a3c7 3f3d d43e a53b
00000080: 437d 69bc c632 0fbd a5ba afbc 3f99 afbc
00000090: bde9 dbbc b303 f73d 7985 593d 68c3 95bc
000000a0: 92d9 cb3a 2188 a83d 8b5d 383d 1563 373d
000000b0: e971 ce3d 32aa 4ebb 24a1 0dbd cba6 afbc
0.021053772 0.051301327 -0.053952854 -0.009199578 0.010524108 0.03252365 0.10858629 0.056955338
-0.021444917 0.018549196 -0.054190002 -0.01654918 0.18979557 0.087225795 -0.03931062 -0.034223396
-0.021452166 -0.02143206 -0.036267176 -0.050244212 -0.021446375 0.03522838 -0.0050596446 -0.029650446
0.041460313 0.07562607 -0.037900213 -0.03531092 0.0299029 -0.021389268 0.046821248 0.00504289
-0.014251056 -0.03496053 -0.021451304 -0.021435378 -0.026844854 0.120612524 0.053105805 -0.018281654
0.0015552512 0.082290895 0.045011085 0.044772226 0.100803204 -0.003153455 -0.034577504 -0.021441838

dblock_3.denselayer1.conv2.weight f4 [48, 48, 3, 3]
00000000: 9326 173d e859 6fbd 2001 abbc b58d 11bd
00000010: d8ed 4abc 2d0a 9dbc 16dc 45bd 9c34 a3bb
00000020: 585a 4ebd 1046 c3bc b6d8 7b3c d1e3 92bc
00000030: 3763 5f3c 88a4 e3ba 56fa 72bc 16bd 91bc
00000040: 2c91 87bc 4654 cf3c e54c 393c e653 e33c
00000050: dee8 22bd 3a3f 86bd 0756 833d 2ed4 a9bc
00000060: 90e3 dbbb d2c3 1fbd 2dc3 873d 761e 743d
00000070: 7190 5f3c 5f97 4d3b 508a 7e3b 23f8 383d
00000080: 0634 d63a 1834 80bc befb 443d 57fa de39
00000090: 4ff2 00bc 9e88 593d 05c2 c4bc c8d2 bf3c
000000a0: ab99 1bbc 72ef ae3c 1bae 4d3c e39c 093d
000000b0: 4481 fcbc fc55 96bc 4f58 2fbd 14ec 2ebc
000000c0: 10bf 253c 8b3f 26bd 25ae 54bd 40b0 ad39
000000d0: c32d 863c 5cdb 343d 5cd7 e5bc 1caa 38bd
000000e0: 2889 83bd 52f6 8a3b 79f7 83bc 0ee9 f2b8
000000f0: 34dd 1f3b 7f11 8abc 5168 1aba 2341 bc3c
00000100: 8258 883c e366 78bd 958b 063d 79de 533c
00000110: b71d f43b 0496 1c3d e639 0f3d 6260 c53c
00000120: 6d72 56ba 2466 143a 324c 263a b9e2 f934
00000130: 1502 143b e316 ff3a bbb4 25bb 008e c9ba
00000140: 15cd 09bb 844c 32bc 70d5 a9bc c4f8 5cbb
00000150: 6d87 693c c649 733c 7e99 d1ba bdd6 d2bc
00000160: 2d7a d63c 5f4d 0f3d c75b 2cbc 62d4 fdbc
00000170: 3a20 ba3b d069 ad3b 4ee3 eabb 2ce9 30bd
00000180: 746d c03b af66 fb3c 5556 f03c cf61 00bd
00000190: 938a 57bc 36f4 a63c a48e 2fbd 0d65 ebbc
000001a0: fd0a d6bb da81 013c 560d cbbd ac77 60bd
000001b0: 6fb7 02bc 7b60 35bc 2a67 c8bc a01d 1abc
000001c0: 297d 2bbc 8cf8 f9bc e0fd f1bc ed03 2fbd
000001d0: ad93 10bd 55fe ddbb cfa2 ea3c e65d 883c
000001e0: 297d ae3b 11a8 f7bc df1f 6d3b 4cf4 71bb
000001f0: ae1c f03b c333 50bc 7a64 c83d a4e6 3a3d
00000200: 5b3b 84bc 86ae babc cd27 ff3d 832d 88bd
00000210: 5c69 15bd 9ad3 72bd 4018 2e3d 4cef 063c
00000220: 1ded a13d d92c aa3d b78d 373d d9f7 b13d
00000230: e5fe 853c 1baa 6f3d 11c8 993d 963b 493d
00000240: c558 55ba 1a10 153a 5800 273a 3628 3b36
00000250: e60d 143b c11c ff3a c580 25bb 2f3b c9ba
00000260: bca8 09bb 3c23 58ba 606a 133a 712d 253a
00000270: c93c 1eb6 2601 143b 7f1e ff3a 4cfe 25bb
00000280: 33f9 c9ba 2700 0abb 73ad 183c d550 77bd
00000290: 57ff 7e3c cc7f ab3d 96c0 953d 20d6 fabd
000002a0: 4943 d2bc 4ab0 513d b73a b53d 49ff 123d
000002b0: f5e7 8c3d 7e00 3e3d 7c3a 133c 558b 8f3d
000002c0: 5964 893d 24c2 223d 1416 cfbc 9e3f 7c3d
000002d0: b22e 56ba 5d88 143a 2c6a 263a 18b0 a835
000002e0: b906 143b cf13 ff3a 4ca5 25bb 9172 c9ba
000002f0: 73c4 09bb 96dd 843c 79ec 843d 3373 7a3c
00000300: 8779 9ebb d002 e03c ab93 aa3c df12 d5bb
00000310: 5b42 db3b 95ed 12bd c197 95bd 9b78 5f3c
00000320: 0081 74bc c5f3 393d 7f35 a1bd 0ebf e63c
00000330: 4406 6f3c 06c6 a43c 4032 923c 4a65 3b3d
00000340: 4099 abbd 60d2 f83b 3cea 5a3b 484a ddbc
00000350: 468f 03bd 4752 60bd 6d9b 233d 5816 02bd
00000360: c7c2 b23b a4e5 f7bc acfc 013d 4436 783b
00000370: 39c6 7abd b65e 94bc c0b3 9a3b 15b0 ccbc
00000380: a006 35bd 667d 47bd 1774 08bd 37a4 11bc
00000390: ac6a f5bc a374 59bd 5e54 633c f800 2ab9
000003a0: bf50 4a3c 6155 063d 78c3 093c 2134 583c
000003b0: aae8 463d b0dc ab3b fdeb 723d 6288 613b
000003c0: d5c7 45bc e373 fc3c f296 65bc 6274 983c
000003d0: 9b76 823d 8a09 fdbb ad71 7ebb f2b6 163d
000003e0: c58a f4bb d12b a1bc e2ea 4e3d 0bc0 a63c
000003f0: 6aa7 f73c e4fd 7c3b 0fab 943c cff8 af3b
0.03690202 -0.05843535 -0.02087456 -0.035535533 -0.012385808 -0.019169891 -0.048305593 -0.0049806368
-0.050379127 -0.02383712 0.015371492 -0.017930897 0.0136344945 -0.001736776 -0.014830193 -0.017790359
-0.016548716 0.02530874 0.011309837 0.027749967 -0.03977286 -0.06555028 0.06412893 -0.020731058
-0.006710477 -0.03900511 0.06629024 0.059599362 0.013645277 0.0031370742 0.0038839765 0.045158517
0.0016342408 -0.01564984 0.048091643 0.00042529657 -0.007870271 0.053108804 -0.024018297 0.023415938
-0.0094970865 0.02135441 0.012553717 0.033596884 -0.030823357 -0.018351547 -0.042808827 -0.010676403
0.010116354 -0.040587943 -0.05192389 0.00033128448 0.016379243 0.04415451 -0.028056793 -0.045084104
-0.06422645 0.0042407895 -0.016109215 -0.00011582869 0.0024393322 -0.016854046 -0.0005890178 0.022980278
0.016643766 -0.060644995 0.03284796 0.01293146 0.0074498313 0.038229004 0.034967326 0.02409381
-0.0008180503 0.0005660972 0.00063437514 4.6544827e-07 0.0022584249 0.0019461777 -0.0025284726 -0.0015377402
-0.002102678 -0.010882501 -0.020731658 -0.0033717612 0.014253479 0.014849132 -0.0015991179 -0.02573716
0.026181305 0.034985896 -0.010519928 -0.030985061 0.0056801112 0.005292155 -0.00716821 -0.04319112
0.005872423 0.030688612 0.029338041 -0.031343278 -0.013155597 0.02038012 -0.042860642 -0.028734708
-0.0065320716 0.007904494 -0.09914653 -0.054801628 -0.007978304 -0.011070366 -0.024463255 -0.009406477
-0.010466852 -0.030514024 -0.029540002 -0.042728353 -0.035297085 -0.0067747035 0.028642086 0.016646337
0.005324979 -0.030231507 0.0036182327 -0.0036919294 0.0073276376 -0.012707653 0.097847894 0.045630112
-0.016141584 -0.022788297 0.12458763 -0.06649306 -0.03647743 -0.05928383 0.042503595 0.008235764
0.07906554 0.08309335 0.044812884 0.08689851 0.016356895 0.058511835 0.07508863 0.04912909
-0.0008138533 0.0005686298 0.00063705957 2.7888577e-06 0.0022591292 0.0019463525 -0.0025253755 -0.0015352721
-0.0021005115 -0.00082449964 0.0005623456 0.0006301022 -2.3579216e-06 0.0022583692 0.0019464045 -0.0025328575
-0.001540935 -0.002105722 0.009318697 -0.06037982 0.015563807 0.08373985 0.073121235 -0.12247872
-0.02566685 0.051193513 0.088490896 0.03588799 0.0688018 0.046387188 0.008986112 0.07008997
0.06708593 0.03973593 -0.025279082 0.061584108 -0.00081704103 0.00056660717 0.00063482183 1.2568225e-06
0.0022587015 0.001946086 -0.0025275527 -0.0015369226 -0.0021021634 0.016218942 0.06490416 0.015286255
-0.0048362645 0.027345091 0.020822367 -0.0065024938 0.00669126 -0.035871107 -0.073043354 0.013639594
-0.014923334 0.045398492 -0.07871532 0.028167274 0.014588896 0.020113956 0.017846227 0.045750894
-0.083788395 0.007593438 0.0033403775 -0.02701296 -0.032119058 -0.054765966 0.039943147 -0.03175959
0.005455348 -0.030260868 0.031735107 0.0037874142 -0.061224196 -0.018111568 0.004721135 -0.024986306
-0.04419577 -0.048703574 -0.033313837 -0.0088892495 -0.029958092 -0.05308975 0.013875095 -0.00016212824
0.012348353 0.032796267 0.00840842 0.013196022 0.04856173 0.005244814 0.059307087 0.0034413566
-0.012071569 0.030816978 -0.014013039 0.018610183 0.063702784 -0.0077220844 -0.003882508 0.036795564
-0.0074628317 -0.019674214 0.05051697 0.020355245 0.030231196 0.003860348 0.018147973 0.0053702365

dblock_3.denselayer1.conv2.bias f4 [48]
00000000: 7947 c73c d366 353a 2ed8 823d c890 86bc
00000010: abf8 1dbc 4aa4 3bbc 07b4 2f3d 7783 fabc
00000020: bce7 21bd bf7f 3bbd e2c2 2cbc 25af 3bbd
00000030: 5fc1 013d 9306 9d3c de1c 2a3d 173f 98bc
00000040: 96f1 f53c 98a4 30bd 0ba3 babc dc97 0ebd
00000050: c2ab 02bd a6c4 c5bc 0e1d 0e3d 706c 8e3c
00000060: 5dc6 c0bc 00b4 81bd 7444 c23c aea9 c53b
00000070: a8c8 4fbb e120 83bc e87b 693d 6a36 2fbd
00000080: 7058 8ebd 6c68 9fbc 7c47 06bd 4139 39bc
00000090: beab 0abd 601e 093d 7c4a 823b 71de ffbc
000000a0: 6e3a a23c 69bb baba d769 97bc eab3 c8bc
000000b0: fa73 9abc 4b99 f33c ab79 56bd d5d5 0abd
0.024326073 0.0006919924 0.06388889 -0.016426459 -0.009641807 -0.011452744 0.042896297 -0.030580265
-0.03952764 -0.045776125 -0.010544511 -0.045821328 0.031678554 0.019168174 0.041531436 -0.018584771
0.030022424 -0.04312572 -0.022782823 -0.034812793 -0.031902082 -0.02414162 0.034695677 0.017385691
-0.023532087 -0.063331604 0.023714282 0.0060321903 -0.0031705294 -0.016006889 0.05700293 -0.042776503
-0.06950462 -0.019458972 -0.032783017 -0.011305154 -0.033855192 0.033476233 0.0039761644 -0.031233998
0.019803252 -0.0014246526 -0.018483086 -0.024499852 -0.01885413 0.029736182 -0.052362125 -0.033895332

side_1.conv.weight f4 [32, 16, 1, 1]
00000000: ca10 ad3d 001d 653b 07b0 1abe 4e7f 853d
00000010: 9be5 0b3e 50c3 043d b089 dbbd 2510 273e
00000020: 6e5c f2bd 8d92 493d 7bd7 343e c9ca 273e
00000030: 4e73 9d3d ef8d 7abe 06e9 8ebd 1f90 68bd
00000040: 0117 543d 0fdf b9bd 0aaa 10bd c99d 613d
00000050: 236d 013e 8d44 cabc 5b8c 303d dd64 3d3d
00000060: a8f1 8abc 9cfe a83d 06b2 3ebe eba8 043c
00000070: 8578 9cbb 73cb 903e e826 fdbb 922b d3bd
00000080: fff7 c1bc 15ac 5d3d f585 6f3c 24e7 9c3d
00000090: 6df3 bbbc f8a9 573d c851 8cbc 87b0 c0bc
000000a0: 4db0 113c ac9d 6abd ac15 933d b4dc bfbc
000000b0: f025 86bc 5cc0 92bd 7f34 073e e7fb 803d
000000c0: f8f1 293c 5454 45be e255 8cbd 1a1d 6e3b
000000d0: 6e1f 153d 4a07 04be 8c45 8fbc 8589 eabd
000000e0: 7945 25be 11ff 993d 0660 5d3c 8697 003e
000000f0: 2c06 ddbd dc86 253e 4486 1e3e 24d4 ec3d
00000100: fb81 88bd 8d32 633d 3bb8 b1bd 42b7 b73c
00000110: a459 07be 1ad0 843e e900 15be 197b ff3c
00000120: 7587 74bd b0fe 5a3e 1553 403e 22e5 423e
00000130: 3c91 6ebd 4bb7 53be ab1d 1cbe 338a c1bd
00000140: 9480 1c3e 6389 6ebe e2f9 4b3e 1f76 b13d
00000150: e177 0d3e 7dff b53b a123 913d f038 ef3d
00000160: 7e37 333c 6e29 9abd ce49 583c 081a 0fbe
00000170: 31da 71bd f5e6 2d3c c40b d83d 02a3 8a3d
00000180: 7e7f ffbc 9909 3dbd d8d9 47bd 7f59 053e
00000190: df67 0d3e b1d2 033d 8dc1 44be e5fb 733d
000001a0: 83f9 e53d 3d69 023c 3f76 c23e 0f83 53bc
000001b0: 2454 b5bd 6996 17be b78c 70bd 1e79 e43d
000001c0: fa4b 84bd 3113 fe3d 0af3 6f3c bdd6 79bd
000001d0: f362 59bc cdf7 b93c 822d e3bd e0e7 0bbc
000001e0: a065 c73d 2bd9 aa3d 8543 753c 8c46 9c3d
000001f0: 3bfc de3d 1cad 9a3d c98d b6bd 24c5 363d
00000200: e93e 7b3e f5d9 5c3d e1a4 943e 8007 77bd
00000210: b45f b7bd da29 bb3d 83d4 ed3c d4ba 16be
00000220: 5062 773d f454 85be b929 3cbd bf92 abbd
00000230: e161 1bbd 0b29 ea3b a198 923e 7dc5 663d
00000240: 07fd 603d 6cb2 ccbd 00a2 20be e969 3f3e
00000250: 32cb e2bd ded8 ebbc 29eb c6bd 6cc5 53bb
00000260: cb64 3bbe 3350 7dbc 77c4 b13d 4b08 e4bd
00000270: 0626 2d3e 0763 a03e f2b8 733d e916 c0bd
00000280: 432b 883d 7cfc 26be 9a0f 91bb 035e 28bb
00000290: b5a1 b7bd 2768 5e3e 9583 aabe e2a3 d1bd
000002a0: c259 99bd 8ec2 b03d 0732 6b3e d887 c73c
000002b0: 19c0 513e 5cec 53bd 48ec 2c3e fce3 cebd
000002c0: a933 e2bc bf95 1abd 45e7 adbd c022 013e
000002d0: bbb5 b73d 8ba2 13be ca6d 123e 43c4 fdbd
000002e0: 7d7d 8c3d 98a7 9bbd 3c78 7f3e a400 7fbe
000002f0: 3978 01be 6594 25be 2dbf 6ebd 18e5 193d
00000300: 1b8d 4cbc 2478 80bd 659e c13d b99c 8cbe
00000310: 5866 803e 21f9 34bd 05a0 ecbc 3273 b8bd
00000320: b123 6cbd c065 793d a4af 713d fe6f 163d
00000330: b2d8 9cbd 9fae a73d b6c7 eebd b3f1 06bd
00000340: 5215 77be 4f9f 003e 52f8 4d3e 72d6 10be
00000350: 9634 babd 80c8 b83d 5bc8 303e 823e b5bd
00000360: 6bf6 f8bd 5ad6 383e f716 2bbe 3d4e 923c
00000370: eba4 21be 88f4 c6bd 1f8c ffbd 8da3 78bd
00000380: 5707 4dbd 94cd 9d3b e3e4 783c e299 293e
00000390: 9452 f83b 0c36 053e 3d89 fa3d fe16 8f3c
000003a0: f00a 213e 86df b0bd ba30 c1bd cb10 e2bc
000003b0: 9d99 38bc 3709 853e 7baa 4dbe 9014 6abd
000003c0: 605a b7bb 4b2d e73d 0605 2b3d ab7b d23d
000003d0: 3e7b 613c 2534 f03d cb80 da3d a6aa 18be
000003e0: 323c 8dbd da1e 4ebd a32e 4d3d b796 343e
000003f0: f774 eb3d b037 06be 3eec b4bd 8e33 1b3e
0.08450468 0.0034959912 -0.15106212 0.06518422 0.13661806 0.032412827 -0.10719621 0.16314752
-0.11834036 0.049212027 0.17660324 0.1638595 0.07688008 -0.24468206 -0.069780394 -0.05677807
0.05177975 -0.09075748 -0.035318412 0.055082116 0.12639289 -0.02469089 0.043102603 0.04623877
-0.016960934 0.08251688 -0.18622598 0.008096914 -0.0047751092 0.2828022 -0.0077255853 -0.10311045
-0.023677824 0.05411919 0.01461934 0.07661274 -0.022943223 0.05265233 -0.01712884 -0.023521675
0.008892131 -0.057279274 0.07181868 -0.02342067 -0.016375512 -0.07165596 0.1320362 0.062980466
0.010372631 -0.1927045 -0.06852318 0.0036333264 0.036406927 -0.12893406 -0.017489217 -0.11452011
-0.16139783 0.07519353 0.013511663 0.12557802 -0.10792193 0.16164726 0.15480906 0.115639
-0.06665417 0.05546813 -0.08677717 0.022426251 -0.13217789 0.2594002 -0.14551128 0.031186627
-0.059699494 0.21386218 0.18781693 0.1903272 -0.058243975 -0.2067539 -0.15245692 -0.094501875
0.15283424 -0.23294596 0.19919541 0.08665108 0.13815261 0.005554138 0.07086874 0.11680782
0.010938523 -0.07527433 0.01320119 -0.13974774 -0.059045974 0.0106141465 0.10549119 0.067693725
-0.031188723 -0.04615173 -0.048791736 0.13022421 0.13809155 0.032183353 -0.19214459 0.059566397
0.11229231 0.007959661 0.3798084 -0.012909665 -0.08853939 -0.1480347 -0.058727946 0.11155914
-0.06459804 0.12406004 0.014645347 -0.060995806 -0.01326822 0.022701168 -0.11092664 -0.00853917
0.0973618 0.08342203 0.014969711 0.07630643 0.10887953 0.07552549 -0.08913762 0.0446216
0.24535717 0.053918798 0.29032043 -0.060309887 -0.08953801 0.09138842 0.029031998 -0.14719707
0.060396492 -0.26041377 -0.045938227 -0.08377599 -0.03793514 0.007146006 0.28632072 0.056340683
0.054928806 -0.09994969 -0.15686798 0.18692745 -0.11073913 -0.028789934 -0.09712822 -0.0032313718
-0.18300168 -0.0154610155 0.08680051 -0.11134394 0.16909036 0.31325552 0.05950255 -0.0937937
0.066488765 -0.16307253 -0.0044269087 -0.00256908 -0.0896639 0.21719418 -0.33303514 -0.10236336
-0.07487823 0.08630858 0.22968303 0.024356768 0.20483436 -0.05173908 0.16887009 -0.10102078
-0.027612524 -0.037740465 -0.08491377 0.12610912 0.08970209 -0.14417474 0.14299694 -0.123909496
0.068598725 -0.07600325 0.2494821 -0.24902588 -0.12643518 -0.1616989 -0.05828779 0.037571996
-0.012484814 -0.06272915 0.094540395 -0.2746332 0.25078082 -0.0441829 -0.028884897 -0.09006347
-0.057651225 0.060888052 0.059005395 0.036727898 -0.07658519 0.08187603 -0.116591856 -0.032945346
-0.24129227 0.12560771 0.20114258 -0.14144304 -0.09092061 0.09022617 0.1726393 -0.08849813
-0.121563755 0.18050519 -0.16707979 0.017859573 -0.15785567 -0.097146094 -0.12477898 -0.06070285
-0.050055828 0.0048157666 0.01519129 0.16562608 0.0075782035 0.13008898 0.122332074 0.017467018
0.15726829 -0.08636384 -0.09433122 -0.027595898 -0.011267093 0.25983593 -0.20084564 -0.057148516
-0.0055954903 0.11287936 0.041752838 0.10277494 0.013762293 0.11728696 0.106690966 -0.14908847
-0.06896247 -0.05032239 0.050093304 0.17635618 0.11496919 -0.1310718 -0.08834122 0.15156385

side_1.conv.bias f4 [32]
00000000: 6b87 863d 7d00 c8bd 3ba8 ff3d 0ed2 ad3d
00000010: 12de 883e e02c d8bd b827 3c3d 2b2e 2dbd
00000020: 03c6 13bc 6e20 cdbd 9002 763d 8d71 f63c
00000030: 0fcd c43d bc8e 993d 3fa5 fbbc 2077 ab3d
00000040: ec3e 2dbd aff7 863d 4501 8bbd 4d83 2d3d
00000050: c4f9 553d 403a 25be e186 52bc e427 8bbc
00000060: 7a15 e5bb 1e2c 51be 6f7a 8a3c bc20 a4bd
00000070: 4abf 0dbd 86c7 21bd 3b99 be3d e8b8 bd3d
0.06568798 -0.09765718 0.12483259 0.084873304 0.26731926 -0.10555434 0.045936316 -0.042280357
-0.009019378 -0.10015951 0.060061038 0.030083442 0.09609424 0.074979275 -0.030718444 0.08372331
-0.042296335 0.06590211 -0.067873515 0.042361546 0.05224015 -0.16135502 -0.01284954 -0.016986795
-0.0069910856 -0.20426986 0.016904084 -0.08014056 -0.034606256 -0.03949692 0.0930657 0.09263784
