checkpoints/BIPED/0/0_model.pth (torch, 249139 bytes, 30 tensors)

block_1.conv1.weight f4 [16, 3, 3, 3]
0	0xbe35b6bd	-0.1774549
1	0xbd45351f	-0.048146363
2	0xbdc2765e	-0.09495233
3	0x3c3f5c46	0.011679715
4	0xbdc60c48	-0.09670311
5	0xbd6225c2	-0.05521179
6	0xbe1eec1c	-0.15519756
7	0x3c6f27d4	0.014596898
8	0xbd813d7a	-0.06310554
9	0x3e3217e4	0.17391926
10	0xbcd93de8	-0.026518777
11	0x3d0efda9	0.034909878
12	0x3c72148d	0.0147754075
13	0x3dc617d5	0.09672514
14	0xbdafc2d3	-0.08582082
15	0xbe34c53c	-0.17653364
16	0xbdc9e8ed	-0.0985888
17	0xbd79c9d9	-0.060983513
18	0x3d87845d	0.06617043
19	0xbc568233	-0.013092565
20	0x3e0b6512	0.13612774
21	0x3e314587	0.17311679
22	0x3e30ee8f	0.17278503
23	0x3de4d480	0.11173344
24	0x3d9a3a95	0.07530705
25	0x3e187c25	0.14891107
26	0xbe0d1a70	-0.13779616
27	0xbd745508	-0.059651405
28	0xbc56f41b	-0.013119723
29	0xbe0bc490	-0.13649201
30	0xbddf4963	-0.10902669
31	0x3b161efe	0.0022906656
32	0xbd63ef68	-0.055648237
33	0xbdbe483d	-0.09291122
34	0xbd3e8fc9	-0.046523843
35	0x3dbc0d87	0.09182268
36	0x3ec22da8	0.37925458
37	0x3d694d19	0.05695829
38	0xbc96ce0c	-0.018408798
39	0x3da21548	0.07914215
40	0x3d80b1d3	0.06283917
41	0xbdc9dd24	-0.09856632
42	0x3d9d356a	0.076762035
43	0x3ddf386d	0.10899434
44	0x3dc0013e	0.09375237
45	0x3cb5e9cb	0.022206208
46	0xbe8b9199	-0.2725952
47	0xbd462f8d	-0.04838519
48	0x3e002689	0.125147
49	0xbd307bb8	-0.043086737
50	0xbd189794	-0.03725393
51	0xbd537d32	-0.051633067
52	0xbd95ca45	-0.073139705
53	0x3da2f67f	0.07957172
54	0x3e68c17c	0.22730058
55	0xbc28d582	-0.0103048105
56	0x3d397820	0.045280576
57	0xbc30b292	-0.010784762
58	0xbddb15a0	-0.10697484
59	0xbd860ed4	-0.06545797
60	0xbcc08fec	-0.023506127
61	0xbe450c20	-0.19242907
62	0x3d6627b1	0.056190196
63	0x3b17db08	0.0023171324
64	0xbe2b36e3	-0.16720156
65	0x3aae3452	0.0013290739
66	0xbd5df790	-0.054191172
67	0xbdcccc38	-0.09999889
68	0x3e7362a7	0.23768102
69	0x3e00dd81	0.12584497
70	0xbe58e9e1	-0.21182968
71	0xbd21a095	-0.039459784
72	0x3d55570f	0.05208498
73	0xbdca0840	-0.09864855
74	0xbb824245	-0.003975185
75	0xb8b0865e	-8.417362e-05
76	0xbcd3adc6	-0.025839698
77	0xbd173d7e	-0.036923878
78	0x3de6212c	0.11236796
79	0xbe64574f	-0.2229893
80	0x3ccf9219	0.02533822
81	0x3bb34ae8	0.005471576
82	0x3debf76a	0.115218
83	0x3e1a8dcc	0.15093154
84	0xbd9c7140	-0.07638788
85	0x3e84db23	0.25948438
86	0x3e21eaa6	0.15812168
87	0xbe53963e	-0.20662782
88	0xbcfe90a2	-0.031074826
89	0x3e6c64dd	0.23085351
90	0xbe2b6dad	-0.16741057
91	0xbe30a9d7	-0.17252289
92	0xbe14f5ff	-0.14546965
93	0x3b8c0a5d	0.0042736963
94	0x3c97549e	0.018472966
95	0xbbd020ab	-0.0063515506
96	0x3d0333de	0.032031886
97	0xbd3ab578	-0.04558322
98	0xbe3b149a	-0.18269578
99	0x3dc635c8	0.09678227
100	0xbdd1c41f	-0.10242485
101	0x3e042a54	0.12906772
102	0x3dd0570d	0.101728536
103	0xbdc33d93	-0.09533229
104	0x3e03c2c5	0.12867267
105	0xbdb9c18c	-0.09070119
106	0xbcde225e	-0.027115997
107	0xbd949c6d	-0.07256398
108	0xbdd4bd41	-0.1038766
109	0xbdd8efae	-0.1059259
110	0xbd8be7d0	-0.06831324
111	0xbd64f980	-0.055902004
112	0x3d6e9076	0.058243237
113	0x3c3ef98d	0.011656177
114	0xbe2a0f05	-0.16607292
115	0x3d7c32c5	0.061571855
116	0x3d610120	0.054932714
117	0xbd99e04d	-0.07513485
118	0x3d472540	0.04861951
119	0xbe4a12a1	-0.19733669
120	0xbcfb65da	-0.030688215
121	0x3e0b702a	0.13617006
122	0xbdfd6edd	-0.12374661
123	0x3c406e1e	0.011745004
124	0xbd378290	-0.04480225
125	0x3dff3811	0.12461866
126	0x3d090ac3	0.03345753
127	0x3e5c5aa8	0.21518958
128	0x3e0dde37	0.138543
129	0xbd54c201	-0.05194283
130	0x3e6ed7e1	0.23324539
131	0x3d866508	0.06562239
132	0x3d3a294b	0.045449536
133	0x3dfadcd0	0.12249148
134	0xbdd1b330	-0.102392554
135	0xbd7f6e1a	-0.06236086
136	0x3d1435a2	0.03618396
137	0xbb85cc1b	-0.004083169
138	0xbdc8563f	-0.09782075
139	0x3d603803	0.054740917
140	0xbd339840	-0.04384637
141	0xbb808192	-0.003921696
142	0xbbfb6a8c	-0.0076726135
143	0xbcf508dc	-0.029911451
144	0xbd72af97	-0.059249487
145	0xbdf83bd9	-0.1212079
146	0xbe2e1db6	-0.17003521
147	0xbe604803	-0.2190247
148	0xbc875d54	-0.016523995
149	0x3c595c2b	0.013266603
150	0xbde4ffe6	-0.11181621
151	0xbd4c4c27	-0.049877312
152	0xbe501e35	-0.20324023
153	0x3d091c3e	0.0334742
154	0x3dbbd926	0.09172277
155	0xbb87dbbe	-0.0041460684
156	0x3e24770d	0.1606104
157	0x3e18f8e2	0.14938691
158	0x3e028123	0.12744574
159	0x3e04a5d6	0.12953886
160	0x3e768e7f	0.24077795
161	0x3ddc03c2	0.10742904
162	0x3d6fe0fc	0.05856417
163	0x3e09ce34	0.13457566
164	0x3e24cb40	0.16093159
165	0xbd40eee5	-0.047102828
166	0x3d345256	0.044023834
167	0x387589c2	5.854085e-05
168	0x3b854d8e	0.004068083
169	0x3e4c6209	0.19959272
170	0x3d30118f	0.042985495
171	0xbd47266b	-0.048620623
172	0xbd854a03	-0.06508257
173	0xbe03c224	-0.12867028
174	0xbd8c3760	-0.068464994
175	0x3ca996d2	0.0207018
176	0x3b2f1daa	0.0026720562
177	0xbb1e2eff	-0.0024136899
178	0x3b4a2d9f	0.0030849946
179	0x3d25728e	0.04039245
180	0xbdc50142	-0.096193805
181	0xbdb52803	-0.08845522
182	0xbd1c877b	-0.03821514
183	0x3e41faa6	0.18943271
184	0x3d4c8063	0.049927127
185	0xbe11d82b	-0.14242618
186	0x3c0b4d3d	0.008502302
187	0xbb8071c8	-0.003919814
188	0xbdd36ed6	-0.10323875
189	0xbd8be992	-0.068316594
190	0x3ea91776	0.33025712
191	0x3e0fc05e	0.14038226
192	0x3d763fbe	0.060119383
193	0xbdd303a3	-0.10303428
194	0x3d95616e	0.07293974
195	0xbdaab386	-0.08335023
196	0xbd8f5d92	-0.07000269
197	0x3c8ea20b	0.017411252
198	0xbe3db295	-0.18525155
199	0xbbce157a	-0.0062891813
200	0x3de118ed	0.10991082
201	0x3e46f589	0.19429602
202	0x3d58d96d	0.05294173
203	0xbc6e5cfd	-0.014548537
204	0xbe30325b	-0.17206709
205	0xbe4d30e5	-0.20038183
206	0xbe44b429	-0.1920935
207	0xbbcc20a5	-0.0062294775
208	0x3e4259db	0.1897959
209	0x3cfa9579	0.030588852
210	0x3dd7d9e1	0.10539604
211	0xbd2c642b	-0.042087715
212	0x3ddc4370	0.1075505
213	0x3bd5ddf5	0.0065267035
214	0xbdf78961	-0.1208675
215	0xbe08fb68	-0.13377154
216	0xbd70f0d4	-0.05882342
217	0x3d286277	0.04110953
218	0x3c9358ae	0.017986622
219	0x3e839408	0.25698876
220	0x3d101d4d	0.035184193
221	0x3d3181b6	0.043336593
222	0x3e08e06d	0.13366862
223	0xbd1dad5c	-0.038495407
224	0x3df33946	0.118761584
225	0xbe45c6f5	-0.19314177
226	0xbde9d43a	-0.11417432
227	0xbde42582	-0.111399665
228	0xbe386b7b	-0.1800975
229	0xbd46506e	-0.048416547
230	0x3d43f285	0.047838707
231	0xbde61a2b	-0.1123546
232	0xbe2a6369	-0.16639484
233	0x3d0ce70f	0.034400042
234	0xbdc76db8	-0.09737724
235	0x3d2d25bd	0.04227232
236	0xbd25a1e8	-0.04043761
237	0xbb9b4469	-0.0047383797
238	0x3d4447dc	0.047920093
239	0x3e664d4f	0.22490428
240	0x3d4d682c	0.050148174
241	0xbd09f932	-0.033684917
242	0x3e37f1ba	0.17963305
243	0xbe2c14e5	-0.16804846
244	0xbc54b91a	-0.012983585
245	0xbd75764f	-0.05992728
246	0xbc81e762	-0.015857402
247	0xbd710b85	-0.058848877
248	0x3da8d829	0.08244354
249	0x3d310a1c	0.04322253
250	0xbc929c9e	-0.017896947
251	0x3e321f76	0.17394814
252	0xbdf4b87c	-0.1194925
253	0xbe26cafd	-0.16288371
254	0xbd03818a	-0.03210596
255	0x3e11e433	0.14247207

block_1.conv1.bias f4 [16]
0	0x3e1fe685	0.1561528
1	0x3d821e63	0.06353452
2	0x3e4ad156	0.19806418
3	0x3e60072a	0.21877733
4	0x3e952288	0.29127908
5	0x3ebc12bc	0.36733043
6	0x3f00fb1e	0.50383174
7	0x3ddb2972	0.107012644
8	0x3eacd67f	0.33757398
9	0xbe020733	-0.12698059
10	0xbea1ef4b	-0.3162788
11	0xbaac5329	-0.0013147342
12	0xbe10b000	-0.14129639
13	0xbde45de3	-0.1115072
14	0xbe5ef777	-0.21774088
15	0x3e110c70	0.14164901

block_1.conv2.weight f4 [16, 16, 3, 3]
0	0x3ba2fed6	0.0049742265
1	0x3b9535cd	0.0045535327
2	0xbc49aff1	-0.012310014
3	0xbca7ba64	-0.02047462
4	0xbc6de032	-0.014518784
5	0xbdf50c77	-0.11965268
6	0x3e34c9cb	0.17655103
7	0x3d838654	0.064221054
8	0xbd3a2484	-0.04544498
9	0xbd016969	-0.031594668
10	0xbd0b78eb	-0.034050863
11	0x3c32137a	0.010868901
12	0xbd2627d2	-0.04056532
13	0x3d59cfee	0.053176813
14	0x3dd1b332	0.10239257
15	0xbd1b9679	-0.0379853
16	0xbd0997f4	-0.03359218
17	0x3cacc0b9	0.021087991
18	0x3d3e24a6	0.04642167
19	0x3be09a90	0.006854363
20	0x3e1a1a39	0.15049066
21	0xbde8f778	-0.11375326
22	0xbe067277	-0.13129602
23	0x3d865e7b	0.065609895
24	0xbe016797	-0.12637173
25	0xbe19cdaa	-0.15019861
26	0x3e286be7	0.16447411
27	0x3d822f3e	0.06356667
28	0x3e174c78	0.14775264
29	0x3d6948a6	0.05695405
30	0xbda6a90c	-0.08137712
31	0xbe801c8c	-0.2502178
32	0xbdcff206	-0.10153584
33	0x3dfa2eb7	0.122159414
34	0xbdad4dac	-0.0846208
35	0xbd865c71	-0.065606005
36	0x3ce18386	0.027528536
37	0xbd306432	-0.043064304
38	0x3ca730e6	0.020409059
39	0x3d479b0e	0.048731856
40	0xbd817356	-0.06320827
41	0xbe0f9b36	-0.14024052
42	0x3e0a0c49	0.13481249
43	0x3dcf3b2c	0.10118708
44	0xbdd0364e	-0.10166608
45	0x3d82a7e9	0.063796826
46	0xbc8a7613	-0.016902005
47	0xbcfd26de	-0.030902322
48	0x3d8b5d61	0.0680492
49	0x3caf29cd	0.021382237
50	0xbe805a13	-0.2506872
51	0x3dc33aca	0.095326975
52	0x3d3571a7	0.04429784
53	0x3d5a821a	0.05334673
54	0x3d0a3b4f	0.033747967
55	0xbc64c84f	-0.013963773
56	0x3c876b13	0.01653055
57	0x3df13498	0.117776096
58	0x3d272645	0.04080798
59	0xbde27a67	-0.11058503
60	0xbc368e83	-0.011142376
61	0x3e1b30cc	0.15155333
62	0xbe114da6	-0.14189777
63	0x3dc9d536	0.0985512
64	0x3a97608a	0.0011549157
65	0xbd056c86	-0.0325742
66	0xbe01654a	-0.12636295
67	0xbe97ac55	-0.29623666
68	0xbcbbecc8	-0.022940055
69	0xbd8fda33	-0.0702404
70	0x3cb6a547	0.022295607
71	0x3d1a4357	0.037661877
72	0xbdbcb868	-0.0921486
73	0x3d9e1922	0.077196375
74	0x3d6b59d1	0.057458702
75	0x3d39c77c	0.04535626
76	0xbdabde81	-0.083920486
77	0x3bf292d1	0.007402756
78	0x3df03821	0.11729456
79	0xbe18f00c	-0.1493532
80	0xbc9614e1	-0.018320503
81	0xbc34fbb6	-0.011046341
82	0xbe03bc70	-0.12864852
83	0xbdc4e861	-0.09614635
84	0x3ce56b50	0.028005272
85	0xbd94d74f	-0.07267629
86	0x3a26e332	0.0006366252
87	0xbd288d45	-0.04115035
88	0x3da7ae20	0.081875086
89	0x3cdb82d0	0.026795775
90	0xbd264e8f	-0.040602263
91	0x3d9c8761	0.07643009
92	0xbbcd23ff	-0.0062603946
93	0xbe4719f2	-0.19443491
94	0x3df2a715	0.118482746
95	0xbe407a38	-0.18796623
96	0xbe62ad7a	-0.22136489
97	0x3e6e6386	0.23280153
98	0xbdcf70ed	-0.10128961
99	0xbd44d8a1	-0.048058156
100	0x3dbd3ff8	0.09240717
101	0x3d96f7b3	0.073714636
102	0xbccf643c	-0.02531635
103	0xbcbb0618	-0.022830054
104	0x3daffdfc	0.085933656
105	0xbbaee727	-0.005337614
106	0xbe72038c	-0.23634166
107	0x3dee493a	0.116350606
108	0x3df1da3e	0.118092045
109	0x3d919a68	0.07109529
110	0x3d700626	0.058599614
111	0x3c9ec588	0.0193813
112	0x3deb8192	0.11499323
113	0xbb3ee10c	-0.0029125838
114	0x3d54b49e	0.051930062
115	0x3dafad81	0.08578015
116	0x3e85d5c1	0.26139644
117	0xbc96da15	-0.018414536
118	0x3d9470f5	0.07248107
119	0xbd1e0657	-0.038580265
120	0xbc91681d	-0.01774984
121	0x3e26051d	0.16212888
122	0x3e564c5c	0.20927566
123	0xbe168496	-0.14699015
124	0x3d4eaa97	0.050455656
125	0xbdefcc39	-0.11708874
126	0xbd50dd96	-0.05099257
127	0xbdaadf13	-0.08343329
128	0xbd82812c	-0.06372294
129	0x3d81e15e	0.063418135
130	0x3e3916ad	0.18075056
131	0x3d56082f	0.0522539
132	0xbe853630	-0.26017904
133	0xbe2f5a60	-0.17124319
134	0xbce813c7	-0.028329743
135	0x3e0118fb	0.12607186
136	0x3e1ff5fa	0.15621176
137	0x3c14ea09	0.009089001
138	0x3c1eca92	0.009691851
139	0xbd2d46d7	-0.042303886
140	0x3e44c6bb	0.19216435
141	0xbe2384f4	-0.15968686
142	0xbd41b30a	-0.047289886
143	0xbd9e0bf1	-0.077171214
144	0x3cef1316	0.029183906
145	0xbd949bfa	-0.07256313
146	0xbdc07c6c	-0.093987316
147	0xbd90a396	-0.070624515
148	0x3e4414da	0.19148579
149	0x3d9266a0	0.071484804
150	0xbc2336bb	-0.009961779
151	0x3d842986	0.064532325
152	0xbabebc5c	-0.0014551985
153	0xbbe034e4	-0.0068422426
154	0x3dae783f	0.08519029
155	0xbc566e02	-0.013087751
156	0xbd1b122c	-0.037859127
157	0x3d38a238	0.04507658
158	0xba1bd329	-0.0005944246
159	0xbd7c765b	-0.06163631
160	0xbde1cc4a	-0.11025293
161	0xbd824a28	-0.063618004
162	0x3c87b289	0.016564624
163	0xbd97eb0d	-0.07417879
164	0x3d4cdde8	0.050016314
165	0x3d1d2b88	0.038371593
166	0x3d83d976	0.06437962
167	0x3d604016	0.054748617
168	0x3d9b9777	0.07597249
169	0x3c0e19ee	0.008673174
170	0x3d63f62c	0.05565469
171	0xbd164dda	-0.03669534
172	0xbd85e002	-0.06536867
173	0xbcad8547	-0.021181716
174	0xbd5fe5d5	-0.054662544
175	0xbc2eb10e	-0.01066233
176	0xbcc2c7f4	-0.023776986
177	0x3b7c5178	0.0038500708
178	0x3d8d66a4	0.06904343
179	0x3e0772d2	0.13227394
180	0xbcf6e9aa	-0.030140717
181	0xbd249f31	-0.04019088
182	0xbd9dfa81	-0.077137955
183	0x3c97f7e8	0.018550828
184	0x3e38199c	0.17978519
185	0x3d33a4c1	0.043858293
186	0x3dc095ba	0.09403558
187	0x3ba13443	0.00491956
188	0xbd5b54f1	-0.053547803
189	0xbc8962a0	-0.01677066
190	0xbd36fa9d	-0.044672597
191	0xbb63de48	-0.003476994
192	0xbd33d010	-0.043899596
193	0x3e3f41ca	0.1867744
194	0x3d9cfc71	0.07665337
195	0xbdda4fc3	-0.106597446
196	0xbd493e9e	-0.049131982
197	0xbce59f2a	-0.028029997
198	0xbd47f6b4	-0.04881926
199	0x3d59edf6	0.053205453
200	0x3df26ea9	0.11837513
201	0x3d88a4c5	0.06672052
202	0x3e07a3f7	0.13246141
203	0xbd65c8f2	-0.05609984
204	0xbd98d40a	-0.07462318
205	0x3c912171	0.017716141
206	0x3cfaf3cd	0.030633831
207	0x3d501e20	0.05080998
208	0x3d08ff30	0.03344649
209	0xbd31719a	-0.04332123
210	0xbd78b923	-0.060723435
211	0xbd9618a5	-0.07328919
212	0xbdd23082	-0.102631584
213	0x3c55cfd3	0.013050037
214	0x3d57ffde	0.05273425
215	0xbd1c239a	-0.03811989
216	0xbcaf9407	-0.02143289
217	0x3d63dcde	0.055630557
218	0x3d002057	0.03128084
219	0x3d2bc3d6	0.04193481
220	0xbc224392	-0.009903805
221	0x3d4af7bc	0.049552664
222	0xbc9a988b	-0.018871566
223	0xbcbffb6a	-0.023435313
224	0x3caaaf65	0.020835588
225	0x3d23a130	0.039948642
226	0x3d5287b1	0.051398937
227	0x3d73e94b	0.059548657
228	0xbd30b2be	-0.04313921
229	0xbc36999d	-0.011145023
230	0xbd0bfb09	-0.034174953
231	0x3c919a3d	0.017773742
232	0x3be58897	0.007004808
233	0xbdb63e24	-0.08898571
234	0x3e0d4ea4	0.1379953
235	0xbd9d6d3a	-0.07686849
236	0xbc5914a2	-0.013249548
237	0xbc41bfce	-0.011825515
238	0xbe522b79	-0.20524396
239	0x3d836ddc	0.064174384
240	0xbe02ece3	-0.12785678
241	0xbe99209c	-0.2990769
242	0x3cfcb350	0.030847222
243	0xbd08cb25	-0.03339686
244	0x3db912dc	0.090368
245	0xbc9d6026	-0.019210886
246	0x3da6eaaa	0.08150227
247	0x3d5b9dce	0.05361729
248	0x3bba940c	0.005693918
249	0xbd40f8ed	-0.047112394
250	0x3c291143	0.010319057
251	0xbd0c1259	-0.034197185
252	0xbd020eee	-0.03175252
253	0xbdc9eaf9	-0.098592706
254	0xbc354a1d	-0.011065033
255	0x3b4f6b1b	0.0031649533

block_1.conv2.bias f4 [16]
0	0xbb05f131	-0.002043795
1	0x3e22b065	0.15887602
2	0x3ed5d104	0.4176103
3	0x3e9d15c3	0.30680665
4	0xbc8536ac	-0.016261421
5	0x3f271a5d	0.652746
6	0xbe317017	-0.17327915
7	0x3e252bb0	0.16129947
8	0x3c2231a6	0.009899532
9	0x3e5e87a4	0.2173143
10	0x3f3044ec	0.68855166
11	0x3e5f794d	0.21823616
12	0xbd2338c6	-0.039849065
13	0x3c0d6659	0.008630359
14	0x3df4cf85	0.11953644
15	0xbd10e323	-0.035372864

block_2.conv1.weight f4 [32, 16, 3, 3]
0	0x3d67a46b	0.056553286
1	0xbdff90a2	-0.124787584
2	0xbdf01445	-0.11722616
3	0xbdcac07e	-0.09899996
4	0xbe176367	-0.14784013
5	0x3e008e3b	0.12554257
6	0x3c1758ca	0.009237478
7	0xba97a993	-0.0011570923
8	0x3ccf725f	0.025323091
9	0xbd10a9de	-0.035318248
10	0xbd64909f	-0.055801984
11	0xbdb20fc0	-0.0869441
12	0x3da178c5	0.07884363
13	0xbc168fc7	-0.009189553
14	0xbbf778c9	-0.0075522405
15	0x3d46be6d	0.048521448
16	0xbc1ae544	-0.009454075
17	0x3d3c4137	0.04596063
18	0x3c9bf64d	0.019038344
19	0x3ddf0a0c	0.10890588
20	0xbb70defa	-0.0036753998
21	0xbd3703c0	-0.04468131
22	0xbcb51e88	-0.022109285
23	0xbde4e3d5	-0.11176268
24	0x3bae72ea	0.0053237574
25	0x3c88c4c2	0.016695384
26	0xbb98182d	-0.004641554
27	0xbd929fee	-0.071594104
28	0x3c407575	0.011746754
29	0xbce0554f	-0.027384428
30	0xbcaac2b3	-0.020844793
31	0x3cc31eac	0.023818336
32	0xbcb70b8b	-0.022344371
33	0x3d27faa3	0.04101051
34	0xbd07cdc6	-0.033155225
35	0x3dbec433	0.09314766
36	0x3cecdc3b	0.028913608
37	0x3d1d761e	0.038442723
38	0x3da97da7	0.082759194
39	0x3ddc2331	0.107489
40	0xbdcc90df	-0.099885695
41	0xbb134181	-0.0022469463
42	0xbcd216c4	-0.025645621
43	0xbdb94c09	-0.09047706
44	0xbd0e931a	-0.034808256
45	0xbcb17f08	-0.021667019
46	0xbd978fc6	-0.074004695
47	0xbd5f69ec	-0.054544374
48	0xbc6082e3	-0.013703081
49	0xbc9e7343	-0.01934207
50	0xbca6a9f1	-0.020344706
51	0xba94ba2f	-0.0011346991
52	0x3d0821f4	0.033235505
53	0x3c4bada1	0.012431533
54	0x3d18a17e	0.037263386
55	0xbc0cc1b1	-0.0085911015
56	0x3d0ca2a1	0.034334783
57	0xbd5a9c91	-0.05337197
58	0x3d2cdb84	0.042201534
59	0xbe13e139	-0.14441384
60	0xbbf1208e	-0.007358617
61	0xbe0bf963	-0.13669352
62	0xbdb70062	-0.0893562
63	0xbd5e3cda	-0.05425725
64	0xbd99ad2d	-0.07503734
65	0xbd263af9	-0.040583584
66	0xbbb37999	-0.005477142
67	0x3cb6bdf3	0.022307372
68	0x3c8ab164	0.01693029
69	0x3d134f2e	0.035964184
70	0x3d1f9c73	0.03896756
71	0x3d1c9fb6	0.03823825
72	0xbe22dbeb	-0.15904205
73	0x3e0ef869	0.13961948
74	0x3ca942ab	0.020661673
75	0xbb966a89	-0.0045903367
76	0x3a80780c	0.0009801402
77	0x3d5eda74	0.054407552
78	0xbb52c993	-0.0032163605
79	0x3c3e8b85	0.011629944
80	0x3d837999	0.06419677
81	0xbcc4972f	-0.023997871
82	0xbc8f8690	-0.01752022
83	0xbd827b8d	-0.06371222
84	0xbd3cd1eb	-0.04609863
85	0x3c5fc053	0.0136566935
86	0xbcaf4c3b	-0.021398654
87	0xbca66a96	-0.020314496
88	0x3ce9217e	0.028458353
89	0x3d601aee	0.054713182
90	0x3d4ad2ed	0.04951756
91	0x3d9336e8	0.07188207
92	0x3e335e83	0.17516522
93	0x3d71f962	0.05907572
94	0xbc0eee45	-0.0087238
95	0x3d92327d	0.07138536
96	0xbdeb4374	-0.11487475
97	0xbe13dd36	-0.14439854
98	0x3df5e2a1	0.12006117
99	0xbce76071	-0.028244229
100	0x3bbccd62	0.005761788
101	0x3c9d5c51	0.019209059
102	0xbd2d10a9	-0.042252216
103	0xbc2fd4ab	-0.010731856
104	0x3d530d32	0.051526256
105	0x3c94d8b2	0.018169735
106	0xbc39fc73	-0.0113516925
107	0x3da40627	0.08008986
108	0xbccdb52c	-0.025110804
109	0x3d77800d	0.060424853
110	0xbd288a69	-0.041147623
111	0x3cd94540	0.026522279
112	0x3dd7050f	0.10499012
113	0x3d3422d5	0.04397853
114	0x3d9a5e5e	0.0753753
115	0x3d54503e	0.051834337
116	0x3d126e51	0.035749737
117	0xbb0ed138	-0.0021792185
118	0x3d0adf96	0.033904634
119	0xbd0b6777	-0.03403422
120	0x3cbd9373	0.023141598
121	0xbc90f43e	-0.017694589
122	0x3d8a201a	0.06744404
123	0xbd4ba779	-0.04972026
124	0xbd9a6d55	-0.07540385
125	0xbdf5b38a	-0.11997135
126	0xbd62c1fe	-0.055360787
127	0x3ac8f6a5	0.0015332295
128	0xbdbcbee9	-0.09216101
129	0x3d86f3e7	0.065894894
130	0x3de39509	0.111124106
131	0xbcff57dc	-0.031169824
132	0x3d7cf712	0.061759062
133	0xbd4856b0	-0.048910797
134	0xbd94353e	-0.07236718
135	0xbd97609f	-0.07391476
136	0xbdc79f5d	-0.09747193
137	0xbd279b8f	-0.040919837
138	0xbbcbc51b	-0.006218565
139	0x3c9f2742	0.0194279
140	0xbc0966d3	-0.008386332
141	0x3d936cb7	0.0719847
142	0x3d0e9e00	0.03481865
143	0x3cbc93ff	0.023019789
144	0xbd95df39	-0.07317967
145	0xbc783446	-0.015149182
146	0x3aa04b8e	0.0012229548
147	0xbdc7ade0	-0.09749961
148	0xbd1c9106	-0.038224243
149	0x3cba8ae0	0.022771299
150	0xbdce5f17	-0.10076731
151	0xbdb3e3cf	-0.087836854
152	0xbdbc9816	-0.092086956
153	0x3cdadac5	0.026715646
154	0xbccb8810	-0.024845153
155	0xbd79ce23	-0.060987603
156	0xbcca8ad8	-0.024724409
157	0xbd03f91f	-0.032220002
158	0xbd056c16	-0.032573782
159	0x3d7c275e	0.06156098
160	0x3dc1c6bc	0.09461734
161	0x3c45da74	0.012076009
162	0xbd911fe3	-0.0708616
163	0xbd27e7dc	-0.040992603
164	0xbc6ffa74	-0.014647115
165	0x3d2a6651	0.041601483
166	0xbc46e89d	-0.01214042
167	0xbc85646a	-0.016283233
168	0x3baa0b23	0.005189316
169	0x3d7d5ce2	0.061856158
170	0xbd933f38	-0.071897924
171	0x3d6b41b0	0.05743569
172	0x3d0f8d04	0.035046592
173	0x3bc8cbf1	0.0061278273
174	0xba65996b	-0.0008758518
175	0x3a663827	0.0008782171
176	0x3cfc4439	0.03079425
177	0xba709784	-0.0009177851
178	0xbd482820	-0.04886639
179	0xbcb2ca8d	-0.0218251
180	0x3a32aefe	0.0006816237
181	0xbdbc6cf9	-0.092004724
182	0xbdfbf054	-0.12301698
183	0xbae06661	-0.0017120355
184	0xbd6302ff	-0.05542278
185	0xbd457eaf	-0.048216518
186	0xbd135777	-0.035972085
187	0xbdbe2632	-0.09284629
188	0xbde3edcc	-0.111293405
189	0xbdbdfdfb	-0.092769586
190	0x3c7ead4a	0.015544245
191	0xbdbc47da	-0.09193392
192	0xbd670f86	-0.05641129
193	0x3e0756ae	0.1321666
194	0x3aab9845	0.0013091645
195	0x3d4cf2ad	0.05003612
196	0x3e516cb7	0.20451628
197	0x3db206fc	0.086927384
198	0x3e0b3dd2	0.13597801
199	0xba17230b	-0.00057654147
200	0xbdada2d4	-0.084783226
201	0x3d7ed3de	0.06221377
202	0xbd02b41e	-0.031910054
203	0xbd5aa3fd	-0.053379048
204	0x3d4fc5fb	0.05072592
205	0xbdedd6ed	-0.116132595
206	0xbe397fc2	-0.18115142
207	0xbd81712f	-0.06320416
208	0x3c62545f	0.013814061
209	0xbbe73fe6	-0.007057178
210	0xbb902809	-0.004399304
211	0x3dd546d8	0.10413903
212	0x3d957b50	0.072989106
213	0x3c82e287	0.015977157
214	0x3e059da6	0.1304842
215	0x3db8a3c9	0.090156145
216	0xbd16ff18	-0.03686437
217	0x3c875341	0.01651919
218	0xbd437a64	-0.047724143
219	0x3d0c47c4	0.03424813
220	0x3d1ee766	0.038794897
221	0xbcae02b3	-0.021241521
222	0x3d903c60	0.070427656
223	0xbb5c50ba	-0.0033617453
224	0xbccfd0a5	-0.025368044
225	0xbdd44b8b	-0.10365971
226	0xbd32ac0a	-0.0436211
227	0xbd22171e	-0.039572828
228	0xbc8c89e7	-0.0171556
229	0x3cf0eee6	0.02941079
230	0x3a3187e4	0.00067722634
231	0x3bcce71e	0.0062531373
232	0x3d966078	0.07342619
233	0x3cf0de83	0.029402977
234	0x3db6cdf5	0.08926002
235	0x3db7e9b9	0.08980126
236	0x3d973c1b	0.07384511
237	0xbd2de0a7	-0.042450573
238	0x3ddd406f	0.10803305
239	0x3d63c102	0.05560399
240	0xbd8aec8a	-0.067833975
241	0x3d351a9c	0.04421483
242	0xbca10aaf	-0.019658415
243	0xbdd55409	-0.10416419
244	0xbc5cf66d	-0.013486487
245	0xbc4d288a	-0.012521872
246	0xbd3a260d	-0.045446444
247	0x3d9dfaf6	0.077138826
248	0x3cf0c31a	0.029389907
249	0xbd05292f	-0.03250998
250	0x3e0ca69b	0.1373543
251	0x3d24b70c	0.04021363
252	0xbd821ffe	-0.06353758
253	0x3be4fb79	0.0069879857
254	0x3d22cb2e	0.03974455
255	0x3d1db020	0.038498044

block_2.conv1.bias f4 [32]
0	0x3c95582c	0.01823052
1	0x3f4eef93	0.8083431
2	0xbd529f3d	-0.051421393
3	0x3e593c9c	0.21214527
4	0x3d2de22c	0.042452022
5	0x3e81df73	0.2536579
6	0x3c0dd3e9	0.00865648
7	0xbded6e7d	-0.115933396
8	0x3e226ff5	0.1586302
9	0x3c082216	0.008308908
10	0x3e5dd965	0.2166496
11	0xbbceb73a	-0.0063084634
12	0x3d6b3132	0.057419963
13	0x3da4d9a3	0.080493234
14	0x3f1109b3	0.56655425
15	0x3cbbba4c	0.022915982
16	0xbc2dfec4	-0.010619823
17	0x3ddf3c01	0.10900117
18	0x3d38c60c	0.045110747
19	0x3dff4436	0.12464182
20	0xbdce4124	-0.10071018
21	0x3ca09cab	0.019605955
22	0x3ec40fad	0.3829321
23	0x3eafa271	0.3430362
24	0x3c927fae	0.017883148
25	0x3d6c3f7c	0.05767773
26	0x3dfc3f3c	0.123167485
27	0x3dfeddc4	0.12444642
28	0x3e0cbbbd	0.13743491
29	0x3d565575	0.052327592
30	0x3e387eed	0.18017168
31	0x3de1c5be	0.110240445

block_2.conv2.weight f4 [32, 32, 3, 3]
0	0xbcbe240b	-0.023210546
1	0xbd773658	-0.06035456
2	0xbdb753a3	-0.08951499
3	0x3dbf91c4	0.093539745
4	0xbcc30b72	-0.023809168
5	0x3ba81b78	0.0051302277
6	0x3c9f7705	0.019465933
7	0x3d0a9d04	0.033841148
8	0xbadba7f1	-0.0016758424
9	0x3c08d109	0.008350619
10	0xbba0aace	-0.004903174
11	0xbd384f9e	-0.044997804
12	0xbd6f409e	-0.058411233
13	0xbd2898ea	-0.041161455
14	0xbc6a0aa8	-0.014284767
15	0x3d5ed579	0.054402802
16	0x3ccb56bc	0.024821632
17	0xbd99aced	-0.07503686
18	0xbcea554e	-0.02860513
19	0xbc95ed3b	-0.018301597
20	0xbc746b66	-0.014918184
21	0xbcd7a432	-0.026323412
22	0xbc1d8704	-0.00961471
23	0x3b9d3be4	0.0047983993
24	0xbcf6b13c	-0.030113809
25	0xbc53b2c5	-0.01292104
26	0x3b9697d0	0.004595734
27	0xbd347697	-0.04405841
28	0x3c0bf03f	0.008541166
29	0x3c04b116	0.008098861
30	0xbc613e18	-0.013747714
31	0xbcf17741	-0.02947581
32	0x3cc1611e	0.02360588
33	0x3d33d35f	0.04390275
34	0xbd01b4ae	-0.03166645
35	0xbc1f1f80	-0.0097121
36	0xbcac3ff8	-0.021026596
37	0xbd924f9e	-0.07144092
38	0x3c1c144d	0.009526324
39	0x3c051b31	0.008124159
40	0xbce54ab6	-0.027989727
41	0xbd76043d	-0.060062636
42	0x3d449f9f	0.04800379
43	0xbd22c333	-0.039736938
44	0xbd59488b	-0.053047698
45	0xbd4d46f8	-0.05011651
46	0x3c82b70c	0.015956424
47	0xb960f2fe	-0.00021452826
48	0xbd842cf9	-0.0645389
49	0xbd873f15	-0.06603829
50	0xbc19a24e	-0.009377075
51	0xbc8f0d20	-0.017462313
52	0xbcfe6f91	-0.031059058
53	0x3bcf018c	0.006317323
54	0xbd8a0463	-0.06739118
55	0xbd5c3499	-0.0537611
56	0xbd099aeb	-0.033595007
57	0xbc1a8416	-0.009430906
58	0xbdd06b4d	-0.10176716
59	0xbda4e1fb	-0.08050915
60	0x3ca32683	0.019915825
61	0xbd74d2d7	-0.059771385
62	0xbdc7ab85	-0.09749512
63	0xb8c68c66	-9.467527e-05
64	0xbc8d1e37	-0.017226322
65	0x3c9247a8	0.017856434
66	0x3c49e96b	0.012323718
67	0x3d6ce8b8	0.057839125
68	0x3d16ab26	0.036784314
69	0xbd9ccce9	-0.07656271
70	0x3ccc0b51	0.02490774
71	0x3c4405de	0.0119642895
72	0xbdd4d0f4	-0.10391417
73	0xbb860e42	-0.004091055
74	0x3d93d0f0	0.07217586
75	0xbdc3a9f5	-0.09553901
76	0xbdae721e	-0.0851786
77	0x3cae43de	0.021272596
78	0xbd35443c	-0.044254526
79	0xbd8be0cd	-0.06829987
80	0xbd93f71c	-0.07224867
81	0xbc29b6ab	-0.010358493
82	0xbc2aef2e	-0.010433001
83	0xbc56c5fa	-0.013108725
84	0xbc64d6c0	-0.013967216
85	0xbb90262b	-0.004399081
86	0xbc1e23bb	-0.0096520735
87	0xbc89dda4	-0.01682932
88	0xbc23c192	-0.009994881
89	0xbc0f2768	-0.0087374225
90	0xbdd8c0e1	-0.10583664
91	0xbc1228a5	-0.008920823
92	0x3d2f9f9e	0.042876832
93	0xbc0907b2	-0.008363651
94	0xbd01be7e	-0.031675808
95	0xbb836e18	-0.004010927
96	0x3d91b003	0.0711365
97	0x3b8b58ef	0.004252545
98	0xbcd0bea2	-0.025481526
99	0x3d1be5c6	0.038060926
100	0x3d6f2922	0.058388837
101	0x3c49dbeb	0.012320499
102	0xbcabc99a	-0.020970155
103	0x3d8d90f9	0.06912417
104	0x3d9ed95f	0.07756304
105	0xbdbd5429	-0.09244568
106	0xbd6c3ffd	-0.05767821
107	0x3cf15366	0.029458713
108	0xbade4be6	-0.0016959875
109	0x3c83f33b	0.016107192
110	0x3d5701ba	0.05249188
111	0x3c85600a	0.016281147
112	0x3ae58396	0.0017510529
113	0x3ca65399	0.020303534
114	0xbd203ab4	-0.039118484
115	0x3bf0f2c7	0.00735316
116	0xbcc977b6	-0.024593215
117	0xbd19c1e9	-0.037538443
118	0x3dad657e	0.08466624
119	0xbd63079c	-0.05542718
120	0xbc93bcfa	-0.018034447
121	0x3d19ab31	0.037516776
122	0x3d6bb663	0.057546984
123	0xbd98cb5d	-0.074606635
124	0xbcf6d04e	-0.030128624
125	0x3d0cfe45	0.034422178
126	0x3d387bbc	0.045039877
127	0xbd453d42	-0.048154123
128	0x3ccb4a09	0.024815576
129	0x3d90fee0	0.070798635
130	0xbcf563c2	-0.029954795
131	0xbd54e748	-0.05197838
132	0x3cd04216	0.025422137
133	0x3dcf21bc	0.10113856
134	0x3cad9639	0.021189796
135	0xbdb981fb	-0.09057995
136	0xbcfa86d6	-0.030581873
137	0xbc915da5	-0.017744849
138	0xbd316a5e	-0.04331433
139	0xbcd1c928	-0.025608614
140	0x3c28a62f	0.0102935275
141	0xbca5b592	-0.020228181
142	0xbd962446	-0.07331137
143	0xbdc460d3	-0.0958878
144	0xbc960144	-0.01831115
145	0xbc2d3eaa	-0.010574022
146	0xbc3113d4	-0.01080795
147	0xbc9d7a81	-0.019223453
148	0xbc26905f	-0.010166257
149	0xbbd45afe	-0.0064805737
150	0xbc8f89b6	-0.01752172
151	0xbc898e51	-0.016791495
152	0xbbe21c26	-0.006900328
153	0xbc8ee942	-0.01744521
154	0xbcdbe84a	-0.026844162
155	0x3d43973c	0.04775165
156	0x3d551edd	0.052031387
157	0xbdb3ec34	-0.087852865
158	0xbc34ad68	-0.011027671
159	0x3d511058	0.051040977
160	0xbca60413	-0.020265615
161	0xbd88befb	-0.06677052
162	0xbb3f5d01	-0.0029199722
163	0x3d4468ef	0.047951635
164	0x3c21c347	0.009873218
165	0xbc157f00	-0.009124517
166	0x37ccf634	2.4433342e-05
167	0xb9f453f1	-0.00046601848
168	0xbc9098c8	-0.017650977
169	0xbc01b8b6	-0.007917574
170	0xbd5da7c1	-0.05411506
171	0x3d9fb132	0.07797469
172	0xbd275ddb	-0.040860992
173	0x3bc16f6a	0.005903174
174	0x3d174257	0.0369285
175	0xbd15956e	-0.03651946
176	0xbb3632b6	-0.0027801222
177	0xbd4a938f	-0.04945713
178	0x3bc044f3	0.0058675944
179	0xbcf4770f	-0.029841928
180	0x3d5139f9	0.051080678
181	0x3db33374	0.08750048
182	0xbbc17452	-0.005903759
183	0xbd75d623	-0.06001867
184	0x3e0e48ad	0.13894911
185	0x3d98dfbf	0.07464551
186	0xbe4e1d60	-0.20128393
187	0xbd1611e7	-0.036638167
188	0x3c6aa8c9	0.014322468
189	0xbd714f0f	-0.058913287
190	0xbd66202d	-0.05618303
191	0x3cff9f2c	0.031203829
192	0xbd36cf8f	-0.044631537
193	0xbe03ddb6	-0.12877545
194	0xbda8998b	-0.08232411
195	0xbc9bc5de	-0.019015249
196	0xbdddb802	-0.10826112
197	0xbd9f0b4d	-0.07765827
198	0x3c8ad277	0.01694606
199	0x3c779322	0.015110763
200	0xbb6943d2	-0.0035593403
201	0xbba56123	-0.00504698
202	0x3d2dc261	0.042421702
203	0x3cfd6c82	0.03093553
204	0x3d0b2f33	0.03398056
205	0x3d21855e	0.03943383
206	0x3d9d0ef0	0.07668865
207	0xbd213bd1	-0.039363686
208	0x3af2127c	0.0018468644
209	0xbb4ea420	-0.0031530932
210	0x3ad27c01	0.0016058685
211	0x3d20f871	0.039299432
212	0x3cfc709c	0.030815415
213	0xbc989669	-0.018626409
214	0xbc26bab1	-0.010176347
215	0x3d8485fc	0.06470868
216	0xbdd0cf73	-0.10195818
217	0xbd0aff2f	-0.03393477
218	0xbc07768b	-0.008268009
219	0xbd8e5900	-0.06950569
220	0x3d173441	0.036915068
221	0x3dccc27b	0.09998032
222	0xbd0d687e	-0.03452348
223	0xbce95cfc	-0.028486721
224	0x3c4af188	0.012386687
225	0xbe020f58	-0.12701166
226	0x3bb5b1de	0.005544885
227	0x3d8d2138	0.068911016
228	0x3c2e7a60	0.010649294
229	0xbdc1f4a2	-0.09470488
230	0x3d95a34d	0.07306538
231	0x3da7d04b	0.081940256
232	0xbd6a3653	-0.057180714
233	0x3c9208fd	0.017826552
234	0xbdea71e8	-0.11447507
235	0xbd0d2333	-0.034457397
236	0x3d3917e8	0.045188814
237	0xbd4746cb	-0.048651498
238	0xbc99e42f	-0.018785564
239	0x3c92aa7f	0.017903564
240	0x3cb5a468	0.022173122
241	0xbb70b85b	-0.0036730978
242	0xbc38d806	-0.011281973
243	0xbd7732a3	-0.060351025
244	0xbd0d35f2	-0.034475274
245	0x3aca910e	0.0015454607
246	0xbcd0e76d	-0.025500977
247	0xbd17ed64	-0.037091628
248	0xbceb62ac	-0.028733574
249	0x3b1b7996	0.0023723594
250	0xbc601b37	-0.0136783635
251	0xbc369d56	-0.01114591
252	0xbd3183c2	-0.043338545
253	0xbd25c476	-0.040470563
254	0x3d85dfc7	0.06536823
255	0x3d4b73e0	0.049671054

block_2.conv2.bias f4 [32]
0	0x3d15f7ae	0.03661316
1	0xbe394b60	-0.1809516
2	0xbe04922a	-0.12946382
3	0xbc1c793e	-0.009550391
4	0x3ed44ee0	0.41466427
5	0x3c05a086	0.008155948
6	0xbe37c7f6	-0.17947373
7	0xbdc530ab	-0.09628423
8	0xbdfd5c2b	-0.12371095
9	0x3dd102c8	0.102056086
10	0x3da88a4d	0.08229504
11	0xbd13095e	-0.035897605
12	0x3d4ab0fd	0.049485195
13	0x3dd90505	0.105966605
14	0xbd9d9b25	-0.07695607
15	0x3db6174a	0.08891161
16	0xbe4a5b4b	-0.19761388
17	0x3d0d0707	0.03443053
18	0x3da76681	0.08173848
19	0xbdde9061	-0.10867382
20	0xbd5ff87b	-0.05468033
21	0xbe55cc66	-0.20878753
22	0xbd0c0aab	-0.03418986
23	0xbe55cc6a	-0.20878759
24	0xbd0944d0	-0.03351289
25	0xbedf3fd8	-0.43603396
26	0xbdebae43	-0.11507847
27	0xbe04c009	-0.1296388
28	0xbda4fba8	-0.08055812
29	0xbb1bafe1	-0.0023755955
30	0x3daaaf87	0.083342604
31	0x3d3a7ba9	0.045528088

dblock_3.denselayer1.conv1.weight f4 [48, 32, 3, 3]
0	0x3c43d9a0	0.011953741
1	0x3cb8ad5c	0.022543602
2	0x3c98adc9	0.018637555
3	0xbcd29a89	-0.025708454
4	0x37c95383	2.3999955e-05
5	0x3dad9136	0.084749624
6	0x3bdcaacc	0.0067342278
7	0x3d45cab6	0.048289023
8	0x3d122bfa	0.03568647
9	0x3d7eae81	0.06217814
10	0x3d5b95f4	0.053609803
11	0x3d64de75	0.055876214
12	0x3d17fd6a	0.03710691
13	0xbca50178	-0.020142302
14	0x3c9ee2b2	0.019395206
15	0x3d95dd05	0.07317547
16	0x3c9f049b	0.019411376
17	0x3d5cdc98	0.053921312
18	0x3d3e4769	0.04645482
19	0x3c2f632a	0.010704795
20	0x3cb4c37f	0.022065876
21	0x3c988557	0.018618269
22	0x3c480a71	0.012209521
23	0x3c82521e	0.015908297
24	0x3d322c78	0.04349944
25	0x3be16bbb	0.0068792976
26	0x3d693c5a	0.05694232
27	0xbb9d6789	-0.004803602
28	0xbc6f866e	-0.014619453
29	0x3cc81bd1	0.024427326
30	0x3c934d76	0.017981272
31	0x3cbf8683	0.02337957
32	0x3b618b79	0.0034415408
33	0xbb3adc0b	-0.0028512503
34	0xbd5d156c	-0.053975508
35	0x3d2d037d	0.042239655
36	0xbdac09bb	-0.084002934
37	0xbd014f95	-0.031570036
38	0x3bd85cd2	0.006602862
39	0x3c9600c7	0.018310918
40	0xbd8fd504	-0.070230514
41	0x3d3df0fc	0.0463724
42	0xbd79ee9b	-0.061018568
43	0xbd138dc2	-0.036023863
44	0xbcf85e8d	-0.030318523
45	0xba971dfb	-0.0011529321
46	0xbc48d42e	-0.012257619
47	0x3de88529	0.11353523
48	0xbd61271d	-0.054968942
49	0x3c9a9e5c	0.01887434
50	0x3ce8d8d2	0.0284237
51	0x3ce1fa8e	0.027585294
52	0xbd91886a	-0.07106097
53	0x3d666932	0.056252666
54	0xbd58612c	-0.052827045
55	0xbd11d685	-0.035604972
56	0xbd8eacaa	-0.06966527
57	0xbde14b48	-0.11000687
58	0x3b910810	0.00442601
59	0x3c52c6c3	0.012864771
60	0xbdba10e6	-0.09085254
61	0xbdc8c935	-0.09804002
62	0xbdef02b9	-0.11670441
63	0xbc37f1ac	-0.011227053
64	0x3a1fc841	0.0006095209
65	0xbcf9b8f4	-0.0304837
66	0x3cc620fd	0.024185652
67	0x3bf2964a	0.0074031698
68	0x3b038764	0.0020069713
69	0xba398b2c	-0.0007077928
70	0xbc95053c	-0.018190973
71	0xbc8ed00f	-0.017433194
72	0x3b8f7154	0.0043775234
73	0xbd207b44	-0.039180055
74	0x3c9d2fad	0.019187773
75	0xbddcb5cb	-0.10776862
76	0x3d4377e9	0.047721777
77	0xbc4399c1	-0.011938513
78	0x3afcdb4b	0.0019291429
79	0xbdf2d720	-0.11857438
80	0x3c99b898	0.018764779
81	0x3d40c5a7	0.047063496
82	0x3d31caf9	0.04340646
83	0xbcb5c056	-0.02218644
84	0x3b9d118c	0.0047933515
85	0x3c7f1407	0.01556874
86	0x3d88a3df	0.06671881
87	0xbccca451	-0.024980696
88	0xbd94ef49	-0.072722025
89	0x3ca83877	0.020534737
90	0xbd7ffcc5	-0.06249692
91	0xbd5f6d8d	-0.054547835
92	0xbd14d222	-0.03633321
93	0xbdc060d8	-0.093934715
94	0xbcfb491a	-0.030674506
95	0x3c94d98b	0.018170139
96	0xbd8a5089	-0.06753642
97	0xbd9d4ed2	-0.076810494
98	0xbd2f2fe5	-0.042770285
99	0xbd9be668	-0.07612306
100	0xbd9cb7d0	-0.07652247
101	0xb9d255a3	-0.00040118126
102	0xbdbec204	-0.09314349
103	0xbb0093f1	-0.001961943
104	0x3cbb425b	0.02285879
105	0xbd85aff0	-0.06527698
106	0xbdc30f5f	-0.09524416
107	0xbd38fd1b	-0.045163255
108	0x3c9c369e	0.019069012
109	0xba956c59	-0.0011400088
110	0x3d02bfb9	0.031921122
111	0xbcac12eb	-0.021005115
112	0xbba37b90	-0.004989095
113	0xbd6221de	-0.05520808
114	0x3c5022dc	0.012703624
115	0xbc1cfb09	-0.009581336
116	0xbd27268c	-0.040808246
117	0x3b776c72	0.0037753847
118	0xbcfcd074	-0.030861117
119	0x3dc01cab	0.09380468
120	0x3db0e701	0.086378105
121	0xbcf43cae	-0.02981409
122	0xbd584bb7	-0.052806582
123	0xbd481c1c	-0.048854932
124	0x3d76fdce	0.06030064
125	0xbc35ffb6	-0.0111083295
126	0x3d34c571	0.044133607
127	0x3ca7702b	0.020439228
128	0x3c9559e8	0.018231347
129	0x3b79a6f1	0.003809389
130	0x3d4f8b36	0.05066987
131	0xbd835c37	-0.06414073
132	0x3aa3cb8e	0.0012496577
133	0xbd22d78b	-0.03975634
134	0x3d2b3ec3	0.0418079
135	0x3a0a0dc3	0.0005266333
136	0x3cd5ece2	0.026113931
137	0x3bad9dab	0.0052983365
138	0x3d303fb6	0.04302951
139	0xbc9900bb	-0.018677106
140	0x3d91c1f7	0.07117074
141	0xb9c73f98	-0.0003800362
142	0x3c9e0f8c	0.019294523
143	0x3c81ac6e	0.015829291
144	0x3c87ce55	0.016577879
145	0x3b92a965	0.00447576
146	0x3dc9099c	0.09816286
147	0x3d923a98	0.07140082
148	0x3cb9638c	0.022630475
149	0x3da679e0	0.081287146
150	0x3d5ba6f9	0.053626034
151	0x3d9d9d4d	0.07696018
152	0x3d787372	0.060656972
153	0x3d1da463	0.03848685
154	0x3cf88fab	0.030341944
155	0x3909a462	0.00013126576
156	0xbd9b1fa1	-0.07574392
157	0x3dd747d9	0.10511751
158	0x3c210e6f	0.009830101
159	0xbd271750	-0.040793717
160	0xbd045ef6	-0.032317124
161	0x3c121fb5	0.008918692
162	0xbcd6ad86	-0.02620579
163	0xbc616cba	-0.013758833
164	0x3c7dbc0a	0.015486727
165	0x3d3dc623	0.046331536
166	0xbdf3e05a	-0.11908026
167	0x3c006d59	0.0078385705
168	0xbd1249e0	-0.035714984
169	0x3dbc5d5b	0.09197494
170	0xbd125b02	-0.035731323
171	0xbd56d456	-0.052448593
172	0xbcab1dc2	-0.020888213
173	0xbdb0cd91	-0.08632959
174	0xbd7ea727	-0.062171128
175	0xbdb03b03	-0.086050056
176	0xbd84b55c	-0.06479904
177	0xbd2fe776	-0.042945348
178	0xbd48c973	-0.049020242
179	0xbdaabe0b	-0.08337029
180	0xbc1b42a9	-0.009476342
181	0xbb71eb1b	-0.0036913815
182	0x3ce0bf8e	0.02743509
183	0xbd1b8e97	-0.03797778
184	0x3bf3b5d8	0.007437449
185	0x3d9270b2	0.07150401
186	0xbc9d0366	-0.01916666
187	0x3ce91959	0.02845447
188	0xbd87d31a	-0.06632061
189	0x3a454d14	0.0007526439
190	0xbcbea9dd	-0.023274356
191	0x3d57d30b	0.0526915
192	0xbd85eba5	-0.06539086
193	0x3d8a873f	0.067640774
194	0x3d97f77e	0.07420252
195	0xbce65906	-0.028118622
196	0xbe0016bf	-0.12508677
197	0x3d3ee3b0	0.04660386
198	0x36cbd069	6.0741336e-06
199	0xbb3d0685	-0.0028842997
200	0x3c5a901c	0.013340022
201	0x3c7dc350	0.015488461
202	0xbc9dcf7a	-0.019263972
203	0x3b3e4513	0.002903287
204	0xbcc1c220	-0.023652136
205	0xbd053db7	-0.03252956
206	0x3cf13bc9	0.029447453
207	0x3ce7c2ca	0.028291125
208	0x3bd77ab3	0.006575906
209	0x3d792287	0.060823943
210	0xbd1ac6fc	-0.037787423
211	0x3bf2ee08	0.0074136294
212	0x3d11767a	0.03551338
213	0xbb560e9d	-0.0032662519
214	0x3b9132aa	0.0044310885
215	0x3c63b936	0.013899138
216	0x3d4a3aad	0.049372364
217	0xba33b8f9	-0.0006855871
218	0x3cf9f55e	0.030512508
219	0xbd93d489	-0.07218272
220	0x3d52e072	0.05148358
221	0x3c2f7772	0.01070963
222	0x3bfe4107	0.0077592167
223	0x3a91d4d2	0.0011126047
224	0xbad5ab25	-0.0016301615
225	0x3bff50ab	0.007791599
226	0xbbd4e329	-0.006496806
227	0x3c8042d9	0.015656875
228	0x3a98ff15	0.00116727
229	0xbd1e234e	-0.038607888
230	0xbcbe4ec7	-0.023230923
231	0xbbb5608d	-0.0055351914
232	0x3cff6757	0.031177206
233	0x3ccbb636	0.024867158
234	0x3c8459b2	0.016156051
235	0x3c778e95	0.015109678
236	0x3db075a2	0.08616187
237	0x3ba03604	0.0048892517
238	0x3dc8ad90	0.097987294
239	0x3de1d9e8	0.110278904
240	0x3dc1e9ff	0.09468459
241	0xbb6a60f5	-0.0035763357
242	0x3d3430ff	0.04399204
243	0x3a0f2d2c	0.0005461748
244	0xbca9841c	-0.020692877
245	0xbc401d91	-0.011725799
246	0x3c675866	0.014120197
247	0x3d0555a7	0.032552388
248	0xbdb1c454	-0.08680025
249	0xbc909e31	-0.017653557
250	0xbd876cf8	-0.06612581
251	0x3d2f2ab2	0.042765327
252	0x3cd26ee9	0.025687652
253	0x3d31b181	0.04338217
254	0x3d43facd	0.047846604
255	0xbd81c4c3	-0.063363574

dblock_3.denselayer1.conv1.bias f4 [48]
0	0x3cbb2fa7	0.02284987
1	0x3d39bcea	0.045346178
2	0xbd0dbb60	-0.034602523
3	0xbc7ec592	-0.015550034
4	0x3c728c45	0.014803951
5	0x3d3368bd	0.043801058
6	0x3d07b2af	0.03312939
7	0x3d702504	0.05862905
8	0xbcc105a5	-0.023562262
9	0x3c8d4e9b	0.017249396
10	0xbc0938ed	-0.008375389
11	0x3c5dd73e	0.013540087
12	0x3e1cca88	0.15311635
13	0x3daded62	0.08492543
14	0xbd53013b	-0.051514845
15	0xbd346b44	-0.04404761
16	0xbcc21a68	-0.023694232
17	0xbcbf892b	-0.023380836
18	0xbcaa6582	-0.020800356
19	0xbd1724c9	-0.036900315
20	0xbcc15011	-0.023597749
21	0x3ce58947	0.02801956
22	0xbbc607da	-0.0060434164
23	0xbcace095	-0.021103183
24	0x3d01963d	0.03163742
25	0x3d20e343	0.039279234
26	0xbcf09509	-0.02936794
27	0xbcefade4	-0.029257722
28	0x3b102fa0	0.0022001043
29	0xbcba7bd3	-0.022764122
30	0x3d97e7c0	0.0741725
31	0x3c951eb9	0.018203126
32	0xbbca48cf	-0.0061732302
33	0x3afb7c69	0.0019186857
34	0xbcc1de25	-0.023665497
35	0xbcc0ac2b	-0.023519596
36	0x3beb83df	0.007187351
37	0x3dadea99	0.084920116
38	0x3d1e455c	0.038640365
39	0xbc91bf57	-0.017791433
40	0xbb9709d8	-0.0046093278
41	0x3d41a570	0.047276914
42	0x3cc941de	0.02456754
43	0x3d5365d9	0.0516108
44	0x3de74d75	0.11294071
45	0x3c632d1d	0.013865736
46	0xbd20a267	-0.03921738
47	0xbcc15c85	-0.023603687

dblock_3.denselayer1.conv2.weight f4 [48, 48, 3, 3]
0	0x3cd8690e	0.026417281
1	0xbc4b4d83	-0.012408617
2	0xbba4c50a	-0.0050283717
3	0xbd0f2a37	-0.03495237
4	0xbc20b49d	-0.009808687
5	0x3b49b4b8	0.0030777883
6	0xbcee4280	-0.029084444
7	0xbc5564ec	-0.01302455
8	0xbd27b296	-0.040941797
9	0xbd1a1fcc	-0.03762798
10	0x3ba568df	0.005047902
11	0xbd228e46	-0.039686464
12	0x3be058d1	0.0068465252
13	0xbd0c916e	-0.03431838
14	0x3ae7a639	0.001767344
15	0xbd1c1dff	-0.038114544
16	0xbbbff47c	-0.005858002
17	0x3d23b549	0.03996781
18	0x3d42a82f	0.047523674
19	0x3d3393ff	0.043842312
20	0xbd0f1f36	-0.034941874
21	0xbd7c832c	-0.061648533
22	0x3dd7b7c9	0.10533101
23	0xbb6b7886	-0.0035929992
24	0xbc3f3dc0	-0.011672437
25	0xbc96084d	-0.018314505
26	0x3d7f611e	0.062348478
27	0x3d1474ab	0.036244076
28	0x3d283415	0.041065294
29	0x3a870e2c	0.0010303906
30	0x3bb347ab	0.00547119
31	0x3d6fe749	0.05857018
32	0xbb73afea	-0.003718371
33	0xbc9d20ba	-0.019180644
34	0x3d0c23be	0.034213774
35	0xbc02f4b6	-0.007992914
36	0xbc854207	-0.016266836
37	0x3d6dee0e	0.058088355
38	0xbd7a6fcd	-0.061141778
39	0xbb978ded	-0.004625073
40	0x3b46e558	0.0030349102
41	0xbc7fcfb3	-0.015613484
42	0x3c98b023	0.018638676
43	0x3c036ef2	0.008022057
44	0xbcee6b65	-0.029103944
45	0xbc1f2fe7	-0.009716011
46	0xbd1e631a	-0.03866873
47	0xbc969d2a	-0.018385489
48	0x3be56337	0.0070003527
49	0xbd12c82d	-0.035835434
50	0xbd15f9dc	-0.036615238
51	0xbc109f93	-0.008827108
52	0x39a6c12c	0.00031805912
53	0x3d329e85	0.043608207
54	0xbd0e1924	-0.034691945
55	0xbd4a6821	-0.04941571
56	0xbd8a006a	-0.0673836
57	0x3cda0935	0.026615718
58	0xbbf4288e	-0.0074511236
59	0xbbd1fc08	-0.0064082183
60	0x3d363e18	0.04449281
61	0x3c0363fa	0.008019442
62	0x388a2aec	6.5883476e-05
63	0xbbcd2762	-0.0062607983
64	0x3d7e2f67	0.062056925
65	0xbc883d70	-0.016630858
66	0x3b2b3f33	0.00261302
67	0x3c5de10b	0.013542424
68	0x3d88c182	0.06677534
69	0xbc6bc2ad	-0.014389676
70	0xbc6a67a1	-0.014306934
71	0x3d221881	0.03957415
72	0x3b22dea2	0.0024851938
73	0x3b126b7b	0.0022341895
74	0x3a961206	0.0011449463
75	0x3ba90e21	0.005159155
76	0x3bdceaae	0.006741843
77	0x3bd0accd	0.0063682557
78	0x3b3ec67d	0.0029110007
79	0x3b8d0d02	0.004304529
80	0x3b84d877	0.004054125
81	0x3adb5690	0.0016734172
82	0xba48e327	-0.0007663243
83	0xbbff0cde	-0.0077835163
84	0x3b3d20fe	0.0028858776
85	0x3bc6746a	0.006056358
86	0xb9e51691	-0.00043695097
87	0xbd2f66df	-0.042822715
88	0xbbafd707	-0.0053662094
89	0xbc023640	-0.0079475045
90	0xba7c8fd0	-0.0009634467
91	0xbb9f7050	-0.0048656836
92	0x3c1f54e3	0.009724828
93	0x3b940250	0.0045168772
94	0xbbf5333e	-0.007482915
95	0xbd0233c8	-0.031787664
96	0x3cea2169	0.028580384
97	0x3d907057	0.07052677
98	0x3d3f97cc	0.046775624
99	0xbcccdc03	-0.025007254
100	0x3d171fd2	0.03689558
101	0x3d03b67b	0.03215645
102	0xbd35cef9	-0.044386838
103	0xba955f2a	-0.0011396159
104	0x3c846d62	0.016165439
105	0xbc2b4eaf	-0.010455771
106	0xbdbaf156	-0.091280624
107	0xbd8b0d68	-0.067896664
108	0x3b9d34c8	0.004797552
109	0xbb5d7423	-0.0033791147
110	0xbcd73dfa	-0.02627467
111	0xbc746c9f	-0.014918475
112	0xbb78d6d7	-0.0037969851
113	0xbd2c237b	-0.042026024
114	0x3b6458b2	0.0034842906
115	0xbc92e785	-0.017932663
116	0xbcc499e0	-0.023999155
117	0xbcc4bfa8	-0.02401717
118	0xbc96a597	-0.018389506
119	0x3c510025	0.012756382
120	0xbc4995c6	-0.012303775
121	0xbd346365	-0.044040103
122	0x3c176190	0.009239569
123	0x3b87271a	0.0041245343
124	0xbc73d2c1	-0.014881791
125	0xbcd93143	-0.026512748
126	0x3d9b0635	0.07569543
127	0x3c1c113c	0.009525593
128	0xbd23e85b	-0.040016513
129	0xbcdc63d6	-0.026903074
130	0x3db63838	0.088974416
131	0xbdc38f90	-0.09548867
132	0xbd658933	-0.056039046
133	0xbd56e737	-0.052466597
134	0xb9903091	-0.00027502005
135	0xbb8705fe	-0.0041205874
136	0x3d8b7440	0.06809282
137	0x3d9042f5	0.07044021
138	0x3cb25566	0.021769237
139	0x3dafe70e	0.08588992
140	0xbb397a7b	-0.0028301764
141	0x3ccf562d	0.025309647
142	0x3d0b4400	0.034000397
143	0x3d575b72	0.052577443
144	0x3b2a9f39	0.0026034846
145	0x3b1900ca	0.0023346418
146	0x3aa625c0	0.0012676045
147	0x3baaa407	0.005207542
148	0x3bde2062	0.0067787627
149	0x3bd20124	0.0064088274
150	0x3b41de9f	0.0029582155
151	0x3b8e9eb6	0.004352416
152	0x3b865a58	0.0041001253
153	0x3b1d113e	0.0023966576
154	0x3b0d22fb	0.0021535743
155	0x3a895d63	0.0010480102
156	0x3ba8d213	0.005151996
157	0x3bde326c	0.006780913
158	0x3bd0b55a	0.006369275
159	0x3b403e8b	0.0029334154
160	0x3b8e3d94	0.004340837
161	0x3b86847e	0.00410515
162	0x3d6c6016	0.057708822
163	0xbd9d6a29	-0.07686264
164	0x3b92d1c9	0.0044805747
165	0x3e1b0e58	0.1514219
166	0x3d9747a2	0.0738671
167	0xbe076268	-0.13221133
168	0xbce10188	-0.02746655
169	0x3d7c0d48	0.061536103
170	0x3d9834f1	0.07431973
171	0x3d2a11eb	0.041520994
172	0x3d267372	0.04063744
173	0x3db693a8	0.08914882
174	0x3cd3f086	0.025871526
175	0x3d4bb1cf	0.04973012
176	0x3d4f3725	0.0505897
177	0x3d4145f5	0.047185857
178	0x3aeef0ec	0.0018229759
179	0x3db339a4	0.087512285
180	0x3b2541ad	0.0025216148
181	0x3b13360f	0.0022462641
182	0x3a9ae63b	0.0011817882
183	0x3ba9a846	0.0051775305
184	0x3bdd6278	0.006756123
185	0x3bd146d0	0.0063866153
186	0x3b4127d0	0.0029473193
187	0x3b8e64ed	0.0043455274
188	0x3b85e4f1	0.00408613
189	0xbc10e41e	-0.00884345
190	0x3c01966b	0.007909398
191	0x36d64c85	6.386605e-06
192	0xbcc530cf	-0.024071125
193	0x3cbf5142	0.023354176
194	0x3cd7524e	0.026284363
195	0xbc990baa	-0.01868232
196	0x3af9c530	0.0019055959
197	0x3cab8d30	0.020941347
198	0xbca99e54	-0.02070538
199	0x3bc9c5a0	0.006157592
200	0x3c047758	0.008085094
201	0x3ced165b	0.028941324
202	0xbd2d2b26	-0.042277478
203	0x3d32d12a	0.043656506
204	0x3c575296	0.013142249
205	0x3ccd7c3b	0.025083652
206	0xbc6cc5a7	-0.014451421
207	0x3dadc922	0.08485629
208	0xbd571116	-0.05250653
209	0x3b41076e	0.0029453891
210	0x3ca43aba	0.020047534
211	0x3c3ec1dd	0.0116429
212	0xbce62293	-0.028092658
213	0xbd74ef2e	-0.059798412
214	0x3d43b932	0.047784038
215	0xbd1a8b76	-0.037730657
216	0x3cc42957	0.023945494
217	0xbcc03695	-0.023463527
218	0x3ce75234	0.02823744
219	0x3c1b40b3	0.009475875
220	0xbd7ac29c	-0.06122075
221	0xbcd984ec	-0.02655264
222	0x3c263e11	0.010146634
223	0xbd34c73e	-0.044135325
224	0xbc90a2b7	-0.017655713
225	0xbd643df6	-0.055723153
226	0xbc07ad41	-0.008281053
227	0x3cd78905	0.026310453
228	0xbbf4cac2	-0.0074704597
229	0xbc0bec5d	-0.00854024
230	0x3d8a096e	0.0674008
231	0x3d0b4762	0.034003623
232	0x3d265a21	0.040613297
233	0x3dadbb81	0.08483029
234	0x3cc58c9e	0.024114903
235	0x3d27e49e	0.04098951
236	0x3d02a660	0.03189695
237	0x3c89d093	0.016823089
238	0x3d56f250	0.05247718
239	0xbc64b688	-0.0139595345
240	0xbccff740	-0.025386453
241	0x3d07933c	0.033099398
242	0xbc5f3cb7	-0.013625315
243	0x3d3e551d	0.04646789
244	0x3d9e8af3	0.07741346
245	0xba380864	-0.0007020293
246	0xbc9762c3	-0.01847971
247	0x3d6bd323	0.057574403
248	0xbcb56076	-0.022140723
249	0xbd2e96ec	-0.0426244
250	0x3d83d67d	0.06437395
251	0xbb6d0e8f	-0.0036172008
252	0x3d3b0264	0.045656577
253	0x3d87c7a5	0.06629876
254	0x3d09fd0a	0.033688582
255	0xbb72d144	-0.0037051002

dblock_3.denselayer1.conv2.bias f4 [48]
0	0x3c19ea48	0.009394236
1	0xbbd8d8e9	-0.0066176546
2	0x3d3f4149	0.04669312
3	0x3c5b8be0	0.013400048
4	0x3b606a74	0.0034243139
5	0x3b7f9a41	0.0039001855
6	0x3c781311	0.015141265
7	0xbc4ae82c	-0.012384456
8	0xbcba2e8b	-0.022727272
9	0xbcf6d492	-0.030130658
10	0x3aa0db9f	0.0012272483
11	0xbcb4c646	-0.0220672
12	0x3b6b0ad0	0.00358646
13	0x3c4df0b0	0.012569591
14	0x3caff334	0.021478273
15	0xbbb6659c	-0.005566312
16	0x3c3f7d7c	0.011687633
17	0xbcd23f04	-0.025664814
18	0xbd1a6474	-0.037693456
19	0xbd0a57fa	-0.033775307
20	0xbc732edc	-0.014842715
21	0xb9e5e1a4	-0.000438464
22	0x3cb50fb2	0.02210221
23	0xbc00e213	-0.0078664
24	0x3b8aeb02	0.004239441
25	0xbd2dda0e	-0.04244428
26	0x3bedcb7d	0.0072569237
27	0xbcacb3c4	-0.021081813
28	0x3c26df0a	0.010185013
29	0x3c0051a7	0.007831967
30	0x3cdb7bcd	0.026792431
31	0xbd051f9e	-0.032500856
32	0xbcda5e07	-0.026656164
33	0xbb3f6ce7	-0.0029209198
34	0xbcf805b0	-0.03027615
35	0xbcd78e3e	-0.026312944
36	0xbbc623d2	-0.0060467506
37	0x3d01d584	0.031697765
38	0x3ca56d4e	0.020193722
39	0xbcce84ea	-0.025209863
40	0x3cdb671f	0.02678257
41	0xbc9e23e3	-0.019304221
42	0x3b231552	0.0024884534
43	0xbc3eb1b8	-0.011639051
44	0x3c25e7f4	0.010126103
45	0x3cb5f5ce	0.022211935
46	0xbd38ba63	-0.045099627
47	0xbcac2ba4	-0.021016903
