checkpoints/BIPED/2/2_model.pth (torch, 249139 bytes, 30 tensors)

block_1.conv1.weight f4 [16, 3, 3, 3]
0	0xbe2aef9b	-0.16692965
1	0xbd85b6f8	-0.06529039
2	0xbe298edb	-0.16558401
3	0xbcbf2234	-0.023331739
4	0xbdd10aff	-0.102071755
5	0xbdcfd4cc	-0.1014801
6	0xbe40cc44	-0.18827921
7	0xbd5a1eaf	-0.05325192
8	0xbddbd35f	-0.10733675
9	0x3e33e76c	0.17568749
10	0xbab1ab55	-0.0013555089
11	0xbd00fc3e	-0.031490557
12	0x3c388919	0.011263155
13	0x3dc956e5	0.09831027
14	0xbdcdb8d2	-0.10045017
15	0xbe431b28	-0.19053328
16	0xbdeb29fa	-0.11482616
17	0xbdb368d7	-0.08760231
18	0x3e1d7d5b	0.1537985
19	0x3db4f9ef	0.088367335
20	0x3e055b97	0.1302322
21	0x3e6b0072	0.22949389
22	0x3e8345c4	0.25639164
23	0x3e161f0a	0.14660278
24	0x3dbdda15	0.092701115
25	0x3e24ac8f	0.16081451
26	0xbdb3fa0a	-0.087879255
27	0xbdb2f323	-0.08737781
28	0xbd287400	-0.04112625
29	0xbe208530	-0.15675807
30	0xbe04c5f6	-0.12966141
31	0xbcb6cc2e	-0.022314157
32	0xbd908869	-0.07057268
33	0xbe12677c	-0.14297289
34	0xbdacb2ce	-0.08432542
35	0x3d59f498	0.05321178
36	0x3ed9c720	0.42534733
37	0x3dee1428	0.11624938
38	0x3d2e672a	0.042578854
39	0x3e1a6f13	0.15081434
40	0x3e0acae0	0.13553953
41	0xbc81cddf	-0.015845237
42	0x3e0298a0	0.12753534
43	0x3e32f761	0.1747718
44	0x3e241f1a	0.1602749
45	0xbba5ded2	-0.0050619626
46	0xbe984749	-0.29741886
47	0xbdb3b2e0	-0.08774352
48	0x3dd27800	0.102767944
49	0xbd8d8f76	-0.069121286
50	0xbd82f998	-0.063952625
51	0xbdad6ff3	-0.08468618
52	0xbdc8d579	-0.09806342
53	0x3d38c98e	0.045114093
54	0x3e2f5146	0.17120847
55	0xbc58584c	-0.013204645
56	0x3d707776	0.058707677
57	0xbc272bee	-0.010203345
58	0xbe0caf24	-0.13738686
59	0xbd82a0a2	-0.063782945
60	0xbc3ff8d1	-0.011717037
61	0xbe1e921e	-0.15485427
62	0x3d7fad5a	0.06242118
63	0x3d18b95b	0.037286144
64	0xbdd7d381	-0.10538388
65	0x3d966e54	0.07345262
66	0xbb1eece3	-0.0024250082
67	0xbdd189f0	-0.102313876
68	0x3e6b2570	0.229635
69	0x3e0f4506	0.13991174
70	0xbe2bee93	-0.16790228
71	0x3beabf9b	0.0071639544
72	0x3d670672	0.05640263
73	0xbde4da19	-0.11174411
74	0xbc6111a7	-0.013737119
75	0x3c47a526	0.012185371
76	0xbddf8285	-0.109135665
77	0xbdb252a1	-0.087071665
78	0x3db5bdc9	0.08874089
79	0xbe8418ad	-0.25800076
80	0xbd1578ab	-0.03649203
81	0xbc9b44af	-0.01895365
82	0x3ddfbc4d	0.109245874
83	0x3e24d179	0.16095532
84	0xbd818ccd	-0.06325684
85	0x3e9b9518	0.30387187
86	0x3e51742c	0.20454472
87	0xbe67e25e	-0.22644946
88	0xbd24c7d7	-0.040229645
89	0x3e372fca	0.17889324
90	0xbe42d248	-0.19025528
91	0xbe3b4b1f	-0.18290375
92	0xbe103d01	-0.14085771
93	0xbbd968d5	-0.0066348114
94	0x3d510392	0.051028796
95	0x3cbd053a	0.023073781
96	0xbc895814	-0.016765632
97	0xbda115b0	-0.07865465
98	0xbe6d8835	-0.2319649
99	0x3dc0d2e7	0.094152264
100	0xbdd58fcb	-0.10427817
101	0x3de18fff	0.11013793
102	0x3e113f82	0.14184383
103	0xbca7c6e6	-0.020480584
104	0x3e2544fe	0.161396
105	0xbd68c5f2	-0.0568294
106	0xbc3455f5	-0.011006822
107	0xbdbdb6a0	-0.092633486
108	0xbe02e324	-0.1278196
109	0xbdb94d17	-0.09047907
110	0xbdb2bea2	-0.087277666
111	0xbd5d6ac2	-0.05405689
112	0x3d4e2c2f	0.050335106
113	0x3bf6ca74	0.0075314585
114	0xbe27ef7e	-0.16399953
115	0x3d5d08d5	0.0539635
116	0x3d360f6a	0.044448294
117	0xbdafd64b	-0.08585795
118	0x3d8142a3	0.06311538
119	0xbe4d4de7	-0.20049249
120	0xbc4b01b0	-0.012390539
121	0x3e0c18d4	0.13681346
122	0xbde23a87	-0.110463195
123	0x3c3a5957	0.011373839
124	0xbca9faca	-0.020749468
125	0x3dd1fb78	0.10253042
126	0x3ceabb0d	0.028653646
127	0x3e6ff25e	0.234323
128	0x3e0f5ad3	0.1399949
129	0xbcb2dd66	-0.021834087
130	0x3e7050c8	0.23468316
131	0x3dbc1f76	0.09185688
132	0x3d549eb2	0.051909156
133	0x3e104225	0.14087732
134	0xbd6e6390	-0.05820042
135	0xbd4c66fd	-0.049902905
136	0x3d47a087	0.048737075
137	0x3c0ab4d6	0.008465966
138	0xbd8d1137	-0.06888049
139	0x3d36836f	0.04455894
140	0xbd40d965	-0.047082324
141	0xbc314327	-0.010819233
142	0x3a8df08b	0.0010829134
143	0x3a56a41c	0.00081879064
144	0xbdc0a410	-0.094062924
145	0xbe10fc90	-0.14158845
146	0xbe50e630	-0.2040031
147	0xbe64c4d5	-0.2234071
148	0xbd90f697	-0.07078283
149	0xbd863351	-0.065527566
150	0xbe1fea04	-0.15616614
151	0xbda8254c	-0.08210239
152	0xbe5b9653	-0.21444063
153	0x3d56667f	0.05234384
154	0x3df31859	0.11869878
155	0x3ccbab0c	0.024861835
156	0x3e3d9c98	0.18516767
157	0x3e267d0c	0.16258639
158	0x3e08693c	0.13321394
159	0x3e219768	0.15780413
160	0x3e8d9a25	0.27656665
161	0x3e2f8b43	0.17142968
162	0x3db15981	0.0865965
163	0x3e3e4ed9	0.18584765
164	0x3e305ff1	0.17224099
165	0xbd0bfb94	-0.03417547
166	0x3dfb0069	0.122559376
167	0x3d250d3f	0.040295836
168	0x3cb189e0	0.02167219
169	0x3e8ac069	0.27099922
170	0x3da89d56	0.082331344
171	0xbd4102da	-0.04712186
172	0xbd5b1c3c	-0.053493723
173	0xbe1ce1e4	-0.15320545
174	0xbdc60907	-0.096696906
175	0x3d36fb75	0.0446734
176	0xbc7691e7	-0.015049434
177	0xbc89aa7f	-0.016804932
178	0x3d3e61f8	0.04648015
179	0x3d145256	0.036211334
180	0xbdce3a09	-0.10069663
181	0xbde799a5	-0.11308602
182	0xbdd816f5	-0.10551254
183	0x3dd1dee1	0.10247589
184	0x3b0084bb	0.0019610364
185	0xbe59e19b	-0.21277468
186	0xbd3e8831	-0.0465166
187	0xbcf6fdc6	-0.030150305
188	0xbe21cac8	-0.15800011
189	0xbd737093	-0.05943353
190	0x3ea36373	0.3191181
191	0x3e177147	0.14789306
192	0x3da7bf06	0.08190732
193	0xbd87bc66	-0.06627731
194	0x3dbcf506	0.09226422
195	0xbd84adf0	-0.064784884
196	0xbddde74e	-0.108351335
197	0xbb06ec61	-0.002058767
198	0xbe31f03a	-0.17376795
199	0x3bc3899d	0.0059673325
200	0x3e0129f1	0.12613656
201	0x3e43e137	0.19128881
202	0x3d8dc1cf	0.06921732
203	0x3a839c74	0.0010041134
204	0xbe3feb65	-0.1874214
205	0xbe8d21c9	-0.2756484
206	0xbe7444d5	-0.23854382
207	0x3ab26cdc	0.0013612765
208	0x3e37c0cc	0.1794464
209	0x3cd2eeba	0.0257486
210	0x3e11d93d	0.14243026
211	0xbb5a43a9	-0.0033304489
212	0x3dec09fb	0.11525341
213	0x3cb0e306	0.021592628
214	0xbe350fb1	-0.17681767
215	0xbe38edcd	-0.18059464
216	0xbc91ff54	-0.017821945
217	0x3cf4f39a	0.029901315
218	0x3c234148	0.009964295
219	0x3e8a88d5	0.2705752
220	0x3d3da29b	0.04629765
221	0x3d728193	0.059205603
222	0x3e167529	0.1469313
223	0xbc6df378	-0.0145233795
224	0x3e057169	0.13031544
225	0xbe554a55	-0.20829137
226	0xbe325f79	-0.17419232
227	0xbe1548b2	-0.14578512
228	0xbe50028c	-0.20313472
229	0xbdafec56	-0.085899994
230	0x3cf5ff70	0.030029029
231	0xbe177843	-0.1479197
232	0xbe440b86	-0.19145021
233	0x3c3d732e	0.0115631055
234	0xbd954d3a	-0.072901204
235	0x3d0b0a2e	0.033945255
236	0xbc944d28	-0.018103197
237	0x3b13bcaf	0.0022542884
238	0x3d7c3981	0.061578277
239	0x3e83a5f4	0.2571255
240	0x3d1804a3	0.037113797
241	0xbc5f3926	-0.013624465
242	0x3e53d8ca	0.20688167
243	0xbe45eaf9	-0.19327916
244	0xbd151d3b	-0.03640483
245	0xbda6638b	-0.08124455
246	0xbc9d5b64	-0.019208618
247	0xbc3492f9	-0.011021369
248	0x3de478b4	0.11155835
249	0x3c234b31	0.0099666575
250	0x3c5ee6d4	0.013604838
251	0x3e3746de	0.17898127
252	0xbe295b3a	-0.16538706
253	0xbe495d6e	-0.19664547
254	0xbd81ad42	-0.063318744
255	0x3e04be8a	0.1296331

block_1.conv1.bias f4 [16]
0	0x3e19748e	0.14985868
1	0x3db8bdae	0.090205535
2	0x3d93a6d6	0.07209556
3	0x3e53b50d	0.20674534
4	0x3e64d084	0.22345167
5	0x3e96a4de	0.2942266
6	0x3effd13c	0.4996432
7	0xbd72edc9	-0.0593088
8	0x3eb15077	0.34631702
9	0xbeb6f295	-0.3573195
10	0xbeedafb4	-0.46423113
11	0x3dfff1f1	0.124973185
12	0xbf06a9be	-0.52602756
13	0xbed5870a	-0.4170459
14	0xbef27766	-0.4735672
15	0xbda28118	-0.07934779

block_1.conv2.weight f4 [16, 16, 3, 3]
0	0xbc7b51bc	-0.015339311
1	0x3d16116a	0.0366377
2	0x3db86f90	0.09005654
3	0xbd9d6902	-0.07686044
4	0xbd8aecac	-0.06783423
5	0xbdc98e05	-0.09841541
6	0x3e11f07b	0.14251892
7	0x3dab1045	0.083527125
8	0xbd9f611b	-0.07782193
9	0xbcb5a49f	-0.022173224
10	0x3b905a95	0.0044053295
11	0xbcf7d70b	-0.030253908
12	0xbcfe31f9	-0.031029688
13	0x3d1c93bb	0.038226824
14	0x3ddc242d	0.107490875
15	0x3d4b934d	0.049701024
16	0xbdedad08	-0.11605269
17	0xbc1317f1	-0.008977876
18	0x3a13fe89	0.00056455337
19	0x3d3da4c0	0.046299696
20	0x3e52a6bd	0.20571418
21	0xbe0b3511	-0.13594462
22	0xbe340ffb	-0.17584221
23	0x3e131e48	0.1436702
24	0xbe0eb910	-0.13937783
25	0xbe7192cb	-0.23591153
26	0x3e2ecacb	0.17069547
27	0x3dc77b97	0.0974037
28	0x3e1d298f	0.15347885
29	0x3d3b1fe2	0.045684703
30	0xbdc4d3c2	-0.09610702
31	0xbe91c730	-0.2847228
32	0xbe09848f	-0.13429473
33	0x3dc258a3	0.09489562
34	0xbcef3d06	-0.029203903
35	0x3d7c645b	0.061619144
36	0x3d56b373	0.05241723
37	0xbd332b63	-0.04374255
38	0xbcf1a077	-0.02949546
39	0x3d9b8ac2	0.07594825
40	0xbd43b4cd	-0.047779847
41	0xbe3354ed	-0.17512865
42	0x3dddddf8	0.10833353
43	0x3e00343c	0.12519926
44	0xbe037459	-0.12837352
45	0x3d115b27	0.03548732
46	0xbd1c1e1c	-0.038114652
47	0xbc2f800c	-0.010711681
48	0x3da94526	0.08265142
49	0x3d063c67	0.032772448
50	0xbe7cf65c	-0.24703354
51	0x3dfe186a	0.12407
52	0x3dcc0f0c	0.099638075
53	0xbc65e972	-0.0140327085
54	0x3cdf0e5a	0.027228523
55	0xbd27c1b7	-0.040956225
56	0x3d42a44e	0.047519974
57	0x3dde319c	0.10849306
58	0x3d628838	0.05530569
59	0xbdc7de2b	-0.09759172
60	0xbcca17bc	-0.02466952
61	0x3e042371	0.12904145
62	0xbdf83a8e	-0.121205434
63	0x3d346f5e	0.04405152
64	0xbd983704	-0.074323684
65	0xbd7ee1c4	-0.062227026
66	0xbde9b123	-0.11410739
67	0xbe7957ec	-0.24349946
68	0x3be3d49c	0.0069528352
69	0xbda87bae	-0.08226715
70	0x3c652fdf	0.013988464
71	0x3da6212f	0.08111798
72	0xbd78a6b1	-0.060705844
73	0x3d5c91d7	0.05385002
74	0x3d3bf0ad	0.045883823
75	0x3dc14d03	0.09438517
76	0xbe353532	-0.17696074
77	0xbbc313d3	-0.005953291
78	0x3ddbee7f	0.10738849
79	0xbe127a33	-0.14304428
80	0x3dd235d3	0.102641724
81	0xbd397870	-0.045280874
82	0xbdb375bf	-0.08762693
83	0xbe08f406	-0.13374338
84	0x3d49c055	0.049255688
85	0xbc4cd8dd	-0.012502876
86	0xbdddaab0	-0.10823572
87	0xbd06f64e	-0.03294974
88	0x3df0718b	0.117404066
89	0x3c800eed	0.015632117
90	0xbd82a397	-0.063788585
91	0x3d7d2844	0.06180598
92	0xbcf1cedd	-0.029517585
93	0xbe4e8e61	-0.201715
94	0x3d905563	0.07047536
95	0xbe5094af	-0.20369218
96	0xbe889f3a	-0.2668398
97	0x3e583552	0.2111409
98	0xbe0434c7	-0.12910758
99	0x3bbc9049	0.005754505
100	0x3d1a0da3	0.03761066
101	0x3dbc5770	0.09196365
102	0xb897eec4	-7.244715e-05
103	0xbccaf2ad	-0.02477392
104	0x3dde1f98	0.1084587
105	0xbc68c7e0	-0.01420781
106	0xbe5ad5e5	-0.21370657
107	0x3de0db54	0.109793335
108	0x3d9660cf	0.073426835
109	0x3db79839	0.08964581
110	0x3d754703	0.059882175
111	0x3d23bc08	0.039974242
112	0x3e4f7e14	0.20262939
113	0x3d0aed56	0.033917747
114	0x3c42534d	0.011860681
115	0x3d8a43d3	0.06751218
116	0x3e998c46	0.29989833
117	0x3ce81a44	0.028332837
118	0x3dbaeb63	0.09126928
119	0xbd897c1f	-0.06713127
120	0xbd0094af	-0.031391796
121	0x3da4b417	0.08042162
122	0x3e40f858	0.18844736
123	0xbe1af6e4	-0.15133244
124	0xbd2ea471	-0.042637292
125	0xbdf8ddf8	-0.12151712
126	0xbcbb0bc8	-0.022832766
127	0xbd0f51da	-0.03499017
128	0xbdb3a309	-0.08771331
129	0xbba95465	-0.0051675313
130	0x3e08d564	0.13362652
131	0x3de4d479	0.111733384
132	0xbe9146d8	-0.28374362
133	0xbe93505a	-0.2877224
134	0xbda7edcb	-0.08199652
135	0x3da0af6f	0.07845961
136	0x3da71180	0.08157635
137	0xbd0c4432	-0.034244724
138	0x3a096590	0.0005241269
139	0x3d1388fc	0.03601931
140	0x3e2a2592	0.16615894
141	0xbdf56866	-0.11982803
142	0x3d15cef9	0.036574338
143	0xbd69195a	-0.056908943
144	0x3d007cca	0.031369008
145	0xbcda4959	-0.026646303
146	0xbd78d4e5	-0.060749907
147	0xbd4e8615	-0.05042084
148	0x3d8bc516	0.068247005
149	0x3d15dd99	0.036588285
150	0xbce42163	-0.027847951
151	0x3d827048	0.06369072
152	0x3d88ce00	0.066799164
153	0xbda729ab	-0.081622444
154	0x3d20315e	0.03910958
155	0xbc4a1e13	-0.012336272
156	0xbd1266b5	-0.03574248
157	0xbca3b38f	-0.019983081
158	0x3df0963e	0.117474064
159	0xbdae847e	-0.08521365
160	0xbd4be55a	-0.049779274
161	0x3e1d6136	0.15369114
162	0x3cfd7847	0.030941142
163	0xbd82cfe6	-0.0638731
164	0x3bf59f93	0.0074958294
165	0x3d516b32	0.05112762
166	0x3cdd037c	0.0269792
167	0x3d79894e	0.06092196
168	0x3da48272	0.08032693
169	0xba4708cb	-0.0007592558
170	0x3c448a9a	0.011995936
171	0xbd004fb1	-0.031326
172	0xbc97b17d	-0.01851725
173	0xbd40c192	-0.047059603
174	0x3c4409bc	0.0119652115
175	0x3b1f96f4	0.002435145
176	0xbdb4a944	-0.08821347
177	0x3d033806	0.03203585
178	0x3d5f4775	0.054511506
179	0x3c7bb0f6	0.015362015
180	0xbd2ae1f3	-0.04171939
181	0xbc847801	-0.016170504
182	0xbd0c9cb0	-0.034329116
183	0x3cc2f888	0.02380015
184	0x3e2e07f5	0.16995223
185	0x3d38e658	0.045141548
186	0xbd369e0e	-0.044584326
187	0x3b939606	0.004503968
188	0xbd84b710	-0.06480229
189	0xbcd79011	-0.026313813
190	0xbb75023d	-0.0037385367
191	0x3d891c47	0.066948466
192	0xbc7c8da4	-0.015414629
193	0x3db33e4e	0.08752118
194	0x3d97578a	0.073897436
195	0xbd570c38	-0.052501887
196	0x3cb00b8a	0.021489877
197	0x3d46740e	0.048450522
198	0xbd5669da	-0.05234704
199	0x3d8d76cc	0.06907424
200	0x3e11eab5	0.1424969
201	0x3d0470ba	0.032334067
202	0x3e34cd54	0.17656451
203	0xbd06d7b0	-0.03292054
204	0xbdaf1fd2	-0.08550991
205	0x3c36f939	0.011167818
206	0xbbae55d8	-0.005320292
207	0x3e697f0f	0.22802375
208	0xbda5a069	-0.080872364
209	0xbe5d2eff	-0.21599959
210	0x3cd60cb1	0.026129099
211	0xbe52af66	-0.20574722
212	0xbe4fc6a5	-0.2029062
213	0x3da80361	0.082037695
214	0x3cc19703	0.023631578
215	0xbcf13fd3	-0.02944938
216	0xbca601c9	-0.020264523
217	0x3dce0c4f	0.100609414
218	0x3ce5a476	0.028032523
219	0x3e03e251	0.12879302
220	0xbd0f0283	-0.034914505
221	0xbc9f91b3	-0.019478654
222	0xbaa3604d	-0.0012464613
223	0xbda8ce97	-0.08242529
224	0xbdab7f70	-0.08373916
225	0xbd5a4ebc	-0.053297743
226	0x3d9d6550	0.076853395
227	0x3d61ddc7	0.055143144
228	0x3cac3694	0.021022119
229	0xbd87871f	-0.06617569
230	0xbd277130	-0.04087943
231	0x3cfad243	0.030617839
232	0x3db1e8ea	0.08687003
233	0x3db780fd	0.089601494
234	0x3e811050	0.25207758
235	0xbda7b9f0	-0.08189762
236	0xbd9d82ed	-0.07690988
237	0xbde76a3d	-0.1129956
238	0xbe8190f7	-0.25305912
239	0xbd30dd38	-0.04317972
240	0xbe19d0fe	-0.1502113
241	0xbe11e5f0	-0.1424787
242	0x3d96cedc	0.07363674
243	0xbd7b21c7	-0.06131151
244	0xbd23c578	-0.039983243
245	0xbbd79a91	-0.006579705
246	0xbd0a7898	-0.033806413
247	0xbd8b6e93	-0.068082
248	0xbd48e5a4	-0.049047127
249	0xbd8c4792	-0.068495885
250	0xbb1ace13	-0.0023621365
251	0x3bc94c4c	0.0061431285
252	0x3de435d2	0.11143078
253	0xbd453e88	-0.048155338
254	0xbd80e978	-0.06294531
255	0x3b83f79e	0.004027321

block_1.conv2.bias f4 [16]
0	0xbc9a4ee4	-0.018836446
1	0xbca43b3e	-0.02004778
2	0x3ee2f590	0.44327974
3	0x3e54d266	0.20783386
4	0xbe0dbf0f	-0.13842414
5	0x3faf38d1	1.3689214
6	0xbeaa2826	-0.33233756
7	0x3d9d038d	0.07666693
8	0xbd43cd94	-0.047803476
9	0x3ee5034e	0.44729084
10	0x3f636327	0.8882317
11	0x3e6d61ac	0.2318179
12	0xbd2764b4	-0.040867522
13	0xbde2f836	-0.11082499
14	0xbd92a932	-0.07161178
15	0xbdf91865	-0.12162856

block_2.conv1.weight f4 [32, 16, 3, 3]
0	0x3c3b3fb5	0.011428763
1	0xbdd0032b	-0.10156854
2	0xbde65cd6	-0.11248176
3	0xbcd7ee0a	-0.026358623
4	0xbdde5cdb	-0.108575545
5	0x3deb58f7	0.11491578
6	0x3cfea6db	0.031085422
7	0xbd3f89d6	-0.04676231
8	0x3d11216c	0.035432264
9	0x3cccf4b6	0.025019031
10	0xbdb1dc58	-0.08684605
11	0xbd5d85af	-0.05408257
12	0x3d324b47	0.04352882
13	0xbd89adb9	-0.06722588
14	0xbdcb8707	-0.09937864
15	0x3daf6b14	0.085653454
16	0x3d8834f3	0.06650724
17	0xbdc480b8	-0.09594864
18	0xbcdcf253	-0.026971018
19	0x3df21781	0.11820889
20	0x3d599202	0.05311776
21	0xbdbf4167	-0.093386464
22	0xbd939f67	-0.07208138
23	0xbdea33a6	-0.114356324
24	0xbd799616	-0.06093415
25	0x3daef096	0.08541982
26	0xbd2fa55c	-0.04288231
27	0xbd807677	-0.062725954
28	0xbd8de026	-0.069275185
29	0xbdb71a63	-0.0894058
30	0xbd0c2aac	-0.034220383
31	0xbcd73c02	-0.026273731
32	0x3cfbe21f	0.030747471
33	0x3d870661	0.065930136
34	0xbccc8e80	-0.024970293
35	0x3dad2f1c	0.08456251
36	0x3d932261	0.07184292
37	0x3d3aa5c0	0.045568228
38	0x3d3a5bfd	0.045497883
39	0x3dd5da6b	0.104420505
40	0xbdc835ee	-0.09775911
41	0x3b35d9d5	0.0027748246
42	0x3a2b3ab1	0.0006531878
43	0xbdbd30c9	-0.09237821
44	0xbc4e777c	-0.0126017295
45	0xbb8e4c3d	-0.0043425844
46	0xbcb554aa	-0.022135098
47	0xbd9001e0	-0.07031608
48	0xbd0c1a3e	-0.034204714
49	0xba7897e2	-0.00094830815
50	0xbd1d142a	-0.038349308
51	0xbc9e52d0	-0.019326597
52	0x3c14ce22	0.009082349
53	0xbc374b5b	-0.0111874
54	0x3ce64746	0.028110158
55	0xb8e07ef7	-0.000107048014
56	0xbcc006bf	-0.023440717
57	0xbdbf2642	-0.09333469
58	0x3d411631	0.047140304
59	0xbe348192	-0.17627552
60	0xbca24993	-0.019810474
61	0xbce40627	-0.027834965
62	0xbd68fd8d	-0.05688243
63	0x3b87464d	0.0041282536
64	0xbd9f9b20	-0.077932596
65	0xbd82b486	-0.06382088
66	0xbc9bf06a	-0.019035537
67	0x3b1b2199	0.0023671149
68	0xbc8204cc	-0.015871428
69	0x3d16c125	0.03680529
70	0x3cb24ae8	0.021764234
71	0x3c5286b9	0.012849503
72	0xbe0c6ecd	-0.13714142
73	0x3d92c45e	0.0716636
74	0x3c288cc5	0.010287468
75	0xbd9a8814	-0.07545486
76	0x3d1225c9	0.035680566
77	0xbc8021f5	-0.015641192
78	0xbca7c084	-0.02047754
79	0x3d370c71	0.0446896
80	0x3d49506a	0.049148954
81	0xbd351e79	-0.044218514
82	0x37a23460	1.9336294e-05
83	0x3c8b73c3	0.017022973
84	0xbcc0bb2c	-0.02352675
85	0xbae8b908	-0.0017755339
86	0xbcb58f83	-0.022163158
87	0x3bb1097a	0.005402741
88	0x3cc96c47	0.024587763
89	0xbc25329f	-0.01008287
90	0x3c5bd72f	0.013418003
91	0x3ddf13ee	0.10892473
92	0x3e47da98	0.1951698
93	0x3b13292c	0.002245496
94	0x3cf9445d	0.030428106
95	0x3de6a5a0	0.11262059
96	0xbdd6c095	-0.10485951
97	0xbdd5754b	-0.104227625
98	0x3e134eee	0.14385578
99	0xbd3cb62d	-0.046072174
100	0x3cb8d5ac	0.022562824
101	0x3cad14ba	0.021128047
102	0xbd04270a	-0.032263793
103	0x3d1c5630	0.038168132
104	0x3dac23c5	0.0840526
105	0xbcc129ec	-0.02357956
106	0xbc677501	-0.014127017
107	0x3d751bce	0.05984097
108	0xbcdb48b1	-0.02676806
109	0x3d8fd05a	0.07022162
110	0x3bc17877	0.005904253
111	0x3cf40957	0.02978961
112	0x3ddd28ff	0.10798835
113	0x3dd3a29c	0.1033375
114	0x3b9e2a40	0.004826814
115	0xbca5a2af	-0.020219175
116	0x3e005a58	0.12534463
117	0x3c99ee94	0.01879052
118	0x3d4d4248	0.05011204
119	0xbc9cd5ff	-0.01914501
120	0x3d3875c5	0.04503419
121	0x3d8e204a	0.069397524
122	0x3d4bfc78	0.04980132
123	0xbd080512	-0.03320796
124	0xbd15004e	-0.036377244
125	0xbdf9f2ed	-0.122045375
126	0x3cb92448	0.022600308
127	0xbcd4bb75	-0.025968293
128	0xbd1e1fd4	-0.038604572
129	0x3d9956e2	0.07487275
130	0x3ddcf72a	0.1078933
131	0xbcdf3d9d	-0.02725106
132	0x3cc619f9	0.024182307
133	0xbd4a5dea	-0.04940597
134	0xbe3d2a7c	-0.18473238
135	0x3d37c6d0	0.044867337
136	0xbc867f47	-0.016418112
137	0xbcdf0b91	-0.027227195
138	0x3c7bcd78	0.015368812
139	0xbb44d9d5	-0.0030037065
140	0x3c36fcdc	0.011168685
141	0x3d435c3e	0.04769539
142	0x3c8da47d	0.017290348
143	0x3d9ac626	0.07557325
144	0xbda61b39	-0.08110661
145	0x3d23388a	0.03984884
146	0x3c0601ec	0.008179169
147	0xbdadefc5	-0.08492998
148	0xbc486fc3	-0.012233677
149	0x3ab314a5	0.0013662769
150	0xbde04e6d	-0.109524585
151	0xbde5b4f6	-0.11216156
152	0xbd6eaf00	-0.05827236
153	0x3d436e49	0.047712598
154	0xbc24cc37	-0.010058454
155	0xbdde31d1	-0.108493455
156	0xbd706d57	-0.058698025
157	0xbd41896f	-0.047250208
158	0xbd7a02ac	-0.061037704
159	0x3d11540f	0.035480555
160	0x3d301d67	0.04299679
161	0x3be99fed	0.0071296603
162	0xbd55b143	-0.052171003
163	0xbc1b2e4b	-0.009471486
164	0xbd82ce98	-0.06387061
165	0x3cc4e01b	0.024032643
166	0x3c936e4c	0.01799693
167	0x3d18e722	0.0373298
168	0xbd107080	-0.03526354
169	0xbd1fdc78	-0.039028615
170	0xbd991c5d	-0.07476113
171	0x3d8fb1ff	0.07016372
172	0xbbee69ba	-0.007275787
173	0x3bb644eb	0.005562415
174	0xbb46381a	-0.0030245841
175	0xbca5a316	-0.020219367
176	0x3c8be5b0	0.017077297
177	0xbc92d780	-0.017925024
178	0xbc17c4cc	-0.009263229
179	0x3b813a44	0.0039437134
180	0xbab5d5bd	-0.0013872903
181	0xbdc840a4	-0.09777954
182	0xbd8c8bb0	-0.06862581
183	0xbd1e0d0d	-0.038586665
184	0xbd315a6d	-0.043299127
185	0xbd8aef61	-0.06783939
186	0xbdd6a973	-0.104815386
187	0xbd986303	-0.0744076
188	0xbe0ae30f	-0.13563178
189	0xbe1b83a7	-0.1518694
190	0x3d173a2b	0.036920708
191	0xbdd5f9c6	-0.10448031
192	0xbd897b1e	-0.06712936
193	0x3e0a1541	0.1348467
194	0xbc8d713b	-0.017265907
195	0x3c9d4260	0.01919669
196	0x3eaf598e	0.34248012
197	0x3db25319	0.08707256
198	0x3d810fc9	0.06301839
199	0xbcbe2e83	-0.023215538
200	0xbd22a40a	-0.03970722
201	0x3d1fd540	0.03902173
202	0xbd51a1da	-0.051179744
203	0xbc741e5f	-0.014899819
204	0x3dab3880	0.08360386
205	0xbdfc8e8d	-0.12331877
206	0xbde76684	-0.1129885
207	0xbc39aac0	-0.011332214
208	0xbafacce4	-0.0019134548
209	0xbc7dc3f2	-0.0154886115
210	0x3cd82c72	0.02638838
211	0x3dae8fb2	0.085235015
212	0x3d99f365	0.07517127
213	0x3cbe2331	0.02321014
214	0x3d798ed5	0.06092723
215	0x3db69e25	0.089168824
216	0x3c323056	0.010875782
217	0x3cb65507	0.022257341
218	0xbd560d3e	-0.052258722
219	0x3d24c1df	0.040223952
220	0x3cfa6892	0.030567441
221	0xbd096091	-0.03353936
222	0x3c9e0851	0.019291075
223	0xbb4879c8	-0.0030590165
224	0xbc35a722	-0.011087211
225	0xbdb2b527	-0.08725958
226	0xbd550660	-0.052008033
227	0xbd253a09	-0.04033855
228	0xbcbdd549	-0.023172991
229	0x3d3a62bb	0.045504313
230	0xbb3de92e	-0.0028978097
231	0x3b2bf476	0.002623824
232	0x3e2dbc64	0.16966397
233	0x3d98fe62	0.07470395
234	0x3d3491d4	0.044084385
235	0x3de2a676	0.11066906
236	0x3da30aac	0.0796102
237	0xbcb8d188	-0.02256085
238	0x3dab3d95	0.08361355
239	0x3d0736c6	0.03301122
240	0xbd3105be	-0.043218367
241	0x3d57a1a5	0.05264439
242	0xbd2d0152	-0.042237587
243	0xbdb6b574	-0.08921328
244	0xbc089587	-0.008336431
245	0xbc35e9f9	-0.011103147
246	0xbc51f2c2	-0.012814226
247	0x3cff112e	0.031136122
248	0x3c98532e	0.01859435
249	0xbb8bd821	-0.004267708
250	0x3e2ea76c	0.17056054
251	0x3d410e09	0.047132526
252	0xbd702d60	-0.058637023
253	0x3c0db819	0.008649849
254	0x3daa22c0	0.08307409
255	0xbb839794	-0.0040158723

block_2.conv1.bias f4 [32]
0	0xbdd1fd68	-0.102534115
1	0x3f8ec3c7	1.1153497
2	0xba8f3548	-0.0010925913
3	0x3e959833	0.2921768
4	0x3ddfdf38	0.109312475
5	0x3e054a3e	0.13016602
6	0x3d89c0c5	0.06726221
7	0xbe51a99e	-0.2047486
8	0x3e6f34d9	0.23360004
9	0x3d1a6039	0.03768942
10	0x3e5ab1ad	0.2135684
11	0x3ca151c1	0.019692304
12	0x3d4a5e4b	0.04940633
13	0x3c318f91	0.010837452
14	0x3f4b4d10	0.79414463
15	0x3cf855ed	0.03031441
16	0xbcd3a1d3	-0.025834
17	0x3dccba49	0.099964686
18	0xbccea778	-0.02522634
19	0x3d91b782	0.071150795
20	0xbdaa3197	-0.0831024
21	0x3bd2570a	0.0064190673
22	0x3e669c32	0.22520521
23	0x3ee6028e	0.44923824
24	0x3b38b206	0.0028182282
25	0x3da9f959	0.082995124
26	0x3e1e5afd	0.15464397
27	0x3b0d0191	0.0021515826
28	0x3d828937	0.06373828
29	0x3d9aabbd	0.07552288
30	0x3e3e4162	0.18579629
31	0x3dfb008f	0.12255966

block_2.conv2.weight f4 [32, 32, 3, 3]
0	0xbd8e7f9d	-0.06957934
1	0xbd4883b3	-0.048953723
2	0xbd9eaf8b	-0.07748326
3	0x3d6fd3b2	0.058551498
4	0xbcba49f5	-0.022740344
5	0xbd3b8cd9	-0.04578862
6	0x3d9c4dd9	0.07632036
7	0x3d62adb9	0.055341456
8	0x3c174996	0.009233853
9	0x3d873d26	0.0660346
10	0x3d37f773	0.04491372
11	0xbb51f527	-0.0032036991
12	0xbbfb8a44	-0.0076763947
13	0x3c8709f4	0.016484238
14	0xbc6765ea	-0.014123419
15	0x3cfff8a3	0.031246489
16	0x3cd719f9	0.026257502
17	0xbd89b496	-0.06723897
18	0xbcde6900	-0.027149677
19	0xbc75ed5f	-0.015010207
20	0xbcebbe76	-0.028777342
21	0xbd0e8730	-0.034796894
22	0xbcdefad3	-0.027219212
23	0xbd00fedc	-0.031493053
24	0xbd3ace45	-0.04560687
25	0xbcd9bb41	-0.026578547
26	0xbccc3cf3	-0.024931407
27	0xbd85d3d4	-0.06534544
28	0x3cc596a4	0.024119683
29	0x3d36286a	0.044472136
30	0xbc954a03	-0.018223768
31	0xbccafd97	-0.024779124
32	0x3d24bb5a	0.040217735
33	0x3d4fee32	0.05076427
34	0xbd6efada	-0.0583447
35	0xbd1d53c3	-0.03840996
36	0x395d06c9	0.0002107873
37	0xbd0c25c3	-0.0342157
38	0xbcad45a8	-0.021151379
39	0xbc21c842	-0.009874405
40	0xbd07743c	-0.033069834
41	0xbd736ec0	-0.05943179
42	0x3bf00e7f	0.007325947
43	0xbd4a9e08	-0.049467117
44	0xbd45f826	-0.048332356
45	0xbd993bfe	-0.07482146
46	0x3bf4912a	0.007463594
47	0xbdaeafe9	-0.08529646
48	0xbd79c993	-0.06098325
49	0xbd82f681	-0.06394673
50	0xbd293944	-0.04131438
51	0xbd33271a	-0.043738462
52	0xbd96235f	-0.07330965
53	0xbcc65257	-0.024209185
54	0xbd52c806	-0.05146029
55	0xbd29449a	-0.04132519
56	0xbd1f51bb	-0.038896304
57	0x3d163632	0.03667278
58	0xbd9e453f	-0.077280514
59	0xbcc419ca	-0.023938078
60	0x3d0f1b16	0.03493794
61	0x3c4ab495	0.012372156
62	0xbbdb37d0	-0.006690003
63	0x3ce98ff3	0.028511023
64	0xbc19a875	-0.009378542
65	0xbcba0d7c	-0.022711508
66	0xbc9e8d92	-0.019354615
67	0x3a583670	0.0008247858
68	0x3bba6ba3	0.005689101
69	0xbd776a28	-0.060403973
70	0xbc311527	-0.010808266
71	0x3cd5299c	0.026020817
72	0xbdcd4793	-0.10023417
73	0x3cdccbdc	0.026952676
74	0x3e246e1c	0.16057628
75	0xbe038e08	-0.1284715
76	0xbd9162ca	-0.07098921
77	0x3db6a6db	0.08918544
78	0xbdab0e5c	-0.08352348
79	0xbd9b2143	-0.075747035
80	0xbd0cfb6b	-0.03441946
81	0xbc383672	-0.0112434495
82	0xbc771716	-0.015081188
83	0xbc828907	-0.01593448
84	0xbc764f93	-0.01503362
85	0xbca3f4fd	-0.02001428
86	0xbc9fe059	-0.019516157
87	0xbc5d4550	-0.013505295
88	0xbc62ccfe	-0.013842819
89	0xbc6d15cf	-0.014470532
90	0x3c8eae64	0.01741714
91	0xbc9e70d8	-0.019340917
92	0x3b2507e1	0.0025181698
93	0x3d4d7f92	0.05017049
94	0xbdcba1ef	-0.09942996
95	0xbdd2fdd8	-0.10302323
96	0x3bb480c8	0.005508516
97	0xbc7b50e1	-0.015339107
98	0xbd931b8c	-0.071829885
99	0x3ccdd878	0.025127634
100	0x3db9aa28	0.09065658
101	0x3ca8ccd0	0.020605475
102	0xbd65a4fa	-0.056065537
103	0x3dc1b787	0.09458833
104	0x3d967eaf	0.07348382
105	0xbdb0010f	-0.08593952
106	0xbd76e7d4	-0.060279682
107	0x3d6b3421	0.05742276
108	0x3d41a2d9	0.047274444
109	0xbc98af73	-0.018638348
110	0x3cd1f17b	0.025627842
111	0x3d197524	0.03746523
112	0xbd32c741	-0.043647055
113	0xbbd1b1d2	-0.0063993717
114	0xbd4b041d	-0.04956447
115	0x3ae16ed7	0.001719917
116	0xbd8eda5f	-0.06975245
117	0xbd3251c5	-0.043535013
118	0x3d667122	0.056260236
119	0xbd72b966	-0.05925884
120	0xbd0e4516	-0.034733854
121	0x3c7cef2d	0.015437883
122	0x3d460735	0.048346717
123	0xbdc5eda3	-0.09664466
124	0xbd098a2f	-0.033579048
125	0x3dd37a7d	0.10326097
126	0xbd10dde2	-0.035367854
127	0xbd4a0c99	-0.04932842
128	0x3ca831f4	0.020531632
129	0x3da2f2e2	0.079564825
130	0xbdabbc79	-0.08385558
131	0xbd199fa6	-0.03750577
132	0x3dbdd785	0.09269623
133	0x3d10f152	0.03538639
134	0xbd95ad65	-0.07308463
135	0xbda734a1	-0.08164335
136	0x3cec8b06	0.028874885
137	0x3d230232	0.039797015
138	0xbddcbc2c	-0.107780784
139	0x3c10ff39	0.008849912
140	0x3d2a2700	0.0415411
141	0xbd1e4467	-0.038639452
142	0xbe1523b5	-0.14564402
143	0xbc86c286	-0.016450178
144	0xbc982583	-0.018572574
145	0xbcbc9a68	-0.023022845
146	0xbccf8069	-0.025329785
147	0xbcdd7de2	-0.027037565
148	0xbcc12bd8	-0.023580477
149	0xbcfd844e	-0.030946877
150	0xbd0772ad	-0.033068348
151	0xbcc03215	-0.023461381
152	0xbcab966f	-0.020945756
153	0xbd9825d4	-0.0742909
154	0xbd6fe768	-0.058570296
155	0xbb50b967	-0.003184879
156	0x3da8ac7f	0.08236026
157	0xbe074654	-0.13210422
158	0xbbbcbcd7	-0.005759816
159	0x3d823974	0.063586146
160	0x3d326a2c	0.043558285
161	0xbdf4af99	-0.11947555
162	0xbdfe6b87	-0.12422853
163	0xbd9bf551	-0.0761515
164	0xbd542177	-0.051789727
165	0xbd75ffcc	-0.0600584
166	0x3d215a6b	0.03939287
167	0xbd52d0df	-0.051468726
168	0xbda2d453	-0.07950654
169	0xbccf3ac9	-0.025296586
170	0xbd811be9	-0.063041516
171	0xbc201c0f	-0.009772315
172	0xbd48f805	-0.049064655
173	0xbd37a5d7	-0.04483589
174	0xbd27b319	-0.040942285
175	0xbdb42bd7	-0.08797424
176	0xbcfd2dcc	-0.030905627
177	0xbdbc780a	-0.09202583
178	0xbddd2370	-0.10797775
179	0xbd895f70	-0.067076564
180	0x3ccfd6f1	0.025371047
181	0x3d47d005	0.048782367
182	0xbd70f891	-0.0588308
183	0xbd877699	-0.066144176
184	0x3e00fc52	0.12596253
185	0x3c305f72	0.010764943
186	0xbe02acf9	-0.12761296
187	0xbce4ca16	-0.027928393
188	0x3d226518	0.03964719
189	0xbabdbb2a	-0.0014475335
190	0xbd730bbe	-0.05933737
191	0xbca906d4	-0.020633139
192	0x3ccf1502	0.025278572
193	0xbdb76318	-0.089544475
194	0xbdbfe5d9	-0.09370012
195	0xbc28abdf	-0.0102948835
196	0xbd63ea34	-0.055643275
197	0xbdfac3b3	-0.12244358
198	0xbd6ccaa5	-0.057810444
199	0xbdab3bc5	-0.083610095
200	0xbd0296c2	-0.031882055
201	0x3c8e9714	0.017406024
202	0x3c362b0d	0.011118663
203	0xbd53dec8	-0.051726133
204	0x3c8ba79d	0.017047698
205	0x3d8453d9	0.06461305
206	0x3c8c59eb	0.01713272
207	0xbd737944	-0.05944182
208	0xbd8f74ba	-0.07004686
209	0x3d14374d	0.03618555
210	0x39e1c1dd	0.00043059784
211	0xbc06c7fd	-0.008226392
212	0xbcc7cbbf	-0.024389146
213	0xbd4ac101	-0.04950047
214	0x3b5ce443	0.003370539
215	0xbcf6be14	-0.030119933
216	0xbde9ed79	-0.114222474
217	0xbd121ca9	-0.035671864
218	0x3b9dc549	0.004814778
219	0x3b80487f	0.003914892
220	0xbba9d626	-0.005182999
221	0x3de2bf6e	0.110716686
222	0x3d7afd69	0.061276827
223	0xbd011894	-0.03151758
224	0x3de202ca	0.11035688
225	0xbe092676	-0.13393578
226	0x3adf2901	0.001702577
227	0x3d73ffa0	0.059569955
228	0x3d86fb4a	0.06590898
229	0xbdeb1369	-0.114783116
230	0x3df27745	0.11839155
231	0x3db43f3e	0.08801125
232	0x3aee71b0	0.001819184
233	0xbd7f8d66	-0.062390707
234	0xbdf08b1e	-0.117452845
235	0xbd670535	-0.05640145
236	0x3dc087fb	0.09400936
237	0xbd89ac23	-0.067222856
238	0xbcfe76ab	-0.031062445
239	0x3d0e2c09	0.034709964
240	0xbcc6128a	-0.024178762
241	0xbb419878	-0.0029540341
242	0x3bcf673d	0.0063294456
243	0xbce47710	-0.027888805
244	0xbc3956d5	-0.011312206
245	0x3a51784b	0.00079906423
246	0xbb76cc74	-0.0037658485
247	0xbcd2e2c5	-0.025742898
248	0xbce806d3	-0.028323567
249	0xbbbcef83	-0.0057658567
250	0xbc5fc5ba	-0.0136579815
251	0xbd095e74	-0.033537343
252	0xbd933d78	-0.071894586
253	0xbd20d337	-0.03926393
254	0x3db06334	0.086126715
255	0x3d62018d	0.05517726

block_2.conv2.bias f4 [32]
0	0x3c8a5aa8	0.016888931
1	0xbe3189c1	-0.17337705
2	0xbceb980d	-0.028759027
3	0x3cda637b	0.026658764
4	0x3eed3a25	0.46333423
5	0xbd8b4379	-0.06799979
6	0xbe0b56b6	-0.13607296
7	0xbe06fa78	-0.13181484
8	0xbde7d7e8	-0.11320478
9	0x3bd2251c	0.006413115
10	0x3e16abf7	0.14714037
11	0x3cb7f856	0.022457283
12	0x3d4ba668	0.049719244
13	0x3dd1fe0d	0.102535345
14	0xbdb52ba0	-0.088462114
15	0x3e265030	0.16241527
16	0xbe79a12c	-0.24377888
17	0x3b399dd9	0.0028322844
18	0x3d28b7a7	0.04119077
19	0xbe002033	-0.12512283
20	0x3b3586c6	0.002769874
21	0xbe968b09	-0.2940295
22	0xbd44d6be	-0.048056357
23	0xbe40a527	-0.18813
24	0x3c68feb1	0.014220879
25	0xbf0bbb53	-0.5458271
26	0xbd9181d9	-0.071048446
27	0xbdef0e12	-0.116726056
28	0xbddbfc21	-0.10741449
29	0x3aad63b8	0.0013228571
30	0x3deee2b6	0.116643354
31	0xb945621f	-0.00018823937

dblock_3.denselayer1.conv1.weight f4 [48, 32, 3, 3]
0	0x3d9dde71	0.07708443
1	0x3da88b33	0.08229675
2	0x3d6370a5	0.055527348
3	0x3c58eea2	0.013240488
4	0x3d103f8e	0.03521686
5	0x3dec6f54	0.11544672
6	0x3d6fcd7f	0.058545586
7	0x3d7f0460	0.06226003
8	0x3d818b54	0.06325403
9	0x3d11c936	0.03559228
10	0x3d299dbc	0.041410193
11	0x3c36ea01	0.011164189
12	0x3d0694bc	0.032856688
13	0xbce89b0f	-0.02839425
14	0x3ccb45f7	0.024813635
15	0x3ce07e50	0.02740398
16	0x3d23c57d	0.03998326
17	0x3d4b503f	0.049637076
18	0x3c80a908	0.0157056
19	0xbd553fb5	-0.05206271
20	0xbcaee16d	-0.021347726
21	0xbd4d09a5	-0.050058026
22	0xbd4f3292	-0.050585337
23	0xbcdf5c55	-0.027265707
24	0x3d2281fe	0.03967475
25	0xbd4604ab	-0.048344295
26	0x3c7b2ef4	0.015331019
27	0xbb591180	-0.0033122003
28	0xbcf0e082	-0.029403929
29	0xbcb4bdfc	-0.022063248
30	0x3add9fda	0.0016908601
31	0x3c2f9ee7	0.010719038
32	0xbb399886	-0.002831967
33	0xbc076228	-0.008263148
34	0xbc92248f	-0.017839698
35	0xbc4e665d	-0.0125976475
36	0xbd2761cd	-0.040864754
37	0xbc4da944	-0.012552563
38	0x3d1fac14	0.038982466
39	0x3c37e3d9	0.011223757
40	0xbc7bd872	-0.015371429
41	0x3d709b84	0.05874206
42	0xbd2c3d50	-0.04205066
43	0xbd0de115	-0.034638483
44	0xbc41e1c6	-0.011833614
45	0x3d4452aa	0.047930397
46	0x3d2cad18	0.042157263
47	0x3de75a3a	0.11296506
48	0xbcf6f0c1	-0.030144097
49	0x3d473dcf	0.04864293
50	0x3d8c612e	0.06854473
51	0x3cf49bab	0.029859385
52	0xbd336e59	-0.043806408
53	0x3da7b923	0.08189609
54	0xbcac120a	-0.021004695
55	0xbd303d13	-0.043026995
56	0xbd7206ef	-0.059088644
57	0xbdd6c73d	-0.104872204
58	0xbc259e6c	-0.0101085715
59	0x39b7b0c6	0.00035036186
60	0xbda4856b	-0.0803326
61	0xbdc438c4	-0.0958114
62	0xbe08041f	-0.13282822
63	0xbc13d6b9	-0.009023362
64	0xbc2cc33e	-0.010544596
65	0xbc3cff0e	-0.011535419
66	0xbcc3e8d6	-0.023914736
67	0xbc1e8914	-0.009676237
68	0x3ceddb36	0.029035192
69	0xbae07148	-0.0017123604
70	0x3cb8e9b5	0.022572378
71	0xbcfe4ac8	-0.031041518
72	0xbbe4115d	-0.0069600777
73	0xbd37373e	-0.044730417
74	0xbc61a32c	-0.013771813
75	0xbd79aa8f	-0.060953673
76	0x3decfad4	0.11571279
77	0x3c27ddb5	0.01024573
78	0x3ba1fdd9	0.004943591
79	0xbd7e11ed	-0.062028814
80	0x3cb02581	0.021502258
81	0x3c537638	0.0129066035
82	0x3d439cd3	0.04775698
83	0xbcc2120b	-0.023690244
84	0x3cc7fda8	0.024412945
85	0xbd7703f9	-0.060306523
86	0x3d3dbe91	0.046324316
87	0x3d869c68	0.06572801
88	0xbd0d1c54	-0.034450844
89	0x3ce2779f	0.02764493
90	0xbd814303	-0.063116096
91	0xbd183852	-0.037163086
92	0xbd8a0066	-0.06738357
93	0xbda09852	-0.07841553
94	0x3c388d47	0.011264152
95	0x3d561f79	0.05227611
96	0xbd88db1c	-0.06682417
97	0xbd8f61f9	-0.07001109
98	0xbd932935	-0.07185594
99	0xbe13fa88	-0.14451039
100	0xbe016ae8	-0.12638438
101	0xbdc4c4a9	-0.096078224
102	0xbdb12c01	-0.08650971
103	0xbd861b11	-0.06548131
104	0xbde1a863	-0.11018445
105	0xbd93fdf4	-0.07226172
106	0xbe445cd6	-0.19176039
107	0xbdc820c2	-0.09771873
108	0x3d095db6	0.033536635
109	0xbbb35d31	-0.0054737558
110	0x3d87e443	0.06635334
111	0xbd50358c	-0.050832316
112	0x3db24f0f	0.087064855
113	0xbc2e5131	-0.010639475
114	0x3c3871f8	0.011257641
115	0x3d01dd0a	0.03170494
116	0x39d5499a	0.00040681363
117	0x3d3f3c7f	0.046688553
118	0xbc93f54e	-0.018061306
119	0x3dc7c2cd	0.09753952
120	0x3dda3e9b	0.10656472
121	0xbccd38df	-0.025051532
122	0x3c9cd580	0.019144773
123	0xbc96875f	-0.018375097
124	0x3d935fd5	0.07196013
125	0x3d258033	0.040405463
126	0x3d58090c	0.052743003
127	0x3cd17f0b	0.025573274
128	0x3d62547c	0.05525635
129	0x3c5a4a45	0.013323371
130	0x3b57396e	0.0032840627
131	0xbd225859	-0.039635036
132	0x3b80bb64	0.0039285887
133	0x3b514288	0.0031930525
134	0x3d9f485c	0.07777473
135	0x3aa02a93	0.0012219719
136	0x3d260d30	0.04053992
137	0xbb298a56	-0.0025869808
138	0x3d0d14e9	0.03444377
139	0xbd930878	-0.0717935
140	0x3d855c60	0.0651176
141	0x3cdce736	0.026965719
142	0x3cc578dc	0.024105482
143	0x3c2eef53	0.0106771765
144	0x3d01d763	0.03169955
145	0x3d5c5676	0.053793393
146	0x3d74e2d3	0.05978663
147	0x3d510139	0.051026557
148	0xbd0f2a98	-0.03495273
149	0x3da3ce73	0.079983614
150	0x3d96b949	0.07359559
151	0x3d98213b	0.07428213
152	0x3cd05e4d	0.025435591
153	0x3d3bce91	0.045851294
154	0x3d2a49ac	0.041574165
155	0x3cc17cbc	0.023619048
156	0xbd81eb0a	-0.06343658
157	0x3d7efce0	0.06225288
158	0xbd0639fe	-0.03277015
159	0xbdaa7967	-0.08323937
160	0xbcc14e1a	-0.023596812
161	0x3c3dd009	0.011585244
162	0x3cc11f1c	0.023574404
163	0x3a7017dd	0.00091588293
164	0xbc9b7a9f	-0.018979369
165	0x3ba92cda	0.0051628174
166	0xbe2260f6	-0.158573
167	0xbc8a7f6a	-0.016906459
168	0xbc123f78	-0.008926265
169	0x3da402ee	0.08008371
170	0xbd610843	-0.05493952
171	0xbd9a1bc3	-0.075248264
172	0xbd3daeea	-0.04630939
173	0xbd957dc5	-0.07299379
174	0xbd89bc19	-0.0672533
175	0xbd59886f	-0.05310863
176	0xbd4f40a1	-0.050598744
177	0xbd2b921b	-0.041887384
178	0xbd8190bc	-0.06326434
179	0xbe04f13f	-0.12982653
180	0xbd62fe1e	-0.055418126
181	0xbd217d0d	-0.0394259
182	0xbbc3f3d3	-0.005979994
183	0xbd27c6e6	-0.04096117
184	0xbd2594a9	-0.040424976
185	0x3d63b5e6	0.055593394
186	0xbd21632d	-0.039401222
187	0xbd2c96bc	-0.04213594
188	0xbd4b9408	-0.04970172
189	0xb87c229d	-6.0113718e-05
190	0x3bbd6b54	0.005780617
191	0x3d888c0a	0.06667335
192	0x3c005071	0.007831679
193	0x3e1552ad	0.1458232
194	0x3d8a50d3	0.06753697
195	0x3d36c603	0.044622432
196	0xbd95ea0b	-0.07320031
197	0x3d91dfc7	0.0712276
198	0x3b571433	0.0032818436
199	0x3d52ca1b	0.051462274
200	0x3ce86ee4	0.02837319
201	0x3d44eaad	0.048075367
202	0xbd8718c1	-0.06596518
203	0xbb203bf1	-0.002444979
204	0xba44bb77	-0.0007504741
205	0xbc98ec74	-0.018667437
206	0x3d0b1d33	0.033963393
207	0x3c3ecd6b	0.011645655
208	0xbd1e5d35	-0.038663108
209	0xbd59be3a	-0.05315993
210	0xbcf40252	-0.029786263
211	0x3c34ed34	0.011042882
212	0x3cdf398f	0.027249126
213	0x3bbcc7bd	0.0057611153
214	0xbad43705	-0.0016190714
215	0xbc9b94ba	-0.018991817
216	0xbca46c31	-0.020071121
217	0xbd0400f8	-0.032227486
218	0x3bce2fd7	0.006292324
219	0xbdcecafe	-0.100973114
220	0x3d954743	0.07288983
221	0x3c948075	0.01812766
222	0xbd35842c	-0.044315502
223	0xbcad2c0e	-0.021139171
224	0xbc651c41	-0.013983787
225	0x3c8a114d	0.016853953
226	0xb8c0b390	-9.1887196e-05
227	0xbc9e57c9	-0.019328969
228	0x3bc931e0	0.0061399788
229	0xbb8bc663	-0.004265593
230	0xbd1bc78c	-0.0380321
231	0xbbd5926c	-0.006517699
232	0x3cdf101b	0.02722936
233	0x3b972b27	0.0046132985
234	0x3b5e6b0d	0.003393832
235	0x3d426b94	0.047465876
236	0x3d2a3166	0.041551016
237	0x3d0503f3	0.03247447
238	0x3daaa84b	0.083328806
239	0x3daf2229	0.085514374
240	0x3d3632f5	0.04448219
241	0x3c00b99e	0.007856755
242	0x3cb86fce	0.02251425
243	0xbd850f6c	-0.06497082
244	0xbc303b4b	-0.010756324
245	0x3c7931cc	0.015209626
246	0x3dbebe41	0.09313632
247	0xbbb24c1d	-0.0054412023
248	0xbdd1b403	-0.10239413
249	0xbba77453	-0.0051103025
250	0xbc8deb41	-0.017324092
251	0x3dc20922	0.09474398
252	0x3da1e089	0.07904155
253	0x3d80b6f7	0.06284898
254	0x3d1cdaa3	0.038294446
255	0xbd632500	-0.055455208

dblock_3.denselayer1.conv1.bias f4 [48]
0	0x3c7edaee	0.015555127
1	0x3d641721	0.05568612
2	0xbd2ad3d3	-0.041705918
3	0xbc103623	-0.00880197
4	0x3b1188a0	0.002220668
5	0x3ca1d29a	0.019753743
6	0x3ddc607b	0.1076059
7	0x3d65203a	0.055938937
8	0xbcd277e0	-0.025691926
9	0x3c5edc4b	0.013602327
10	0xbd943951	-0.07237495
11	0xbd12aa0c	-0.0358067
12	0x3e3f794b	0.18698613
13	0x3dacebe4	0.0844343
14	0xbcd8a36f	-0.026445119
15	0xbd1b13f7	-0.037860837
16	0xbcd279e0	-0.02569288
17	0xbcd273e9	-0.025690036
18	0xbcda6079	-0.02665733
19	0xbd554b0c	-0.052073523
20	0xbcd2783e	-0.025692102
21	0x3cf21883	0.029552704
22	0x39eb4938	0.00044877245
23	0xbd10123b	-0.035173636
24	0x3d07d667	0.033163454
25	0x3d963fc6	0.073363826
26	0xbcecb2fc	-0.02889394
27	0xbd0c4ef7	-0.034254994
28	0x3d3aec47	0.045635488
29	0xbcd26736	-0.02568398
30	0x3cb757b1	0.022380682
31	0xbae244ea	-0.001726297
32	0xbcd2a28c	-0.025712274
33	0xbce4e1e0	-0.027939737
34	0xbcd279b2	-0.025692794
35	0xbcd2741e	-0.025690135
36	0xbcfaabcc	-0.030599497
37	0x3e009538	0.12556922
38	0x3d33fbe4	0.043941393
39	0xbc2a1250	-0.010380343
40	0x3ca0da8b	0.01963546
41	0x3d91ea49	0.071247645
42	0x3d673b46	0.056453012
43	0x3cfc7afd	0.030820364
44	0x3d9653f3	0.07340231
45	0xbcac4a05	-0.021031389
46	0xbc796070	-0.015220746
47	0xbcd2761c	-0.025691085

dblock_3.denselayer1.conv2.weight f4 [48, 48, 3, 3]
0	0x3be2a91d	0.0069171325
1	0xbd719dd1	-0.058988396
2	0xbd1efd7d	-0.038815964
3	0xbd6b7c9f	-0.057491895
4	0xbc20086f	-0.009767636
5	0xbb5d2212	-0.0033742231
6	0xbd556dc1	-0.052106623
7	0x3c138d74	0.009005893
8	0xbd361a30	-0.044458568
9	0x3b02c6c6	0.0019954904
10	0x3d0a0548	0.033696443
11	0xbc733683	-0.01484454
12	0x3d268c54	0.04066117
13	0x3bdd0287	0.006744686
14	0xbd02bb67	-0.031917002
15	0xbcfa21fc	-0.030533783
16	0xbcbfce4f	-0.023413805
17	0x3d589b61	0.052882556
18	0x3bc60c34	0.006043935
19	0x3ca17d6d	0.019713128
20	0xbd5f0230	-0.054445446
21	0xbd668aed	-0.056284834
22	0x3d360ff6	0.044448815
23	0xbccb0028	-0.024780348
24	0xbbac4aad	-0.0052579255
25	0xbd678fac	-0.0565335
26	0x3d836a02	0.06416704
27	0x3d648c73	0.055798005
28	0xbc2f9576	-0.010716787
29	0x3a9288e6	0.0011179715
30	0x3ca7ea52	0.020497475
31	0x3d192983	0.037393104
32	0x3c837a71	0.016049596
33	0xbb92d01e	-0.004480376
34	0x3d72487a	0.05915115
35	0xbca2ffbc	-0.019897334
36	0xbbd4471b	-0.006478203
37	0x3d5e631d	0.05429374
38	0xbbef28d8	-0.00729857
39	0x3cc90294	0.024537362
40	0xbcb81b5e	-0.022473987
41	0x3d9c33ac	0.07627043
42	0x3c3944ef	0.011307939
43	0x3d9fdf8e	0.078063115
44	0xbc030b5b	-0.007998313
45	0xbc1dc84c	-0.009630274
46	0xbd1974a4	-0.037464753
47	0xbc9dbb26	-0.019254278
48	0xbbb8994e	-0.0056335097
49	0xbd1f9da0	-0.038968682
50	0xbd412af9	-0.047160123
51	0xbd05a46b	-0.032627504
52	0x3ba67ffe	0.005081176
53	0x3ca3fb30	0.020017236
54	0xbd01b35c	-0.03166519
55	0xbcf01a80	-0.029309511
56	0xbd1a93e0	-0.03773868
57	0xbb98dd3e	-0.004665046
58	0xbc568e20	-0.013095409
59	0xba034197	-0.0005007027
60	0xbabeab7e	-0.0014546958
61	0xbccad4ea	-0.024759728
62	0xbc69c451	-0.014267997
63	0x3c7d9d74	0.015479434
64	0xbcaf44eb	-0.021395167
65	0xbd6dec76	-0.058086835
66	0x3c02dfcf	0.00798793
67	0x3b67f9be	0.003539666
68	0xbca684f4	-0.020327069
69	0x3d412be0	0.047160983
70	0x3cb6e678	0.022326693
71	0xbad7afef	-0.001645563
72	0x38bda837	9.043555e-05
73	0x3b92d913	0.0044814437
74	0x3bb9bb51	0.005668082
75	0x3b6a4294	0.003574525
76	0x3bf34590	0.007424064
77	0x3bf92440	0.0076031983
78	0x39dc10b3	0.00041974112
79	0x3b714952	0.0036817384
80	0x3b49c4a5	0.0030787375
81	0xbc61cd3b	-0.013781841
82	0xbd2268b0	-0.03965062
83	0x39b28b52	0.00034054607
84	0xbb969755	-0.004595677
85	0x3b99db3a	0.0046953233
86	0xbccd3d7b	-0.02505373
87	0xbd3eb6e4	-0.046561137
88	0x3a42dc26	0.00074333174
89	0x3c4396a9	0.011937776
90	0xbcd00776	-0.025394183
91	0xbd464fc7	-0.048415925
92	0xbc6466ad	-0.013940495
93	0xbc0def31	-0.008662985
94	0x3c14f680	0.009091973
95	0xbd807d0e	-0.06273852
96	0x3c19d53c	0.009389218
97	0x3c900116	0.017578643
98	0x3c534239	0.012894207
99	0xbd3d63d7	-0.046237793
100	0xbd42a674	-0.047522023
101	0x3cd32eae	0.025779095
102	0xbd08e07c	-0.03341721
103	0xbd9a2d90	-0.075282216
104	0xbc9e420e	-0.019318607
105	0x3b664228	0.0035134647
106	0xbdb3550b	-0.08756455
107	0xbd78f1d8	-0.060777515
108	0xbbb329ab	-0.0054676137
109	0x3b3cfa41	0.0028835686
110	0xbc6b04e3	-0.014344427
111	0x3b747903	0.0037303574
112	0x3b8ffd86	0.004394236
113	0xbcc279c4	-0.023739703
114	0xbcc170d7	-0.023613377
115	0xbd14dfd2	-0.036346264
116	0xbcfbffed	-0.030761683
117	0xbbf166f5	-0.0073670098
118	0x3d384327	0.044985916
119	0x3b2f1258	0.0026713815
120	0x3c2e8574	0.010651935
121	0xbccedf80	-0.025253057
122	0xbc81aea2	-0.015830342
123	0xbd0365f9	-0.03207967
124	0x3a0e2daf	0.00054236775
125	0xbbe2b75f	-0.006918832
126	0x3dbd1ed8	0.092343986
127	0x3d871794	0.06596294
128	0xbc7001e0	-0.014648885
129	0xbc45f9ca	-0.01208348
130	0x3dfcfd52	0.123530045
131	0xbd092b5b	-0.033488613
132	0xbc96daae	-0.018414821
133	0xbd1a2b0b	-0.037638705
134	0x3d20be42	0.039243944
135	0x3cabc22d	0.020966614
136	0x3d94c99d	0.07265017
137	0x3d8f1bb2	0.06987704
138	0x3da157bd	0.07878063
139	0x3d9f709d	0.07785151
140	0x3d08f501	0.03343678
141	0x3d9a5462	0.07535626
142	0x3d863081	0.0655222
143	0x3d678f46	0.05653312
144	0x38be78f8	9.082438e-05
145	0x3b92db76	0.004481728
146	0x3bb9bddd	0.0056683854
147	0x3b6a46a6	0.0035747676
148	0x3bf34650	0.0074241534
149	0x3bf924a8	0.0076032467
150	0x39dc40ec	0.0004201004
151	0x3b714e30	0.0036820285
152	0x3b49c93b	0.0030790109
153	0x38bc07ad	8.965968e-05
154	0x3b92d44d	0.0044808746
155	0x3bb9b646	0.0056674806
156	0x3b6a3b7d	0.0035741024
157	0x3bf34467	0.0074239257
158	0x3bf923f6	0.007603164
159	0x39dbb493	0.00041905473
160	0x3b71406a	0.0036812075
161	0x3b49bbe8	0.0030782167
162	0xbc875ae7	-0.016522838
163	0xbd64d8fd	-0.055871
164	0x3c53c5e0	0.012925595
165	0x3d0ec354	0.03485425
166	0x3da7b823	0.08189418
167	0xbd9f88ac	-0.0778974
168	0xbd1472a2	-0.036242135
169	0x3cd70dc3	0.02625168
170	0x3d4c7d9a	0.04992447
171	0x3c7d9d1c	0.015479352
172	0x3d949863	0.07255628
173	0xbc9e5950	-0.019329697
174	0xbcc596f6	-0.024119835
175	0x3d86f8f6	0.06590454
176	0x3d5b398e	0.053521685
177	0x3d34420c	0.0440083
178	0xbd754f7e	-0.059890263
179	0x3d140503	0.036137592
180	0x38bdc9aa	9.049785e-05
181	0x3b92d96e	0.004481486
182	0x3bb9bba5	0.005668121
183	0x3b6a4394	0.0035745846
184	0x3bf345c7	0.0074240896
185	0x3bf9243a	0.0076031955
186	0x39dc1ab6	0.0004198157
187	0x3b714a5c	0.0036818003
188	0x3b49c574	0.0030787857
189	0xbad4c6ed	-0.0016233601
190	0x3d81bd74	0.063349634
191	0x3ca0404b	0.019561907
192	0xbcab827a	-0.02093624
193	0x3cb0a2d1	0.021562012
194	0x3c558b1a	0.013033653
195	0xbd31098a	-0.043221988
196	0xbcd071a2	-0.02544481
197	0xbd866ee7	-0.06564122
198	0xbd6aa7d2	-0.057288952
199	0x3c5e4320	0.013565809
200	0x3c3f4d9c	0.011676218
201	0x3d932109	0.07184035
202	0xbdaba536	-0.08381121
203	0x3c817a6f	0.015805451
204	0x3ca1021f	0.019654332
205	0x3c525d7e	0.012839673
206	0x3c5ac345	0.01335222
207	0x3d13ad6e	0.036054067
208	0xbdc2fbd7	-0.09520691
209	0x3c2dc64f	0.0106063625
210	0xbae3503f	-0.0017342641
211	0xbc4e157d	-0.012578365
212	0xbcb6fb6e	-0.022336688
213	0xbd1a1125	-0.037614007
214	0x3ce27b57	0.027646704
215	0xbc5ee8b9	-0.01360529
216	0x3c34c879	0.0110341245
217	0xbc96c5a1	-0.018404784
218	0x3ca9e545	0.020739207
219	0xbc447770	-0.011991367
220	0xbd032bc7	-0.03202417
221	0x3bd37b02	0.0064538727
222	0x3b08ec6d	0.0020892874
223	0x39af6acf	0.0003345818
224	0xbcabb8d2	-0.020962153
225	0xbce8ef66	-0.028434467
226	0xbd11ba79	-0.035578225
227	0xbd09c44b	-0.033634465
228	0xbd017e23	-0.031614434
229	0xbd7c68f3	-0.061623525
230	0xbbd3baa1	-0.006461457
231	0xbc1ff7be	-0.009763656
232	0x39dc3ba3	0.00042006103
233	0x3c96d796	0.018413346
234	0x3c8c00ab	0.017090162
235	0x3c9c5be6	0.01908679
236	0x3d578134	0.052613452
237	0x3c9a517c	0.018837683
238	0x3d7095d8	0.058736652
239	0x3cb91286	0.02259184
240	0x3b0f54eb	0.0021870683
241	0x3d14b185	0.03630211
242	0xba2ac860	-0.00065148436
243	0x3c5a367f	0.013318657
244	0x3d3b343c	0.04570411
245	0xbc64488f	-0.013933315
246	0x3ca13ac3	0.01968134
247	0x3d080589	0.033208404
248	0x3c0dcc3f	0.008654653
249	0xbbc3c62d	-0.005974552
250	0x3ca74b40	0.020421624
251	0x3c8c4f98	0.017127797
252	0x3bc2705f	0.005933806
253	0xb8b94d56	-8.8358924e-05
254	0x3c6eb014	0.0145683475
255	0x3c67a387	0.014138109

dblock_3.denselayer1.conv2.bias f4 [48]
0	0x3ca23161	0.019798936
1	0x3ccefe18	0.025267646
2	0x3d7c6a47	0.06162479
3	0xbb8f4bf3	-0.0043730675
4	0xbc9074f0	-0.017633885
5	0xbcb51bfb	-0.022108069
6	0x3c488c5a	0.012240494
7	0xbb8d4e1e	-0.004312291
8	0xbcd04014	-0.02542118
9	0xbd6d9ee6	-0.058012865
10	0x3a0c3c54	0.0005349566
11	0xbd82c9b7	-0.0638613
12	0x3d181b3c	0.037135348
13	0x3c87d14f	0.016579298
14	0x3d19a209	0.037508044
15	0xbc2a39b3	-0.010389733
16	0x3d3156ae	0.043295555
17	0xbd8fa71b	-0.07014295
18	0x3ad066df	0.0015899799
19	0xbc6dbb29	-0.0145099545
20	0xbd003d05	-0.031308193
21	0xbcf186f3	-0.029483294
22	0x3c810f3c	0.015754335
23	0x3d3184cf	0.043339547
24	0xbd001e50	-0.03127891
25	0xbd87832e	-0.066168174
26	0xba9977bc	-0.0011708657
27	0x3ca5cb92	0.020238671
28	0xbb74f4cd	-0.0037377358
29	0x39187415	0.00014539094
30	0x3d25f867	0.040520098
31	0xbd245622	-0.040121205
32	0xbda7b5e3	-0.08188989
33	0xbcdd833c	-0.027040116
34	0xbcee3939	-0.02908002
35	0x3cc1ae06	0.023642551
36	0xbb52be53	-0.00321569
37	0x3cfd7a47	0.030942095
38	0xbbacd424	-0.0052743126
39	0xbd24b291	-0.040209357
40	0x3cb35135	0.021889308
41	0x3c34f296	0.011044165
42	0xbd443491	-0.047901694
43	0xbcd68dd1	-0.02619067
44	0xbc41872b	-0.011812012
45	0x3d19c6a8	0.03754297
46	0xbccbffef	-0.024902312
47	0xbd2f941c	-0.042865857
