checkpoints/BIPED/3/3_model.pth (torch, 249139 bytes, 30 tensors)

block_1.conv1.weight f4 [16, 3, 3, 3]
-0.16964167 -0.06641067 -0.18782306 -0.03370648 -0.08463335 -0.112038225 -0.19450864 -0.06339457
-0.12906893 0.18288235 0.034604546 -0.034061663 0.034577023 0.13189095 -0.078295924 -0.17068125
-0.08612163 -0.08466457 0.15923753 0.120691076 0.11657905 0.23016682 0.2836693 0.14914738
0.06951867 0.15244511 -0.089971244 -0.099559486 -0.05111547 -0.1626401 -0.14006639 -0.033492997
-0.07757406 -0.16319253 -0.10053364 0.033790648 0.44064453 0.13870072 0.06615572 0.17627066
0.16064991 0.014061623 0.14607349 0.19629821 0.17983386 -0.011119624 -0.30187234 -0.09826479
0.09650096 -0.07841865 -0.07272979 -0.09338002 -0.10800413 0.028790908 0.1406458 -0.010392733
0.060011163 -0.012195976 -0.13521527 -0.05013531 -0.021152679 -0.13704455 0.071825966 0.039469987
-0.09153262 0.081725225 0.007459305 -0.110773854 0.21496324 0.1257373 -0.16573751 0.013026659
0.06327965 -0.112900056 -0.022795465 0.026285542 -0.13187307 -0.09914702 0.08618113 -0.26193747
-0.049852356 -0.030741204 0.10461652 0.1610181 -0.06353288 0.31846106 0.21893583 -0.23492698
-0.039010357 0.16270512 -0.19021393 -0.1819602 -0.13713004 -0.014375186 0.061842665 0.029827
-0.04369927 -0.09556216 -0.25278917 0.10406259 -0.094965234 0.11051665 0.15424868 0.009690981
0.17171116 -0.05306922 -0.012640139 -0.10515297 -0.12401928 -0.07772474 -0.08815134 -0.04972346
0.05691073 0.015552068 -0.15831465 0.06295315 0.05233816 -0.09072169 0.061853223 -0.20414032
-0.01453181 0.13638876 -0.10049264 0.0023037698 -0.007856813 0.1015234 0.009704923 0.2188659
0.11643723 -0.030567467 0.22516727 0.092557944 0.03344774 0.14135055 -0.043790553 -0.045339633
0.059291974 0.016094357 -0.06872736 0.04506306 -0.044217337 -0.026753873 -0.0023195546 -0.009130359
-0.101757005 -0.13083847 -0.20201802 -0.22535828 -0.07330926 -0.07958921 -0.17557116 -0.087564304
-0.22465909 0.049939554 0.12786926 0.02472085 0.18517005 0.17855959 0.13828091 0.15975088
0.29069725 0.17871211 0.094712704 0.19863349 0.1970162 -0.019921478 0.14634587 0.08175493
0.031834964 0.28270113 0.115698434 0.00050476653 -0.01478104 -0.10468861 -0.061078828 0.07304315
0.022533597 0.015916832 0.071853474 0.06734304 -0.10035455 -0.14839788 -0.13846537 0.05450578
-0.069987655 -0.27023056 -0.08998906 -0.10766603 -0.22637554 -0.054585993 0.309423 0.1516088
0.0848549 -0.06298982 0.09346125 -0.055874314 -0.12913303 -0.013353438 -0.1567518 0.017091177
0.14543653 0.19483379 0.074579395 0.015585563 -0.18056995 -0.29900485 -0.24466647 0.001959311
0.17234203 0.033529792 0.15074612 0.004187487 0.12231473 0.030002516 -0.1983673 -0.1891672
0.009460254 0.039104998 0.020136615 0.2808382 0.048638523 0.06554383 0.15678637 -0.009316381
0.13148117 -0.20590046 -0.19039743 -0.15616766 -0.21365117 -0.113526724 0.008627639 -0.16374348
-0.21610571 -0.01536492 -0.045950416 0.04380186 -0.002266656 0.01411642 0.062093448 0.2608453
0.04201551 -0.01126335 0.20636518 -0.19756103 -0.036273327 -0.08690339 -0.022089513 0.011551325
0.12383381 -0.0077090045 0.025652418 0.17822893 -0.18271142 -0.20300098 -0.07479159 0.11885706
00000000: 8cb6 2dbe 5102 88bd b054 40be ce0f 0abd
00000010: 4054 adbd 4c74 e5bd 462d 47be 03d5 81bd
00000020: a52a 04be 8345 3b3e 7fbd 0d3d 3e84 0bbd
00000030: a3a0 0d3d 6c0e 073e 9d59 a0bd 11c7 2ebe
00000040: 8a60 b0bd 9e64 adbd 2a0f 233e e22c f73d
00000050: ffc0 ee3d dab0 6b3e 1a3d 913e 17ba 183e
00000060: ce5f 8e3d 921a 1c3e d842 b8bd d8e5 cbbd
00000070: 745e 51bd 208b 26be 906d 0fbe f42f 09bd
00000080: 26df 9ebd f11b 27be 95e4 cdbd 1068 0a3d
00000090: 299c e13e 9007 0e3e a67c 873d 4c80 343e
000000a0: 6981 243e b962 663c 4a94 153e 6602 493e
000000b0: 5e26 383e 152f 36bc 038f 9abe 0d3f c9bd
000000c0: 4ca2 c53d f599 a0bd 5bf3 94bd 063e bfbd
000000d0: 4531 ddbd e9da eb3c 7405 103e 4846 2abc
000000e0: 44ce 753d a2d1 47bc df75 0abe af5a 4dbd
000000f0: 6248 adbc 6855 0cbe 7e19 933d 48ab 213d
00000100: 7475 bbbd 8e5f a73d 306d f43b 67dd e2bd
00000110: 531f 5c3e 47c1 003e 18b7 29be c56d 553c
00000120: c398 813d 2538 e7bd 8ebd babc c754 d73c
00000130: bc09 07be 980d cbbd bb7f b03d ab1c 86be
00000140: fc31 4cbd fad4 fbbc 3041 d63d eee1 243e
00000150: 871d 82bd 540d a33e b730 603e b390 70be
00000160: 53c9 1fbd 2c9c 263e 71c7 42be c653 3abe
00000170: d16b 0cbe e685 6bbc bc4e 7d3d c157 f43c
00000180: 01fe 32bd 18b6 c3bd 956d 81be c41e d53d
00000190: 227d c2bd 8e56 e23d 5ef3 1d3e ecc6 1e3c
000001a0: 0dd5 2f3e 1c5f 59bd 9618 4fbc 715a d7bd
000001b0: d2fd fdbd 262e 9fbd b188 b4bd d4aa 4bbd
000001c0: 3a1b 693d 1ace 7e3c 3c1d 22be 95ed 803d
000001d0: 8a60 563d 4bcc b9bd ce59 7d3d 290a 51be
000001e0: d416 6ebc 7fa9 0b3e 16cf cdbd d8fa 163b
000001f0: ddb9 00bc 80eb cf3d 6601 1f3c 621e 603e
00000200: a476 ee3d a068 fabc 4092 663e 058f bd3d
00000210: 7f00 093d 33be 103e b95d 33bd 0db6 39bd
00000220: 24dc 723d 50d8 833c eec0 8cbd 0b94 383d
00000230: 3d1d 35bd f02a dbbc ab03 18bb 8097 15bc
00000240: fa65 d0bd 85fa 05be d0dd 4ebe 52c4 66be
00000250: 2a23 96bd abff a2bd edc8 33be ea54 b3bd
00000260: 080d 66be 6b8d 4c3d 29f0 023e 6183 ca3c
00000270: 389d 3d3e 53d8 363e 8399 0d3e bc95 233e
00000280: 45d6 943e 4f00 373e bcf8 c13d 9466 4b3e
00000290: 9dbe 493e 5e32 a3bc b1db 153e 216f a73d
000002a0: 6165 023d 34be 903e 4df3 ec3d 4f52 043a
000002b0: 2d2c 72bc fb66 d6bd cb2d 7abd a697 953d
000002c0: 6198 b83c 0464 823c ea27 933d 26eb 893d
000002d0: b086 cdbd 9df5 17be dec9 0dbe 7441 5f3d
000002e0: b055 8fbd a95b 8abe 2f4c b8bd 0280 dcbd
000002f0: fdce 67be 9095 5fbd b16c 9e3e 563f 1b3e
00000300: 68c8 ad3d cf00 81bd 9d68 bf3d 77dc 64bd
00000310: 733b 04be 61c8 5abc 8b83 20be cc02 8c3c
00000320: 50ed 143e 8282 473e 15bd 983d 975a 7f3c
00000330: 54e7 38be 2a17 99be d989 7abe c967 003b
00000340: 6e7a 303e 8956 093d 315d 1a3e 3037 893b
00000350: 2580 fa3d d6c7 f53c cc20 4bbe 0cb5 41be
00000360: 2eff 1a3c 902c 203d 8bf5 a43c 06ca 8f3e
00000370: 3039 473d d83b 863d 9b8c 203e bca3 18bc
00000380: 00a3 063e 92d7 52be 8bf7 42be 6aea 1fbe
00000390: 5fc7 5abe b380 e8bd f15a 0d3c 5fac 27be
000003a0: d14a 5dbe 25bd 7bbc 8136 3cbd 9469 333d
000003b0: 2d8c 14bb 8f48 673c b355 7e3d 848d 853e
000003c0: 7518 2c3d ea89 38bc 6551 533e 704d 4abe
000003d0: 5793 14bd 68fa b1bd 11f5 b4bc c541 3d3c
000003e0: 959c fd3d d19b fcbb 0525 d23c a581 363e
000003f0: b418 3bbe 7ddf 4fbe 552c 99bd 556b f33d

block_1.conv1.bias f4 [16]
0.058704767 0.08398527 0.054107536 0.21881194 0.24309048 0.21086663 0.26157033 -0.11811095
0.48586756 -0.39179677 -0.45407844 0.15797539 -0.52077556 -0.4557202 -0.5129651 -0.12686767
00000000: 6974 703d 7800 ac3d dd9f 5d3d 3d10 603e
00000010: b6ec 783e 6ced 573e 8cec 853e 27e4 f1bd
00000020: a2c3 f83e 9699 c8be f87c e8be 4dc4 213e
00000030: 8c51 05bf 2854 e9be ae51 03bf 99e9 01be

block_1.conv2.weight f4 [16, 16, 3, 3]
-0.016422352 0.026998071 0.123440966 -0.06394797 -0.057385065 -0.06747185 0.1286236 0.108686104
-0.075166315 -0.007825747 0.020742957 -0.01433407 -0.017850908 0.025378443 0.11688654 0.06788633
-0.14036004 -0.015973078 -0.025815744 0.048536453 0.23298307 -0.15296037 -0.19248787 0.18279925
-0.1554576 -0.25632754 0.1770032 0.09503249 0.13916698 0.05126041 -0.10208564 -0.29551026
-0.14167318 0.079759456 -0.021719161 0.09246384 0.06421379 -0.04260727 -0.038350686 0.096409194
-0.03483143 -0.17659916 0.10485413 0.13728805 -0.13395748 0.01756306 -0.04842756 -0.0026914256
0.07109264 0.030865017 -0.23543939 0.13533062 0.11521987 -0.031095458 0.008722082 -0.053383976
0.07711137 0.08338161 0.042157825 -0.07135944 -0.035453912 0.10950755 -0.09619694 0.030586112
-0.10707853 -0.07177839 -0.110731006 -0.22749186 0.03537493 -0.06587345 -0.02894409 0.0722904
-0.049270738 0.048055813 0.06028741 0.10636675 -0.19290029 -0.0057729604 0.09822292 -0.13198096
0.1325087 -0.041469146 -0.08147781 -0.13761593 0.041286997 -0.00069557165 -0.14832753 -0.028665857
0.11652706 0.031402312 -0.05324175 0.04938026 -0.023560876 -0.1907229 0.06673748 -0.19905843
-0.23921314 0.199827 -0.1385561 0.002318395 0.017549254 0.089438476 -0.010378841 -0.026709862
0.11907707 -0.025582809 -0.18945105 0.08118227 0.074936286 0.09332512 0.043841567 0.051643055
0.2264393 0.042851828 0.0105781695 0.043555927 0.31508207 0.025956223 0.09460136 -0.062207744
-0.047780097 0.016588781 0.18073516 -0.13893865 -0.053852726 -0.101221636 -0.016782451 -0.048205696
-0.08766585 -0.018717157 0.10644501 0.14617513 -0.28059608 -0.30116147 -0.07115427 0.06272769
0.06337957 -0.04820285 -0.01231092 0.06380191 0.14957727 -0.1141288 0.062331345 -0.051346138
0.047209695 -0.022255752 -0.07441951 -0.0367894 0.023116115 0.024642853 -0.054550875 0.04102144
0.097365126 -0.12848555 0.0030265965 -0.02569705 -0.060037017 -0.015659481 0.123878054 -0.09219657
-0.03506 0.16568512 0.027977876 -0.059795983 0.002927578 0.04723457 0.014163383 0.07021202
0.08178597 0.016036507 0.02684767 -0.006043512 -0.001717627 -0.03632187 0.042216886 0.01349997
-0.10613216 0.03610067 0.040202137 -0.0034329721 -0.03953449 -0.012193532 -0.029454142 0.021545377
0.1850095 0.05350297 -0.08237573 0.02274329 -0.041555572 -0.012052482 0.009131448 0.0716974
-0.011974087 0.05754326 0.06375844 -0.05594733 0.019872874 0.068291634 -0.06396889 0.05676066
0.12791285 0.021917578 0.18160453 -0.029035112 -0.08049681 0.01631867 -0.021948015 0.26248172
-0.11410693 -0.1910344 0.04887317 -0.22794269 -0.16945016 0.05913895 0.0009077808 -0.0044616694
0.011349779 0.12773423 0.04180721 0.17608233 -0.037734397 -0.03606601 0.0124717625 -0.1061792
-0.113640465 -0.07202371 0.07459224 0.048705544 0.039706174 -0.08798823 -0.03189286 0.011021793
0.0743106 0.13171075 0.2654001 -0.106741995 -0.10262976 -0.13600229 -0.2709245 -0.07615189
-0.14989428 -0.14573736 0.0898774 -0.071034975 -0.05510645 -0.022156168 -0.042758703 -0.056499276
-0.0165565 -0.06376104 0.011594155 0.021133272 0.13357866 -0.049971756 -0.06478225 0.0025457023
00000000: 2b88 86bc 0f2b dd3c 9ece fc3d 27f7 82bd
00000010: 9a0c 6bbd ae2e 8abd e8b5 033e d296 de3d
00000020: ccf0 99bd 9037 00bc 22ed a93c 72d9 6abc
00000030: 113c 92bc 74e6 cf3c 3662 ef3d fd07 8b3d
00000040: 8bba 0fbe f9d9 82bc 8a7b d3bc 29ce 463d
00000050: 1d93 6e3e a5a1 1cbe 8a1b 45be ba2f 3b3e
00000060: 4730 1fbe 5d3d 83be 5440 353e 65a0 c23d
00000070: ca81 0e3e 70f6 513d 4712 d1bd 1f4d 97be
00000080: c612 11be ed58 a33d 62ec b1bc af5d bd3d
00000090: 8582 833d f684 2ebd 9c15 1dbd 2f72 c53d
000000a0: 67ab 0ebd 69d6 34be c3bd d63d 3d95 0c3e
000000b0: 262c 09be 68e0 8f3c fa5b 46bd a162 30bb
000000c0: 0599 913d a2d8 fc3c 0617 71be 1c94 0a3e
000000d0: 65f8 eb3d e7bb febc 10e7 0e3c 28a9 5abd
000000e0: 91ec 9d3d fac3 aa3d afad 2c3d e624 92bd
000000f0: 1f38 11bd 7f45 e03d e702 c5bd ba8f fa3c
00000100: fd4b dbbd 8c00 93bd f0c6 e2bd a0f3 68be
00000110: 4de5 103d a9e8 86bd 281c edbc fd0c 943d
00000120: 1dd0 49bd 2cd6 443d eeef 763d d0d6 d93d
00000130: a787 45be 1a2b bdbb 1929 c93d 0426 07be
00000140: 5cb0 073e 8ddb 29bd d7dd a6bd 31eb 0cbe
00000150: 8e1c 293d 0657 36ba 2ce3 17be a9d4 eabc
00000160: bda5 ee3d b69f 003d 0514 5abd f542 4a3d
00000170: bd02 c1bc dd4c 43be a9ad 883d f9d5 4bbe
00000180: 4af4 74be 739f 4c3e a6e1 0dbe 37f0 173b
00000190: 74c3 8f3c 852b b73d 040c 2abc a4ce dabc
000001a0: aede f33d 0a93 d1bc 75ff 41be e442 a63d
000001b0: 3278 993d 3e21 bf3d 3793 333d ab87 533d
000001c0: b4df 673e 6685 2f3d 0f50 2d3c b367 323d
000001d0: 7052 a13e 25a2 d43c 5cbe c13d 8ccd 7ebd
000001e0: 10b5 43bd 32e5 873c a312 393e ef45 0ebe
000001f0: ad94 5cbd 4a4d cfbd 5a7b 89bc 5673 45bd
00000200: 278a b3bd b954 99bc d7ff d93d efae 153e
00000210: 4aaa 8fbe d631 9abe 54b9 91bd 6077 803d
00000220: 26cd 813d 5a70 45bd beb3 49bc 93aa 823d
00000230: c92a 193e 5cbc e9bd 274f 7f3d 5450 52bd
00000240: f45e 413d b251 b6bc 4269 98bd 7bb0 16bd
00000250: 025e bd3c cfdf c93c bd70 5fbd 1906 283d
00000260: 5e67 c73d b791 03be dd59 463b 9f82 d2bc
00000270: 60e9 75bd 5048 80bc c7b3 fd3d 8ed1 bcbd
00000280: 139b 0fbd 5ca9 293e dc31 e53c a2ec 74bd
00000290: 9cdc 3f3b 0979 413d 890d 683c 52cb 8f3d
000002a0: 677f a73d fe5e 833c a5ef db3c a708 c6bb
000002b0: 0022 e1ba 3ec6 14bd 9deb 2c3d fa2e 5d3c
000002c0: d15b d9bd 4cde 133d ffaa 243d b7fb 60bb
000002d0: ebee 21bd 61c7 47bc d049 f1bc ee7f b03c
000002e0: 2173 3d3e ee25 5b3d 9bb4 a8bd 2350 ba3c
000002f0: 2d36 2abd c677 45bc 129c 153c 16d6 923d
00000300: f62e 44bc 7bb2 6b3d c993 823d 0729 65bd
00000310: 70cc a23c 7cdc 8b3d 1f02 83bd de7d 683d
00000320: 96fb 023e 7e8c b33c 8af6 393e 0bdb edbc
00000330: 83db a4bd bbae 853c 53cc b3bc 0164 863e
00000340: e5b0 e9bd 869e 43be 3c2f 483d cf69 69be
00000350: 5884 2dbe af3b 723d 23f8 6d3a 3233 92bb
00000360: 6cf4 393c c3cc 023e 093e 2b3d ed4e 343e
00000370: 628f 1abd f4b9 13bd 5d56 4c3c 7b74 d9bd
00000380: 55bc e8bd 2b81 93bd d1c3 983d 777f 473d
00000390: f1a2 223d 2c33 b4bd 16a2 02bd c094 343c
000003a0: 2830 983d 2fdf 063e 86e2 873e 8c9b dabd
000003b0: 8d2f d2bd 2f44 0bbe 9eb6 8abe 86f5 9bbd
000003c0: e37d 19be 2d3c 15be a411 b83d c97a 91bd
000003d0: 4db7 61bd da80 b5bc c023 2fbd c96b 67bd
000003e0: 7fa1 87bc 2695 82bd 69f5 3d3c af1f ad3c
000003f0: d8c8 083e 2faf 4cbd 8eac 84bd ccd5 263b

block_1.conv2.bias f4 [16]
-0.04252383 -0.013550033 0.30261117 0.08158594 -0.15755673 1.6254842 -0.33618817 0.05644518
-0.06561195 0.49634686 0.84566075 0.2648744 0.003630663 -0.16522302 -0.12363403 -0.1443959
00000000: 782d 2ebd f500 5ebc daef 9a3e 8816 a73d
00000010: 8d56 21be de0f d03f db20 acbe 1033 673d
00000020: 8f5f 86bd 2d21 fe3e 397d 583f 9e9d 873e
00000030: 6bf0 6d3b 3930 29be d733 fdbd 85dc 13be

block_2.conv1.weight f4 [32, 16, 3, 3]
-0.043153234 -0.102045394 -0.123924136 -0.008734779 -0.104568616 0.088941984 0.0470955 -0.075742625
0.016611716 0.029514233 -0.0896799 -0.043071505 0.049226705 -0.091177925 -0.08672005 0.076550566
0.036324423 -0.09874085 -0.027429977 0.11327259 0.06899848 -0.10126325 -0.0583303 -0.07214987
-0.082294255 0.07339941 -0.050262105 -0.04111174 -0.043587215 -0.08046167 -0.03267706 -0.009481685
0.022967603 0.067734785 -0.016702875 0.078146644 0.07687531 0.053627923 0.011638506 0.08885948
-0.049766444 -0.029957494 0.010237863 -0.07767171 -0.05983395 -0.004940842 -0.0089147305 -0.054580633
-0.037611958 -0.0015691684 -0.04820174 -0.024455884 0.016217466 -0.022951216 0.040966164 -0.028517244
-0.04119416 -0.11135831 0.026954643 -0.1815146 -0.013434989 0.0052840584 -0.04729166 -0.00020485526
-0.05521098 -0.08869563 -0.004621907 -0.016165772 -0.037057944 0.03240173 0.016251631 0.038793124
-0.11274299 0.06707161 0.025920238 -0.06586933 0.07318178 -0.021507096 -0.010398943 0.06457414
0.057036933 -0.033639304 -0.0005018192 0.04562113 -0.016515879 -0.0072175325 -0.022049297 0.0059001753
0.036907796 -0.013437966 0.007625718 0.114972204 0.1873231 -0.006466315 0.040571496 0.12006804
-0.08443065 -0.08004358 0.14937426 -0.04231202 0.02238117 0.044144742 -0.04195526 0.039367348
0.080210075 -0.05226877 -0.033642318 0.026656296 -0.05496737 0.07765755 -0.016171591 0.026999962
0.09320768 0.070382304 -0.016310679 -0.018945225 0.1368965 0.025576942 0.055790134 -0.0059619835
0.04792109 0.08245784 0.04037271 -0.054684054 -0.009106526 -0.101187184 0.008303275 -0.035954818
-0.032440048 0.0603775 0.07050625 -0.026500665 -0.009032699 -0.07566429 -0.2162842 0.07174174
0.0079699205 0.008213965 0.0571952 0.026837857 0.03751667 0.06420764 0.028283946 0.072061904
-0.056605402 0.03269417 0.0065135257 -0.075094104 -0.017496007 -0.005681587 -0.10022492 -0.09963992
-0.060955033 0.03976054 -0.03161971 -0.07707695 -0.04638392 -0.03382391 -0.04344936 0.052548826
0.032221578 0.012750015 -0.0613131 -0.0010276892 -0.07703446 0.015717724 0.03878134 0.034340013
-0.048656344 -0.036313675 -0.058403727 0.067601874 -0.010241871 0.018626578 -0.0014719242 -0.023973202
0.018669194 -0.036480363 -0.0019298554 0.008308804 -0.020312186 -0.07498197 -0.04855411 -0.054745175
-0.054433968 -0.077888 -0.10310159 -0.09676112 -0.15848868 -0.17659494 0.032745402 -0.109693974
-0.058715798 0.15271021 -0.0042309235 0.027066058 0.3948884 0.11326789 0.057517584 -0.019297551
-0.034544386 0.041609038 -0.046438202 -0.007663621 0.090993404 -0.11905953 -0.104284026 -0.0030763445
-0.004924277 0.0046954453 0.011781481 0.078142546 0.07825398 0.013212638 0.056078415 0.08435151
0.009390573 0.023838567 -0.05287584 0.04928265 0.022871614 -0.03595063 0.0017651962 -0.009231313
-0.0025886502 -0.057618417 -0.027509494 -0.03757789 -0.008393839 0.04764382 -0.0049093137 0.027559657
0.19508786 0.07520428 0.022266421 0.10071298 0.075208545 -0.025497535 0.053849813 0.022554234
-0.036992453 0.038523342 -0.04617146 -0.08616362 -0.0065501016 -0.02168439 -0.008131254 0.0328061
0.015576654 0.003582435 0.15458429 0.039931297 -0.061092623 0.013576277 0.07535842 0.002024148
00000000: 72c1 30bd 2dfd d0bd f0cb fdbd 521c 0fbc
00000010: 1228 d6bd 3727 b63d 36e7 403d f31e 9bbd
00000020: 4b15 883c d5c7 f13c 18aa b7bd bf6b 30bd
00000030: f1a1 493d 7ebb babd 489a b1bd 8bc6 9c3d
00000040: ebc8 143d a538 cabd d5b4 e0bc 76fb e73d
00000050: 134f 8d3d 1b63 cfbd c1eb 6ebd 50c3 93bd
00000060: e489 a8bd 6e52 963d a3df 4dbd c964 28bd
00000070: 8288 32bd 17c9 a4bd 62d8 05bd 1259 1bbc
00000080: 8e26 bc3c 89b8 8a3d 78d4 88bc 590b a03d
00000090: cd70 9d3d f4a8 5b3d 6faf 3e3c f6fb b53d
000000a0: e6d7 4bbd 6b69 f5bc b6bc 273c 5812 9fbd
000000b0: 7214 75bd c9e6 a1bb 170f 12bc f18f 5fbd
000000c0: ff0e 1abd 8eac cdba 306f 45bd b557 c8bc
000000d0: 7eda 843c 3004 bcbc 23cc 273d ff9c e9bc
000000e0: 35bb 28bd d30f e4bd fccf dc3c f7de 39be
000000f0: 6e1e 5cbc e525 ad3b e6b4 41bd 6ace 56b9
00000100: e924 62bd 0ea6 b5bd 5e73 97bb 156e 84bc
00000110: 12ca 17bd adb7 043d 2422 853c 8ae5 1e3d
00000120: cce5 e6bd d75c 893d ae56 d43c 80e6 86bd
00000130: 54e0 953d a62f b0bc 5460 2abc 723f 843d
00000140: 8f9f 693d 5ec9 09bd 848c 03ba 39dd 3a3d
00000150: 4f4c 87bc 0d81 ecbb baa0 b4bc 4256 c13b
00000160: a12c 173d ea2a 5cbc 29e1 f93b 8c76 eb3d
00000170: a0d1 3f3e 62e3 d3bb 4c2e 263d 3ce6 f53d
00000180: fae9 acbd e3ed a3bd 91f5 183e 5e4f 2dbd
00000190: b758 b73c 1ed1 343d 47d9 2bbd a83f 213d
000001a0: 2e45 a43d c717 56bd 87cc 09bd 4e5e da3c
000001b0: 7725 61bd ec0a 9f3d 497a 84bc 062f dd3c
000001c0: abe3 be3d 9924 903d f99d 85bc 0433 9bbc
000001d0: 992e 0c3e bc86 d13c 3284 643d be5c c3bb
000001e0: e848 443d a8df a83d db5d 253d 63fc 5fbd
000001f0: 8a33 15bc 3a3b cfbd 760a 083c 5c45 13bd
00000200: dbdf 04bd 664e 773d 9565 903d ec17 d9bc
00000210: e3fd 13bc e1f5 9abd 9b79 5dbe 55ed 923d
00000220: 4594 023c de93 063c 8445 6a3d 11db db3c
00000230: 14ab 193d 4c7f 833d bcb3 e73c 3195 933d
00000240: 11db 67bd 52ea 053d 6a6f d53b f0ca 99bd
00000250: c953 8fbc 9b2c babb b942 cdbd 0410 ccbd
00000260: fcab 79bd f3db 223d ab83 01bd 85da 9dbd
00000270: 11fd 3dbd f18a 0abd f5f7 31bd 703d 573d
00000280: c6fa 033d 70e5 503c 7223 7bbd 87b3 86ba
00000290: 3ec4 9dbd 75c2 803c 2fd9 1e3d 1da8 0c3d
000002a0: e04b 47bd a6bd 14bd bf38 6fbd da72 8a3d
000002b0: 85cd 27bc c496 983c 95ed c0ba 7363 c4bc
000002c0: 23f0 983c 6f6c 15bd 34f3 fcba a621 083c
000002d0: be65 a6bc 2690 99bd ade0 46bd 7a3c 60bd
000002e0: 27f6 5ebd be83 9fbd ed26 d3bd b22a c6bd
000002f0: db4a 22be 4ed5 34be 0b20 063d 3ca7 e0bd
00000300: fa7f 70bd 1160 1c3e 8fa3 8abb a3b9 dd3c
00000310: d02e ca3e fff8 e73d 8f97 6b3d e615 9ebc
00000320: 6a7e 0dbd 3d6e 2a3d fc35 3ebd 1d1f fbbb
00000330: c05a ba3d 7cd5 f3bd dd92 d5bd 7f9c 49bb
00000340: d45b a1bb 40dc 993b 1d07 413c 3309 a03d
00000350: 9f43 a03d d279 583c 7bb2 653d 7cc0 ac3d
00000360: ebda 193c 1949 c33c 5694 58bd 9bdc 493d
00000370: 405d bb3c f840 13bd 285e e73a ef3e 17bc
00000380: 58a6 29bb 4a01 6cbd 975b e1bc 46eb 19bd
00000390: 5086 09bc 2b26 433d 4fde a0bb cac4 e13c
000003a0: 1dc5 473e b404 9a3d 1268 b63c 9b42 ce3d
000003b0: f006 9a3d 35e0 d0bc 9f91 5c3d a8c3 b83c
000003c0: 6685 17bd a7ca 1d3d 491e 3dbd 8d76 b0bd
000003d0: 3ca2 d6bb 76a3 b1bc f438 05bc b05f 063d
000003e0: 3935 7f3c 49c7 6a3b 584b 1e3e 008f 233d
000003f0: 423c 7abd 086f 5e3c 8455 9a3d 91a7 043b

block_2.conv1.bias f4 [32]
-0.08948551 1.1127203 -0.00045940533 0.26658428 0.071974084 0.12329518 0.08487455 -0.22774354
0.22906263 0.039266482 0.21115158 0.049930327 0.04000286 -0.023668634 0.9370288 0.02463512
-0.014861526 0.099717535 -0.02166577 0.078409046 -0.09020246 -0.010420428 0.18953714 0.47295508
0.006764643 0.093718186 0.13909741 -0.015493317 0.053891197 0.067097455 0.22753146 0.119351394
00000000: 2e44 b7bd 9e6d 8e3f 57dc f0b9 bc7d 883e
00000010: 2667 933d 2f82 fc3d b5d2 ad3d 9a35 69be
00000020: 658f 6a3e e4d5 203d 1f38 583e be83 4c3d
00000030: 0ada 233d b9e4 c1bc 1fe1 6f3f 97cf c93c
00000040: c27d 73bc b538 cc3d 6a7c b1bc ec94 a03d
00000050: 11bc b8bd 71ba 2abc 0616 423e 2b27 f23e
00000060: f0a9 dd3b 52ef bf3d 8d6f 0e3e aed7 7dbc
00000070: 04bd 5c3d 646a 893d 02fe 683e 816e f43d

block_2.conv2.weight f4 [32, 32, 3, 3]
-0.06232737 -0.035367902 -0.06587656 0.051267758 -0.0056981053 -0.04059488 0.09664969 0.03899862
0.00095887703 0.07097211 0.02811595 0.01579466 0.010602369 0.018178975 -0.03816742 0.02900653
0.037909053 -0.06630026 -0.03291957 -0.030911002 -0.048753977 -0.040252376 -0.041992046 -0.041709032
-0.05642934 -0.030316137 -0.029507795 -0.05791391 0.025821215 0.054157697 -0.0023626427 -0.013795268
0.04057437 0.05150146 -0.044038065 -0.03814782 -0.027926253 -0.028215444 0.0032867913 -0.03770781
-0.049968623 -0.05473484 -0.048309084 -0.07774052 -0.03325165 -0.06521187 0.010742809 -0.07578648
-0.052071974 -0.061303593 -0.019414777 -0.046360128 -0.07069732 -0.022682728 -0.045019876 -0.063962616
-0.049238373 0.0323978 -0.06942216 -0.04208007 0.056273617 0.031743146 -0.010027805 0.034077942
-0.010631226 -0.041285995 -0.03222612 -0.03032252 0.0004745362 -0.071521394 -0.0136267245 0.033679027
-0.09672054 0.028650854 0.19558519 -0.14168568 -0.053229615 0.10319111 -0.11139989 -0.08170294
-0.04039292 -0.007959756 -0.010074987 -0.014686428 -0.011884954 -0.012301998 -0.014846557 -0.012379725
-0.009676269 -0.008635385 0.0099786 -0.040692188 -0.0075963074 0.047187734 -0.09767323 -0.10203162
0.012537927 -0.029728588 -0.08177481 0.02864133 0.07485166 0.021387199 -0.04803004 0.09875601
0.07726363 -0.061775155 -0.05114051 0.07550217 0.041814245 -0.04608606 0.011863392 0.029473769
-0.04870659 -0.023065174 -0.043508753 -0.007621334 -0.08908995 -0.07776284 0.01730124 -0.08592373
-0.055616394 0.007921518 0.0284698 -0.08897284 -0.00526079 0.08184277 -0.06220771 -0.056756686
-0.00033174083 0.048643116 -0.10434819 -0.047310613 0.100995414 0.005906463 -0.08568186 -0.032877307
0.035551798 0.006265622 -0.12328585 0.012270507 0.025280964 -0.11165432 -0.15523693 0.011593008
-0.012526293 -0.018261334 -0.024498528 -0.019060625 -0.013402163 -0.02483542 -0.022069175 -0.0104728
-0.010189891 -0.098336495 -0.07686604 -0.02841895 0.06684595 -0.1433982 -0.010298381 0.053849474
0.023289977 -0.111446895 -0.1037703 -0.09772398 -0.055936318 -0.075066976 0.023138177 -0.057944566
-0.08734604 -0.008700941 -0.038735736 -0.005358799 -0.035430875 -0.012739645 -0.027723514 -0.09130879
-0.039169513 -0.10026751 -0.09915951 -0.08542932 0.037527397 0.014311403 -0.061459277 -0.085015535
0.0899145 -0.001898759 -0.13751511 -0.011556394 0.030931307 0.025371633 -0.060639486 -0.015577653
0.045468125 -0.097943924 -0.11349385 0.015157808 -0.025733674 -0.11546121 -0.09393955 -0.117417425
-0.040312033 -3.6854915e-05 -0.026019784 -0.055466734 0.045244955 0.05991521 -0.025765298 -0.061989125
-0.06846995 0.069797754 0.0074603655 -0.008876515 -0.032597847 -0.041321717 0.019464355 -0.06024702
-0.08937897 -0.011818086 -0.004542565 -0.023465019 -0.024038458 0.10073091 -0.003717195 -0.04301955
0.13895622 -0.12690158 0.0068575707 0.04226001 0.07743611 -0.11368786 0.12313327 0.08434966
-0.0050852504 -0.05083313 -0.1056876 -0.060973816 0.06974619 -0.052092765 -0.005720316 0.034065314
-0.010595055 0.024628993 0.040075697 -0.040036853 -0.0086143715 0.021629618 -0.031445466 -0.041936956
-0.030067546 -0.02295196 -0.041833084 -0.037651006 -0.08101458 -0.040595062 0.09268945 0.029392984
00000000: fc4a 7fbd efdd 10bd 4aea 86bd 24fe 513d
00000010: 2cb7 babb d146 26bd 46f0 c53d 04bd 1f3d
00000020: 265d 7b3a d359 913d 6c53 e63c ce63 813c
00000030: 8fb5 2d3c 13ec 943c 7155 1cbd 1a9f ed3c
00000040: 8646 1b3d 6ec8 87bd acd6 06bd 1239 fdbc
00000050: 40b2 47bd addf 24bd daff 2bbd 17d7 2abd
00000060: 7422 67bd 8c59 f8bc 55ba f1bc 2337 6dbd
00000070: 0387 d33c 76d4 5d3d 91d6 1abb 8c05 62bc
00000080: 5031 263d 32f3 523d 4261 34bd e340 1cbd
00000090: 99c5 e4bc 1324 e7bc 3567 573b 8173 1abd
000000a0: e6ab 4cbd a431 60bd bfdf 45bd 6c36 9fbd
000000b0: e232 08bd cd8d 85bd 9b02 303c f135 9bbd
000000c0: 6c49 55bd 7a19 7bbd bd0b 9fbc 1ee4 3dbd
000000d0: c2c9 90bd 21d1 b9bc c366 38bd d5fe 82bd
000000e0: 2dae 49bd 8eb3 043d 352d 8ebd 275c 2cbd
000000f0: 2a7f 663d 1a05 023d aa4b 24bc 5095 0b3d
00000100: 982e 2ebc 811b 29bd 89ff 03bd ef66 f8bc
00000110: 2ccb f839 cf79 92bd a042 5fbc 05f3 093d
00000120: 6b15 c6bd 32b5 ea3c 7c47 483e 0d16 11be
00000130: 4c07 5abd dc55 d33d a025 e4bd df53 a7bd
00000140: 0c73 25bd a369 02bc 8f11 25bc 589f 70bc
00000150: 1cb9 42bc 528e 49bc f93e 73bc 55d4 4abc
00000160: 3789 1ebc 6e7b 0dbc 487d 233c daac 26bd
00000170: 72ea f8bb ed47 413d e708 c8bd f4f5 d0bd
00000180: e16b 4d3c 5e89 f3bc 8d79 a7bd 39a1 ea3c
00000190: d44b 993d 3534 af3c 26bb 44bd 9740 ca3d
000001a0: 653c 9e3d f207 7dbd b678 51bd e2a0 9a3d
000001b0: 6a45 2b3d bdc4 3cbd ac5e 423c f972 f13c
000001c0: 9080 47bd 2df3 bcbc 3c36 32bd 62bc f9bb
000001d0: cb74 b6bd 2042 9fbd 54bb 8d3c c8f8 afbd
000001e0: 04ce 63bd 41c9 013c 7f39 e93c 6437 b6bd
000001f0: b562 acbb 2f9d a73d 83cd 7ebd b379 68bd
00000200: 80ed adb9 013e 473d 81b4 d5bd c6c8 41bd
00000210: afd6 ce3d 018b c13b f979 afbd 5baa 06bd
00000220: c39e 113d d94f cd3b 4b7d fcbd 3d0a 493c
00000230: 061a cf3c 05ab e4bd 6ef6 1ebe 9af0 3d3c
00000240: 153b 4dbc cb98 95bc 23b1 c8bc 0725 9cbc
00000250: bf94 5bbc a773 cbbc 6aca b4bc 1b96 2bbc
00000260: 80f3 26bc a564 c9bd f16b 9dbd dcce e8bc
00000270: 88e6 883d fad6 12be 8aba 28bc 4491 5c3d
00000280: 9fca be3c 453e e4bd 8685 d4bd 8323 c8bd
00000290: 7b1d 65bd b7bc 99bd 468c bd3c 4857 6dbd
000002a0: 7be2 b2bd 648e 0ebc 5da9 1ebd dd98 afbb
000002b0: f71f 11bd f2b9 50bc 6c1c e3bc 1a00 bbbd
000002c0: 3670 20bd 0d59 cdbd 2414 cbbd 91f5 aebd
000002d0: 54b6 193d 607a 6a3c b9bc 7bbd a01c aebd
000002e0: 1825 b83d c8df f8ba c3d0 0cbe 0857 3dbc
000002f0: a763 fd3c 2cd8 cf3c 1c61 78bd 6a39 7fbc
00000300: c93c 3a3d d396 c8bd 776f e8bd 7458 783c
00000310: 6dcf d2bc ed76 ecbd 6163 c0bd 8c78 f0bd
00000320: 3b1e 25bd aa94 1ab8 7127 d5bc 1631 63bd
00000330: c652 393d a769 753d bf11 d3bc 4fe8 7dbd
00000340: f939 8cbd 20f2 8e3d 1576 f43b cd6e 11bc
00000350: 5285 05bd f640 29bd b673 9f3c 94c5 76bd
00000360: 520c b7bd a5a0 41bc ccd9 94bb b639 c0bc
00000370: 4dec c4bc 024c ce3d 2f9c 73bb 4535 30bd
00000380: 8a4a 0e3e 7df2 01be 79b5 e03b d518 2d3d
00000390: d396 9e3d 2ed5 e8bd 4c2d fc3d 84bf ac3d
000003a0: 2ca2 a6bb 6636 50bd be72 d8bd aebf 79bd
000003b0: 17d7 8e3d 395f 55bd 7d71 bbbb 1288 0b3d
000003c0: e296 2dbc bec2 c93c 6a26 243d affd 23bd
000003d0: 4b23 0dbc 9930 b13c f6cc 00bd 16c6 2bbd
000003e0: 3750 f6bc c005 bcbc 2b59 2bbd f137 1abd
000003f0: f9ea a5bd 0247 26bd f7d3 bd3d 8ec9 f03c

block_2.conv2.bias f4 [32]
0.005071769 -0.16021404 0.025437372 0.0477328 0.48284796 -0.08712548 -0.11892215 -0.11356308
-0.08548732 -0.040867344 0.19790646 0.034289468 0.07559172 0.09572167 -0.09791818 0.18240665
-0.25292227 0.013265188 0.027553122 -0.13751724 0.012789962 -0.29813948 -0.03636845 -0.15803075
0.01153552 -0.5822715 -0.060219225 -0.1026475 -0.1256432 -0.00030482575 0.14675668 -0.006825396
00000000: 1531 a63b 260f 24be 0962 d03c 7883 433d
00000010: d937 f73e d86e b2bd 758d f3bd c393 e8bd
00000020: fa13 afbd 8464 27bd fea7 4a3e 1d73 0c3d
00000030: d5cf 9a3d b909 c43d 5489 c8bd cfc8 3a3e
00000040: 077f 81be 3b56 593c 16b7 e13c 52d1 0cbe
00000050: fd8c 513c bda5 98be 15f7 14bd d0d2 21be
00000060: 7aff 3c3c bf0f 15bf 6fa8 76bd da38 d2bd
00000070: 9ca8 00be 05d1 9fb9 6247 163e 92a7 dfbb

dblock_3.denselayer1.conv1.weight f4 [48, 32, 3, 3]
0.08735427 0.08915786 0.055128705 0.020495431 0.03242455 0.09456206 0.06880631 0.048192553
0.053173393 0.024658002 0.036464475 0.016692158 0.059104923 -0.0073228665 0.020127675 0.021667797
0.025663935 0.036873613 0.02189126 -0.053016257 0.0065813535 -0.05739835 -0.035853222 -0.015224692
0.057030197 -0.041781485 0.034406982 -0.00077150064 -0.0015602643 -0.014999946 -0.031077912 0.003931069
0.018802892 0.00044207103 0.0050355745 -0.029819457 -0.045417182 -0.021503333 0.045562003 0.016974531
-0.0035863293 0.037118327 -0.042266678 -0.036561586 0.0014079214 0.052990645 0.040245444 0.10210656
-0.027765883 0.04314958 0.05648815 0.040266372 -0.027740765 0.08271286 -0.009325854 -0.05303195
-0.043574147 -0.09571877 -0.014369108 0.005224626 -0.06769873 -0.085770965 -0.13367645 -0.03254563
-0.021215567 -0.034920383 -0.036907267 -0.03445875 0.027236601 -0.040626917 0.0117523195 -0.05646305
-0.01885196 -0.060660504 -0.01823254 -0.04563611 0.1435307 0.021128995 0.0018135613 -0.042365666
0.017877314 0.038526222 0.049499404 -0.0042613596 0.029072631 -0.0775254 0.029779848 0.08913617
-0.019736417 0.034587782 -0.0589828 -0.018695546 -0.06614397 -0.085598245 0.026350072 0.065475106
-0.06938292 -0.076843165 -0.071669124 -0.15164097 -0.1241253 -0.09861585 -0.10356902 -0.07899587
-0.14707427 -0.07080358 -0.20839907 -0.12865119 0.018999219 -0.027285341 0.05981708 -0.05839194
0.08360026 -0.02197417 -0.0056541883 0.006907057 -0.035945993 0.028128054 -0.042727772 0.05818442
0.0750949 -0.037747134 0.009210051 -0.041314516 0.033704296 0.014638076 0.04951935 0.03641542
0.08047295 0.034736946 -0.01950068 -0.033792663 0.0012141827 -0.0035189523 0.097043045 0.017397577
0.049536463 -0.025918985 0.016307136 -0.055011675 0.05173062 0.027155913 0.02802487 0.018611832
0.057148483 0.070242755 0.091736786 0.05478891 -0.010857994 0.11413146 0.102077894 0.09813551
0.03768186 0.03519298 0.0354084 0.024011014 -0.056450125 0.03743047 -0.046365328 -0.07836693
-0.04282881 0.01805643 0.013887742 0.017263463 -0.021193733 -0.011991678 -0.18000372 -0.014933217
0.0004811845 0.08473851 -0.06527791 -0.05681865 -0.033284035 -0.048301354 -0.049984176 -0.052322242
-0.02804422 -0.037093326 -0.054092724 -0.11437248 -0.04823897 -0.045202803 -0.02197812 -0.03785304
-0.029604625 0.035098754 -0.030265935 -0.0735689 -0.0552294 0.0045803622 0.002161807 0.060569473
0.01833743 0.16019191 0.056757305 0.057511263 -0.044897433 0.07392003 0.00027777263 0.034869827
0.012148016 0.029559782 -0.071019225 -0.017940603 -0.021494826 0.00073206425 0.017201163 -0.010161519
-0.0441875 -0.06006102 -0.044898413 0.0016491307 0.015137204 0.009819355 -0.017466793 -0.0306828
-0.03178449 -0.039553266 -0.0034872452 -0.07648271 0.08260549 -0.0047235936 -0.046428747 -0.0309778
-0.02195287 0.0066346717 0.007288356 -0.016569544 0.001640914 -0.010568162 -0.02465806 -0.022391712
0.0003593561 0.014293969 0.011957644 0.038686123 0.008375238 0.036109775 0.09473151 0.06386955
0.029940397 0.02223256 0.019035134 -0.053846147 -0.023986315 0.022239216 0.117981195 -0.027202817
-0.10274516 -0.015876496 -0.0050828853 0.10185519 0.08436389 0.03401087 0.026302258 -0.06900343
00000000: cce6 b23d 6598 b63d a3ce 613d 09e6 a73c
00000010: 9bcf 043d c1a9 c13d 53ea 8c3d 8e65 453d
00000020: 58cc 593d 94ff c93c c65b 153d febd 883c
00000030: 0118 723d a8f4 efbb cbe2 a43c aa80 b13c
00000040: 2c3d d23c c908 173d 4d55 b33c 9327 59bd
00000050: 65a8 d73b 881a 6bbd d4da 12bd fd70 79bc
00000060: 7f98 693d 1023 2bbd 56ee 0c3d 883e 4aba
00000070: c881 ccba 55c2 75bc 1b97 febc 32d0 803b
00000080: 8608 9a3c c5c5 e739 7601 a53b ef47 f4bc
00000090: 5e07 3abd c227 b0bc 399f 3a3d 2c0e 8b3c
000000a0: 9f08 6bbb 6309 183d d31f 2dbd 9ac1 15bd
000000b0: 018a b83a b80c 593d 68d8 243d 3e1d d13d
000000c0: 4775 e3bc 9dbd 303d 1e60 673d 5aee 243d
000000d0: 9a40 e3bc 5c65 a93d 77cb 18bc 0838 59bd
000000e0: ce7a 32bd 3408 c4bd 686c 6bbc 5733 ab3b
000000f0: a2a5 8abd b0a8 afbd 7be2 08be 914e 05bd
00000100: 45cc adbc ad08 0fbd 132c 17bd 9e24 0dbd
00000110: 4b1f df3c 6968 26bd cd8c 403c cd45 67bd
00000120: 6d6f 9abc 2677 78bd 685c 95bc eeec 3abd
00000130: b6f9 123e b716 ad3c 05b5 ed3a 9f87 2dbd
00000140: 7273 923c accd 1d3d e3bf 4a3d e0a2 8bbb
00000150: ba29 ee3c a3c5 9ebd def4 f33c 068d b63d
00000160: 44ae a1bc ebab 0d3d f397 71bd 6727 99bc
00000170: 7d76 87bd 224e afbd 1bdc d73c d017 863d
00000180: a218 8ebd f35f 9dbd 43c7 92bd c547 1bbe
00000190: 6835 febd 1bf7 c9bd ff1b d4bd 96c8 a1bd
000001a0: a39a 16be 7801 91bd 9166 55be 23bd 03be
000001b0: 40a4 9b3c 8285 dfbc c102 753d 632c 6fbd
000001c0: 9d36 ab3d 2d03 b4bc c546 b9bb 9854 e23b
000001d0: 1b3c 13bd ce6c e63c 5103 2fbd c952 6e3d
000001e0: 5bcb 993d bd9c 1abd c1e5 163c 6939 29bd
000001f0: 840d 0a3d 8ad4 6f3c cdd4 4a3d 5628 153d
00000200: 01cf a43d 5448 0e3d e4bf 9fbc 2d6a 0abd
00000210: 3625 9f3a 399e 66bb 81be c63d 5d85 8e3c
00000220: bfe6 4a3d 0d54 d4bc 8b96 853c ec53 61bd
00000230: 7de3 533d 1476 de3c 6a94 e53c d777 983c
00000240: 8714 6a3d 6fdb 8f3d 7fe0 bb3d 566a 603d
00000250: bae5 31bc c1bd e93d 370e d13d 45fb c83d
00000260: 4b58 1a3d 8426 103d 6608 113d bfb2 c43c
00000270: 3f38 67bd b150 193d 92e9 3dbd d77e a0bd
00000280: 436d 2fbd 14eb 933c 6989 633c 1b6c 8d3c
00000290: 7b9e adbc be78 44bc e552 38be 74aa 74bc
000002a0: 7e47 fc39 628b ad3d 6db0 85bd acba 68bd
000002b0: d754 08bd a4d7 45bd 35bc 4cbd d94f 56bd
000002c0: febc e5bc 2cef 17bd 5590 5dbd 1e3c eabd
000002d0: 3a96 45bd 9326 39bd 750b b4bc ca0b 1bbd
000002e0: 6685 f2bc b6c3 0f3d 44f0 f7bc 4bab 96bd
000002f0: 3938 62bd dd16 963b 1aad 0d3b b217 783d
00000300: 6138 963c 5909 243e 597a 683d ee90 6b3d
00000310: 5fe6 37bd 6263 973d 03a2 9139 aad3 0e3d
00000320: 7908 473c 5b27 f23c 8772 91bd 2cf8 92bc
00000330: eb15 b0bc 00e8 3f3a 74e9 8c3c 807c 26bc
00000340: f4fd 34bd 8b02 76bd 66e7 37bd a527 d83a
00000350: 0902 783c 5ce1 203c 8516 8fbc 7f5a fbbc
00000360: 7430 02bd 9b02 22bd 448a 64bb f8a2 9cbd
00000370: 112d a93d 60c8 9abb 122c 3ebd 28c5 fdbc
00000380: 81d6 b3bc a967 d93b 29d3 ee3b dabc 87bc
00000390: f013 d73a 1626 2dbc b3ff c9bc d36e b7bc
000003a0: f667 bc39 4031 6a3c fee9 433c 5775 1e3d
000003b0: 4b38 093c d8e7 133d 9802 c23d 0ace 823d
000003c0: 9045 f53c 0f21 b63c 92ef 9b3c c78d 5cbd
000003d0: f37e c4bc 042f b63c 20a0 f13d 71d8 debc
000003e0: 0e6c d2bd 6d0f 82bc 558e a6bb 7499 d03d
000003f0: fac6 ac3d fb4e 0b3d d577 d73c ac51 8dbd

dblock_3.denselayer1.conv1.bias f4 [48]
0.0020457553 0.047362827 -0.03872292 -0.007893707 -0.0013366152 0.013320692 0.09990855 0.043804307
-0.027071152 0.0143962195 -0.08042155 -0.017389629 0.17436765 0.07425261 -0.017659117 -0.03249884
-0.02707129 -0.027070872 -0.016129816 -0.042922493 -0.02707117 0.028363604 0.011249169 -0.042076595
0.024793165 0.064824484 -0.024693599 -0.045830823 0.053968396 -0.027070036 0.03262227 0.007873029
-0.030961836 -0.020567488 -0.027071277 -0.027070897 -0.0404438 0.13613744 0.029461518 -0.010089729
0.020239595 0.055242646 0.06180492 0.021817422 0.07580677 -0.030315254 -0.010048849 -0.027071023
00000000: 1412 063b 86ff 413d ed9b 1ebd 9b54 01bc
00000010: 5d31 afba 083f 5a3c db9c cc3d 256c 333d
00000020: 52c4 ddbc 1fde 6b3c 0eb4 a4bd b274 8ebc
00000030: 6f8d 323e c111 983d daa9 90bc 811d 05bd
00000040: 9cc4 ddbc bcc3 ddbc ad22 84bc 7fcf 2fbd
00000050: 5cc4 ddbc ca5a e83c 6f4e 383c 8258 2cbd
00000060: 091b cb3c b3c2 843d 3b4a cabc 1ab9 3bbd
00000070: f70d 5d3d fbc1 ddbc ee9e 053d e1fd 003c
00000080: ada3 fdbc 267d a8bc 95c4 ddbc c9c3 ddbc
00000090: 66a8 25bd 9d67 0b3e 4859 f13c 644f 25bc
000000a0: 82cd a53c 1d46 623d 2827 7d3d 73ba b23c
000000b0: 9440 9b3d b257 f8bc eda3 24bc 0dc4 ddbc

dblock_3.denselayer1.conv2.weight f4 [48, 48, 3, 3]
0.029307388 -0.0388116 -0.038083673 -0.06367276 -0.0018140271 0.008788297 -0.043259826 0.013210474
-0.05686081 0.014369482 0.022326756 -0.026190737 0.014174332 -0.017550986 -0.01734006 -0.0066484925
-0.027041888 0.034439124 0.0046075545 0.030677358 -0.057851106 -0.03922988 0.04339709 -0.04048269
-0.009875034 -0.048998743 0.04465612 0.0550535 0.0037062543 0.006517374 0.018942364 0.04374924
0.034295492 -0.0014014376 0.07264154 -0.006606222 0.008057593 0.04727796 -0.006087745 0.019456146
-0.022821171 0.07705137 0.023167277 0.0806342 -0.022719067 -0.026831761 -0.01603607 -0.021050753
-0.019010644 -0.033852592 -0.038341615 -0.033058792 -0.019196115 0.0083960425 -0.009601244 -0.023797037
-0.021660166 -0.0074996594 0.0015567718 0.01041586 -0.017050356 -0.033222325 -0.010789525 0.0043756645
-0.014899018 -0.067141615 0.014224319 0.0033013073 -0.03183943 0.046303198 0.019245168 -0.0002270417
0.0058321427 0.006930461 0.005873893 0.006654733 0.0068389955 0.005819654 0.0044346056 0.002820276
0.00211311 0.0024942742 -0.052187067 -0.029756194 -0.013864839 -0.00043633077 -0.018617496 -0.041587476
0.0044258633 0.014414637 -0.0246355 -0.04955414 -0.01955545 -0.030684313 0.010394598 -0.05858533
-0.010414886 -0.021332862 0.004347552 -0.03245569 -0.023129981 0.023140404 -0.05036149 -0.08520349
-0.022936132 -0.0015581346 -0.08883584 -0.07648392 0.0064299777 0.0053550117 -0.02173817 0.0070421384
0.005132446 -0.02249026 -0.00032921473 -0.02487373 -0.022239823 -0.044796865 0.018174184 -0.023400754
-0.011788474 -0.041698735 -0.020724498 -0.044209626 -0.027532846 0.00014898485 0.083928116 0.0815575
0.0020392605 0.0034952448 0.11012384 -0.011544246 -0.015072845 -0.015252243 0.022932086 0.033211052
0.06371234 0.054486267 0.06366132 0.07333007 0.037402626 0.07280234 0.05532497 0.041613936
0.005832153 0.0069304598 0.0058738724 0.00665474 0.006838952 0.0058196126 0.004434607 0.0028202434
0.0021131022 0.005832133 0.0069305114 0.00587392 0.0066547683 0.006839078 0.0058197333 0.004434606
0.0028203295 0.002113145 -0.009754521 -0.050837025 0.0084423255 0.0096323285 0.0889568 -0.043458045
-0.026015243 0.022530187 0.048251577 0.022359367 0.054486867 -0.05601033 -0.04676443 0.07290643
0.041516945 0.02059631 -0.07078915 0.014436165 0.005832142 0.0069304523 0.0058738957 0.006654745
0.0068389764 0.0058196583 0.0044345967 0.0028202874 0.0021130978 -0.022936739 0.044344123 0.00017943393
-0.026986884 0.007772493 0.00017536897 -0.031166371 -0.019613741 -0.047359314 -0.054703824 0.018418383
0.007934909 0.09190097 -0.07829111 0.010532815 0.017850509 0.017117985 0.011020004 0.0218545
-0.066902906 0.0016526674 0.001904005 0.012618153 -0.009275322 -0.0066261194 0.012910984 -0.022730123
0.0031403059 -0.003411298 0.002274828 -0.017528446 -0.02750254 0.007013603 0.0010680449 0.0114604
-0.014950078 -0.029229965 -0.035831258 -0.03349369 -0.026974872 -0.042487457 -0.027619835 -0.020660246
-0.017767284 0.0267723 -0.0031361356 0.010598453 0.04882102 0.02408033 0.048834015 0.056612574
0.010065009 0.047823608 0.008424108 0.00026868036 0.040248405 -0.009370333 0.031861976 0.051851634
0.024588183 -0.0018102165 0.0057156957 0.013236469 0.023150675 -0.0144185675 0.0014823511 0.021427343
00000000: 0c16 f03c eaf8 1ebd a0fd 1bbd dd66 82bd
00000010: a6c4 edba cafc 0f3c 3731 31bd be70 583c
00000020: e1e6 68bd fa6d 6b3c 9ae6 b63c f58d d6bc
00000030: 753b 683c 16c7 8fbc be0c 8ebc 99db d9bb
00000040: f386 ddbc 0a10 0d3d f8fa 963b 154f fb3c
00000050: 48f5 6cbd 83af 20bd 26c1 313d 2dd1 25bd
00000060: e5ca 21bc e8b2 48bd 56e9 363d c77f 613d
00000070: a1e4 723b b28f d53b 042d 9b3c 6732 333d
00000080: 6e79 0c3d 71b0 b7ba 16c5 943d 0279 d8bb
00000090: ff03 043c 89a6 413d b57b c7bb 7f62 9f3c
000000a0: 77f3 babc 1ccd 9d3d 4dc9 bd3c 8b23 a53d
000000b0: 561d babc 48ce dbbc 145e 83bc a172 acbc
000000c0: 36bc 9bbc 04a9 0abd 190c 1dbd a868 07bd
000000d0: 2c41 9dbc 8e8f 093c 894e 1dbc 01f2 c2bc
000000e0: a970 b1bc b4bf f5bb 980c cc3a 49a7 2a3c
000000f0: 30ad 8bbc 2214 08bd 8cc6 30bc bc61 8f3b
00000100: 031b 74bc 8b81 89bd 1e0d 693c bf5a 583b
00000110: 106a 02bd 6ca8 3d3d 0ba8 9d3c 0b12 6eb9
00000120: 8f1b bf3b ec18 e33b c979 c03b f20f da3b
00000130: a719 e03b ccb2 be3b 2b50 913b 61d4 383b
00000140: 1a7c 0a3b fa76 233b 1bc2 55bd 43c3 f3bc
00000150: 5a29 63bc 53c3 e4b9 b883 98bc a157 2abd
00000160: d506 913b 5f2b 6c3c 63d0 c9bc 48f9 4abd
00000170: c032 a0bc ab5d fbbc 1b4e 2a3c 2cf7 6fbd
00000180: 33a3 2abc 41c2 aebc e975 8e3b 42f0 04bd
00000190: 167b bdbc f290 bd3c da47 4ebd 2b7f aebd
000001a0: 8ee4 bbbc 523a ccba 91ef b5bd 9aa3 9cbd
000001b0: 90b2 d23b 1879 af3b 3f14 b2bc bdc1 e63b
000001c0: 142e a83b 7e3d b8bc 749a acb9 fec3 cbbc
000001d0: 4a30 b6bc eb7c 37bd 07e2 943c f0b2 bfbc
000001e0: 7224 41bc 4bcc 2abd 6cc6 a9bc 2715 35bd
000001f0: 908c e1bc d138 1c39 81e2 ab3d 9e07 a73d
00000200: 1da5 053b 7a10 653b 9c88 e13d 1424 3dbc
00000210: 18f4 76bc 8be4 79bc 12dc bb3c 5008 083d
00000220: 9e7b 823d fe2c 5f3d de60 823d 132e 963d
00000230: 7f33 193d 6519 953d 709c 623d 6073 2a3d
00000240: a51b bf3b e918 e33b 9d79 c03b 0110 da3b
00000250: 4a19 e03b 73b2 be3b 2e50 913b d5d3 383b
00000260: f97b 0a3b 7a1b bf3b 5819 e33b 037a c03b
00000270: 3e10 da3b 581a e03b 76b3 be3b 2c50 913b
00000280: 47d5 383b b17c 0a3b 6dd1 1fbc 7c3a 50bd
00000290: ae51 0a3c ead0 1d3c fc2e b63d 1001 32bd
000002a0: eb1d d5bc 3a91 b83c 72a3 453d fe2a b73c
000002b0: 9f2d 5f3d 166b 65bd 0f8c 3fbd f74f 953d
000002c0: ac0d 2a3d 98b9 a83c e7f9 90bd aa85 6c3c
000002d0: 8e1b bf3b d918 e33b cf79 c03b 0c10 da3b
000002e0: 7e19 e03b d5b2 be3b 1850 913b 92d4 383b
000002f0: e67b 0a3b d4e5 bbbc 2fa2 353d 6e26 3c39
00000300: 9913 ddbc 66b0 fe3b 40e3 3739 9e50 ffbc
00000310: ffac a0bc d7fb 41bd 1e11 60bd 26e2 963c
00000320: 6c01 023c 9336 bc3d 1757 a0bd d491 2c3c
00000330: 3b3b 923c 043b 8c3c 3f8d 343c 3508 b33c
00000340: 6404 89bd 519e d83a ce8f f93a 5fbc 4e3c
00000350: 85f7 17bc eb1f d9bb 9888 533c 8634 babc
00000360: 97cd 4d3b 1590 5fbb 4815 153b d197 8fbc
00000370: 024d e1bc 5ed2 e53b a4fd 8b3a 67c4 3b3c
00000380: 2cf1 74bc ae73 efbc ccc3 12bd ae30 09bd
00000390: 68fa dcbc 5407 2ebd fe42 e2bc ad3f a9bc
000003a0: b28c 91bc 9551 db3c a087 4dbb 22a5 2d3c
000003b0: 8df8 473d 1d44 c53c 2d06 483d 96e2 673d
000003c0: b5e7 243c b0e2 433d 4505 0a3c abdd 8c39
000003d0: 83db 243d 0686 19bc b481 023d 6162 543d
000003e0: 286d c93c c944 edba bb4a bb3b c6dd 583c
000003f0: 7ca6 bd3c db3b 6cbc 734b c23a 6588 af3c

dblock_3.denselayer1.conv2.bias f4 [48]
0.017827818 0.053914238 0.05082445 0.001267617 -0.007286268 -0.03550961 0.00042926596 -0.00031775847
-0.00733457 -0.07556853 0.001602789 -0.07892088 0.02939693 0.015415458 0.03226845 -0.00019870843
0.060479347 -0.102386974 0.012451677 -0.014615595 -0.031325486 -0.0011905796 0.0004528206 0.061026108
-0.0315984 -0.06139719 0.00047004403 0.0027677212 -0.0007435264 -0.00059178256 0.0018564181 -0.03823695
-0.08650128 -0.024188817 -0.025033616 0.06486387 -8.618335e-05 0.026421154 -0.012689878 -0.036778476
0.029466258 0.014705258 -0.07688779 -0.022061544 0.0007950316 0.045503907 -0.0062806853 -0.055711005
00000000: a50b 923c 2dd5 5c3d 4c2d 503d 2b26 a63a
00000010: a5c1 eebb 8672 11bd 1a0f e139 d298 a6b9
00000020: d556 f0bb acc3 9abd ad14 d23a 45a1 a1bd
00000030: d5d1 f03c 1e91 7c3c ec2b 043d 635c 50b9
00000040: 31b9 773d 43b0 d1bd 1e02 4c3c 4076 6fbc
00000050: 274f 00bd 390d 9cba 8d68 ed39 83f6 793d
00000060: 536d 01bd 9f7b 7bbd 3e70 f639 a862 353b
00000070: 36e9 42ba db21 1bba 0e53 f33a 599e 1cbd
00000080: 9527 b1bd a027 c6bc 4c13 cdbc 59d7 843d
00000090: 55bd b4b8 2d71 d83c 35e9 4fbc 07a5 16bd
000000a0: 3963 f13c 53ee 703c 5877 9dbd 69ba b4bc
000000b0: ab69 503a 4e62 3a3d 35ce cdbb 3931 64bd

side_1.conv.weight f4 [32, 16, 1, 1]
0.07936859 -0.0011227113 -0.10162163 0.061924387 0.061098486 0.06751685 -0.038451176 0.15581235
-0.09999715 0.06910636 0.11947815 0.13431253 0.09136972 -0.21401553 -0.0030105773 -0.083082035
0.123366594 -0.09108875 0.04208325 -0.022170233 0.032734584 0.06604952 0.04324419 -0.055110518
-0.064544655 0.011699621 -0.12878905 0.04035042 0.08042542 0.18356408 -0.047635905 -0.03860923
0.018531332 0.0729552 0.04502252 -7.872098e-05 0.060490195 0.087064244 0.05562112 -0.074442714
0.010203812 -0.11045152 0.15592389 0.010476676 -0.05620789 -0.07909273 0.038350597 0.1573456
0.005313126 -0.12486316 -0.05428873 -0.024717402 0.052050464 -0.09361167 -0.08441326 -0.06406973
-0.07464548 0.09499702 0.020599972 0.13577586 -0.045567643 0.1151232 0.09188835 0.14355996
-0.037910316 0.036363225 -0.05784981 0.024989927 -0.06791597 0.28189802 -0.089979306 0.03792583
-0.06342882 0.11977841 0.14273277 0.19276227 -0.033840854 -0.15123281 -0.19880445 -0.107307285
0.13712022 -0.13174544 0.13121827 0.07594025 0.13992839 0.02745987 0.06988554 0.15656653
0.0077383867 -0.066743076 0.024047002 -0.14208752 -0.11613719 -0.045878533 0.024230085 -0.011562006
-0.076232724 -0.015578776 -0.05305304 0.10038186 0.12933636 0.048241287 -0.14063202 0.004776412
0.07820723 0.04299485 0.32116342 0.055438317 -0.036904473 -0.1202226 -0.006545885 0.14121957
-0.04511833 0.10884256 -0.01285392 -0.09944539 0.04374459 0.15714148 -0.09506824 -0.0069719036
0.12196915 0.23797683 -0.043248963 0.15136215 0.119565934 0.078018926 -0.097004496 0.017843027
0.24875613 0.05187991 0.27883485 -0.076380335 -0.033836886 0.110366404 0.014489501 -0.091004506
0.08178471 -0.20783085 -0.076358244 -0.023821523 -0.024176857 -0.020400211 0.2736475 0.09230539
0.03878558 -0.10958602 -0.11368486 0.1336925 -0.037846815 -0.03013038 -0.12240333 0.024621585
-0.14257675 0.001588239 0.069391415 -0.11091876 0.1254829 0.24239701 0.07280441 -0.115489006
0.057386663 -0.10534245 0.009142543 0.049287505 -0.04241106 0.17107911 -0.28051656 -0.096760064
-0.0791262 0.07714554 0.22264574 0.010386421 0.14533411 -0.032855943 0.14669165 -0.015418438
-0.045252208 -0.10437418 -0.14725979 0.0821444 0.11337039 -0.119781666 0.15030953 -0.22210678
0.031177081 -0.12211225 0.27210698 -0.3415757 -0.0968886 -0.07248747 -0.0982804 0.036839522
-0.087096915 -0.17007409 0.21972017 -0.33219954 0.2312835 -0.007324992 -0.047239747 -0.07837199
-0.07464401 0.02943275 0.014547324 0.023877913 -0.08490459 0.12798692 -0.06658567 0.0801037
-0.20702982 0.11961264 0.14525068 -0.10422136 -0.09280907 0.11736557 0.12514369 -0.13515382
-0.27707863 0.14934818 -0.102539726 0.09645206 -0.18278408 -0.17292798 -0.0005163655 -0.07968261
-0.07200675 0.07492696 -0.005767099 0.100749284 -0.0029541827 0.14094585 0.12764409 0.07132522
0.10120672 -0.054027382 -0.045509264 -0.0561851 0.021557704 0.21485896 -0.17973141 -0.020655166
0.05351361 0.062121876 0.042292107 0.08061656 0.040967785 0.19054459 0.109593235 -0.22623628
-0.066315286 -0.10865767 0.099815115 0.17521775 0.1146863 -0.16737954 -0.059323978 0.26426828
00000000: 008c a23d f127 93ba 001f d0bd 6da4 7d3d
00000010: 6842 7a3d 4646 8a3d fb7e 1dbd 468d 1f3e
00000020: 4ecb ccbd a387 8d3d f6b0 f43d 3989 093e
00000030: 0c20 bb3d e326 5bbe 1b4d 45bb ea26 aabd
00000040: a0a7 fc3d bd8c babd 7c5f 2c3d 599e b5bc
00000050: b314 063d f944 873d d220 313d 91bb 61bd
00000060: fd2f 84bd c4af 3f3c 47e1 03be 7b46 253d
00000070: 15b6 a43d 39f8 3b3e de1d 43bd b624 1ebd
00000080: 05cf 973c 8969 953d 8969 383d 0117 a5b8
00000090: 91c4 773d bd4e b23d f9d2 633d 6c75 98bd
000000a0: e42d 273c 6834 e2bd 83aa 1f3e 5da6 2b3c
000000b0: 3f3a 66bd 5ffb a1bd 8415 1d3d 341f 213e
000000c0: bb19 ae3b 42b8 ffbd dc5d 5ebd 267c cabc
000000d0: de32 553d 7ab7 bfbd dce0 acbd fe36 83bd
000000e0: bbdf 98bd cc8d c23d 46c1 a83c d408 0b3e
000000f0: 23a5 3abd b6c5 eb3d f62f bc3d 6201 133e
00000100: d947 1bbd 9bf1 143d ecf3 6cbd adb7 cc3c
00000110: 8717 8bbd f054 903e 1247 b8bd 1d58 1b3d
00000120: f8e6 81bd 624e f53d 8a28 123e 7963 453e
00000130: b59c 0abd c6dc 1abe 6593 4bbe ecc3 dbbd
00000140: 3e69 0c3e 47e8 06be 155e 063e 9086 9b3d
00000150: 6349 0f3e 85f3 e03c 2620 8f3d fa52 203e
00000160: 4b92 fd3b 98b0 88bd 38fe c43c 647f 11be
00000170: 56d9 edbd 21eb 3bbd 2c7e c63c 916e 3dbc
00000180: e71f 9cbd 1f3e 7fbc 254e 59bd 0195 cd3d
00000190: c070 043e a898 453d d701 10be 7383 9c3b
000001a0: 1d2b a03d 5e1b 303d 886f a43e 4a13 633d
000001b0: 2529 17bd 4437 f6bd dd7e d6bb dd9b 103e
000001c0: ffcd 38bd d9e8 de3d 4099 52bc 06aa cbbd
000001d0: 872d 333d b2e9 203e 23b3 c2bd 9174 e4bb
000001e0: f6ca f93d 33b0 733e d325 31bd aefe 1a3e
000001f0: fcde f43d 63c8 9f3d 4baa c6bd 8a2b 923c
00000200: edb9 7e3e 0780 543d 71c3 8e3e 4b6d 9cbd
00000210: 8c98 0abd c807 e23d 5f65 6d3c 9260 babd
00000220: be7e a73d 9cd1 54be b661 9cbd 5b25 c3bc
00000230: 8b0e c6bc 581e a7bc 861b 8c3e 9c0a bd3d
00000240: a1dd 1e3d a36e e0bd 9cd3 e8bd b0e6 083e
00000250: 4305 1bbd fdd3 f6bc 99ae fabd 35b3 c93c
00000260: a4ff 11be 752c d03a 161d 8e3d 6029 e3bd
00000270: 977e 003e ec36 783e 7a1a 953d 8085 ecbd
00000280: 470e 6b3d c8bd d7bd 9bca 153c b2e1 493d
00000290: 38b7 2dbd 5d2f 2f3e de9f 8fbe 242a c6bd
000002a0: eb0c a2bd 7bfe 9d3d 3ffd 633e cf2b 2a3c
000002b0: 77d2 143e f493 06bd 5636 163e 9e9d 7cbc
000002c0: 615a 39bd 21c2 d5bd 45cb 16be 533b a83d
000002d0: bc2e e83d 1750 f5bd beea 193e f66f 63be
000002e0: 1467 ff3c fd15 fabd 9b51 8b3e 03e3 aebe
000002f0: 886d c6bd 5074 94bd 3c47 c9bd 0ae5 163d
00000300: de5f b2bd e727 2ebe 53fe 603e 0f16 aabe
00000310: 95d5 6c3e 7d06 f0bb 777e 41bd 7e81 a0bd
00000320: f5de 98bd f31c f13c e657 6e3c 9d9b c33c
00000330: 75e2 adbd 010f 033e 115e 88bd 690d a43d
00000340: a0ff 53be 79f7 f43d 98bc 143e 0272 d5bd
00000350: af12 bebd 5c5d f03d ab25 003e c365 0abe
00000360: 40dd 8dbe bbee 183e 5900 d2bd a888 c53d
00000370: c02b 3bbe 0814 31be b45c 07ba a330 a3bd
00000380: 4678 93bd 4e73 993d eff9 bcbb a455 ce3d
00000390: f69a 41bb 1c54 103e 22b5 023e f512 923d
000003a0: 7845 cf3d d14b 5dbd ec67 3abd 5922 66bd
000003b0: c899 b03c fd03 5c3e 830b 38be 0635 a9bc
000003c0: 1631 5b3d 8273 7e3d 7d3a 2d3d 4c1a a53d
000003d0: d6cd 273d 1f1e 433e 6b72 e03d 7caa 67be
000003e0: 4fd0 87bd ea87 debd de6b cc3d 486c 333e
000003f0: a7e0 ea3d 8b65 2bbe b3fd 72bd 2c4e 873e

side_1.conv.bias f4 [32]
0.044794083 -0.09725453 0.121395856 0.07967872 0.3172581 -0.10631164 0.044524867 -0.004288174
0.0048367525 -0.096964315 0.12428026 -0.0055008153 0.123337194 0.099576734 -0.027151968 0.060556043
-0.08879554 0.05601697 -0.08061756 0.019934319 0.05496878 -0.18957183 -0.012213477 0.0043063266
0.05562776 -0.21695282 0.03035339 -0.07515484 -0.04690035 -0.008211229 0.13789116 0.07886032
00000000: 007a 373d 622d c7bd 649e f83d 992e a33d
00000010: a76f a23e ebb9 d9bd b55f 363d d083 8cbb
00000020: 9f7d 9e3b 3a95 c6bd a686 fe3d 2f40 b4bb
00000030: 3698 fc3d e3ee cb3d ce6d debc 9d09 783d
00000040: 70da b5bd 0d72 653d d21a a5bd 4c4d a33c
00000050: f226 613d 1e1f 42be 091b 48bc 161c 8d3b
00000060: efd9 633d e128 5ebe aca7 f83c c8ea 99bd
00000070: 951a 40bd 6488 06bc 5733 0d3e 8581 a13d
