checkpoints/BIPED/6/6_model.pth (torch, 249139 bytes, 30 tensors)

block_1.conv1.weight f4 [16, 3, 3, 3]
00000000: 1fdf 33be 1b1c 9cbd 0899 4cbe c190 3ebd
00000010: 073c bfbd 5b29 00be f2c3 4bbe dc36 93bd
00000020: 2809 0ebe 1139 353e dfdb 0d3d 1eeb 26bd
00000030: 9ae8 f53c 7f2f 013e 93d4 a6bd 5a8b 2cbe
00000040: 2168 aabd c4da b0bd 2785 223e 10b4 013e
00000050: 2752 eb3d c11e 663e a982 913e d3b7 183e
00000060: 0b59 873d 4034 1d3e 77e3 a7bd 4548 ccbd
00000070: a7cc 4cbd 153c 24be d36b 0ebe c6f7 08bd
00000080: 9a3c 9ebd e08d 2abe ac0c d7bd 88de d83c
00000090: c3b3 e23e 40ac 133e 88b6 933d e30f 3a3e
000000a0: 5ac2 293e a0e1 a13c 7e43 173e a99e 493e
000000b0: b143 363e fb4a 33bc 3b6f 99be d6b5 c7bd
000000c0: 06e3 c63d 3323 a1bd 1eaa 96bd b7e6 c2bd
000000d0: fe5f e5bd 60ef ac3c 7338 093e 62d2 48bb
000000e0: bd5d 863d 6acf 25bc 98bc 02be 84f5 31bd
000000f0: 683e c4bc 4a97 05be cd26 8f3d ae7c 243d
00000100: 538a adbd ea58 af3d 2562 113c 82c3 e7bd
00000110: 9992 533e f0f9 ef3d 71f3 2dbe 1651 9c3b
00000120: 47a9 653d b151 f4bd 1f15 febc 38b5 a83c
00000130: 543c 16be 9be4 e5bd 81f4 983d 6931 8cbe
00000140: d727 8cbd b166 05bd 3a77 db3d 6f29 293e
00000150: 45a5 83bd f1eb a53e 7553 663e 6d32 70be
00000160: 88de 03bd 23c8 293e 7e1c 45be 26c0 3abe
00000170: c05f 0cbe d7c1 a2bc 601d 813d b562 f23c
00000180: a670 4fbd c06f c6bd 22e0 81be 504e d13d
00000190: 2916 bfbd ca63 e03d a885 1c3e e391 8a3c
000001a0: 8fd3 303e 421b 5bbd 36aa 31bc c1f3 d6bd
000001b0: cb2a 04be 9f68 a2bd d2e1 b6bd 7e76 5bbd
000001c0: 24ec 5b3d 5a58 8d3c 323b 1fbe a4e7 853d
000001d0: 9501 6b3d 6292 b6bd ab85 853d de59 49be
000001e0: 9a99 3ebc 8d4e 0f3e 9f25 b5bd 4ec2 233c
000001f0: 4ab2 aa3b d23f ea3d 2f19 1dbb 2f89 533e
00000200: 7a91 d73d e7d0 1ebd 3c5f 5c3e 4d46 b83d
00000210: 6de7 f03c b723 103e f3be 17bd 50c7 05bd
00000220: 96ac 893d 4f32 e13c d8e4 6dbd 0f2a 483d
00000230: 34a5 11bd ce7b 9abc 3f7b 713b a61a 2cbb
00000240: ca22 e1bd 9ab5 0ebe 71e6 54be 00c3 6cbe
00000250: b8d5 aebd 776d b8bd 034c 3bbe 21f0 c2bd
00000260: 8951 6bbe b424 3f3d d676 fc3d bf3e bc3c
00000270: 83de 3a3e 590a 343e 362c 0d3e fa37 253e
00000280: 53c1 953e 570c 3b3e 0abf bd3d 18a1 483e
00000290: 9160 4b3e d30e 97bc 916b 183e eead c33d
000002a0: c4df 053d 34c4 903e b07a 033e f65d 923c
000002b0: 41f8 2b3a 5ab3 abbd cc31 45bd b6ab ab3d
000002c0: 136e 303d 82fb e93c 368d a93d 640a b03d
000002d0: 1946 d2bd 28b9 25be bc3a 1abe 5a88 073d
000002e0: 3347 ccbd 668b 94be 4ef1 dfbd 4d20 0ebe
000002f0: 5884 80be 3be7 4bbd 4c24 9e3e b57a 1e3e
00000300: fa62 b53d c597 72bd 693f c53d ac34 4fbd
00000310: ed50 05be 4db1 47bc 2781 1ebe 41bf 7d3c
00000320: c945 153e 676c 453e 9bbe 933d 2751 7e3c
00000330: 275e 39be 8d0b 9dbe 87fc 7dbe 9648 25ba
00000340: 91a6 2a3e b19a 073d 3894 1a3e 5337 993b
00000350: 182f fd3d 94d1 013d 0d2f 4fbe 2be9 40be
00000360: 003e 733c bb0c 2b3d c5f8 b53c d1f7 8f3e
00000370: 8389 453d 3cb9 823d 9d6c 233e 9a48 cebb
00000380: 6c43 053e f615 50be f5ed 44be 475f 22be
00000390: 493b 5dbe 19a4 f8bd 1d09 baba a100 2abe
000003a0: 838d 62be b9d0 d2bc d608 09bd a9ef 533d
000003b0: 7274 903b c363 af3c ccf2 853d 802a 853e
000003c0: effc 483d 7502 b1bb 94bd 523e 351a 47be
000003d0: f177 02bd 46c9 aebd 379e a2bc ec43 a43c
000003e0: e158 043e 403d 4cbc 7df7 eb3c 0595 363e
000003f0: f40d 40be 0838 51be 55d1 a0bd 6d27 ea3d
-0.17565583 -0.07622548 -0.19980252 -0.046524767 -0.09337621 -0.12515776 -0.19898966 -0.07188198
-0.1387068 0.1769755 0.034633514 -0.04075157 0.03001814 0.12615775 -0.08146014 -0.16850033
-0.08320642 -0.08635476 0.15871106 0.12666345 0.11490279 0.22472669 0.28419998 0.14913873
0.066087805 0.15351963 -0.08197682 -0.09974722 -0.04999986 -0.16038544 -0.13908319 -0.03343942
-0.077264026 -0.16655684 -0.10500464 0.026473299 0.44277772 0.14421177 0.072125494 0.18170123
0.16578045 0.019760907 0.1477184 0.1968943 0.1779926 -0.01094317 -0.29967675 -0.09751479
0.0971127 -0.07868042 -0.07356666 -0.095166616 -0.1119995 0.021110237 0.1340044 -0.0030642976
0.06560848 -0.010120252 -0.12767255 -0.043447033 -0.023955539 -0.13045993 0.069898225 0.040157966
-0.08473649 0.08561881 0.008873497 -0.11316587 0.20661391 0.11717594 -0.16987397 0.0047704084
0.05606964 -0.11929644 -0.03101593 0.020594224 -0.14671451 -0.11225244 0.074685104 -0.27381447
-0.06843536 -0.032568637 0.107161 0.16519712 -0.06428007 0.32406572 0.22492774 -0.23456736
-0.032194644 0.16580252 -0.1924915 -0.18237361 -0.137084 -0.01986782 0.06304431 0.029588083
-0.05064454 -0.09689283 -0.25366312 0.10220015 -0.093303986 0.10956533 0.15285361 0.016915267
0.17268203 -0.053492792 -0.010843804 -0.10495711 -0.12906949 -0.07930111 -0.089297906 -0.0535798
0.053691998 0.017254043 -0.15549925 0.065383226 0.057374556 -0.08914639 0.06519636 -0.19663188
-0.011633301 0.13994808 -0.08845066 0.009995056 0.005209242 0.11437954 -0.002397131 0.206578
0.10525794 -0.038773444 0.21520704 0.08997784 0.029407227 0.14076124 -0.037047338 -0.032660782
0.06722371 0.02748981 -0.05807957 0.048868235 -0.03555794 -0.018857863 0.0036847142 -0.0026261
-0.109929636 -0.13936463 -0.20791031 -0.23121262 -0.08536857 -0.09005254 -0.18290715 -0.09518457
-0.22980322 0.046665862 0.12327354 0.022979138 0.18248944 0.17582072 0.13786396 0.16134635
0.29249057 0.18266426 0.092649534 0.19592702 0.19861056 -0.018439686 0.14884783 0.09554659
0.032684103 0.2827469 0.1283977 0.01786707 0.0006560125 -0.08383818 -0.048143193 0.08382361
0.043073725 0.028562311 0.08278887 0.08595732 -0.10267276 -0.16183913 -0.15061468 0.03308902
-0.09974518 -0.29012603 -0.10934697 -0.1387951 -0.2510097 -0.049781065 0.30887067 0.15476497
0.08856769 -0.05922677 0.09631235 -0.05058734 -0.13019152 -0.012188268 -0.15478955 0.015487493
0.14577402 0.19279633 0.072140895 0.015522278 -0.18102323 -0.30672875 -0.24803363 -0.00063050666
0.16665103 0.03310651 0.15095603 0.0046757846 0.12362498 0.03169401 -0.20232792 -0.18838947
0.014846325 0.041760188 0.02221335 0.28118756 0.048226845 0.06382987 0.15959401 -0.006295276
0.13014 -0.20320877 -0.19231398 -0.15856658 -0.21604647 -0.12140674 -0.001419339 -0.16601802
-0.22124295 -0.025734292 -0.033455692 0.05174223 0.0044084126 0.021409875 0.065404505 0.26008987
0.04906934 -0.005401904 0.20580131 -0.19443591 -0.031852666 -0.085344836 -0.019850833 0.020051919
0.1292453 -0.012465775 0.028804535 0.17830284 -0.18755323 -0.2043153 -0.07852427 0.11433301

block_1.conv1.bias f4 [16]
00000000: 935e 763d 38cd 633d 32f8 a43d 9407 8e3e
00000010: 71c1 833e b776 7d3e ed73 983e 509f 0ebe
00000020: 61b3 0f3f feab c4be 5339 d7be 4cd6 263e
00000030: 567a febe 13e6 e2be 0da5 f9be 6ef3 9ebd
0.060148787 0.055615634 0.08055152 0.27740157 0.25733522 0.24752317 0.29775944 -0.1392796
0.56133085 -0.3841247 -0.42035922 0.16292685 -0.4970271 -0.44316158 -0.48758736 -0.07761274

block_1.conv2.weight f4 [16, 16, 3, 3]
00000000: f668 41bc d001 da3c 55cf f83d 40bf 8cbd
00000010: 217d 87bd 4836 8fbd 3c02 ec3d a59c da3d
00000020: 3b19 a1bd 951b 0e3c a996 0a3d fb72 83bc
00000030: 15d0 32bc 2107 dc3c c941 e93d ddd8 a53d
00000040: 4f07 0bbe baa1 84bc 7f8e a8bc 545c 5b3d
00000050: ac6b 6e3e 17aa 12be 515b 3abe 367f 413e
00000060: 50c2 1bbe 003b 7fbe 9c59 363e a41d c23d
00000070: fdae 033e 8a0e 503d 4316 d7bd 101c 92be
00000080: 172c 0cbe 9544 863d a636 eabc add9 cc3d
00000090: aaba 8a3d 23e0 1fbd f7c5 1bbd 3c79 c53d
000000a0: 27c1 e2bc 8dc7 2ebe 2417 c73d 6dd2 0a3e
000000b0: 70d8 09be 104a 263c 7ba0 48bd 21be a43a
000000c0: b422 883d 28e9 023d a506 68be 93b2 0a3e
000000d0: b9a3 f33d 6841 0dbd 04b8 ff3b dfcd 58bd
000000e0: 16c5 b23d dcc7 a03d 8384 1a3d a4ef 7fbd
000000f0: 1528 03bd 939f da3d 66f8 b1bd f6e5 c33c
00000100: 7477 f3bd a975 9ebd cca2 d8bd b067 5cbe
00000110: 0719 033d dddf aebd 8522 45bd 3c72 913d
00000120: 05b5 3ebd 20cb 493d 6488 8b3d 1510 d43d
00000130: 32ac 43be c56a 73bb ddbf c13d eb28 03be
00000140: f9fe 0a3e a50f 4bbd 2a05 97bd 90d8 f6bd
00000150: f2dd 0b3d 9645 01bb 2dc6 1cbe f7b8 9dbc
00000160: 4863 e53d f1e8 193d 5de0 82bd 71ee 683d
00000170: 7b72 98bc 4f1a 46be b620 823d 8eef 4cbe
00000180: 7cb2 7dbe 37dd 393e bd07 16be 3c2b f5bb
00000190: bf1f 33b9 d661 963d 8bdd b4bb 314f e2bc
000001a0: 9ae6 e43d e20b 7ebc 2b88 2ebe 48ed 8f3d
000001b0: 2f19 973d f649 cb3d a818 4e3d 4ee1 5b3d
000001c0: ccd4 6b3e d4e6 523d ed49 863c cc07 2e3d
000001d0: 0b7f a13e 719a 223d feff d43d 7642 4dbd
000001e0: 1c6f 3bbd 7fc9 f33c 86cf 423e 8735 0bbe
000001f0: 6f36 84bd 0645 99bd 569d cbbc 1ff2 2fbd
00000200: 2164 acbd 677d e0bc e21d c03d cc57 1b3e
00000210: a02c 90be ec2f 9bbe 8b6c a0bd 1200 7d3d
00000220: 8fc4 673d 6314 79bd 27e7 fcbb c2c5 983d
00000230: 19a6 133e 0903 d6bd d437 923d 17d0 52bd
00000240: 93bc 1b3d f533 a6bc 93ab 8ebd 9c31 16bd
00000250: 1b9b c13c 63f9 d83c 203f 7abd bb47 053d
00000260: ba11 c83d 995c ebbd 2388 d23a 2850 bebc
00000270: 6c67 2dbd f880 0fbc 9f91 ff3d 3a9b a4bd
00000280: 53e2 eebc 601b 253e 8f83 a93c 10a9 5fbd
00000290: cc7a 4e3b 2761 463d 50c4 6e3c 26d2 8f3d
000002a0: 2882 a53d dc91 943c c212 e43c 24ed 9d3b
000002b0: abba 823b 77b9 b8bc 092b 563d 512f af3c
000002c0: 9397 c2bd 1465 133d ebad 373d bf90 ac3a
000002d0: 9711 26bd ddfd 40bc 1ff3 f5bc fb78 da3c
000002e0: 8f52 413e 2095 6a3d adc2 a7bd b4e6 df3c
000002f0: eb47 1abd 0ef1 8bbc 892f 083c e625 8d3d
00000300: c820 87bc 4fa9 4e3d 0712 803d 2544 71bd
00000310: 1005 b73c 79c0 923d 6ccc 95bd 9988 503d
00000320: 1501 013e 074f 8a3c 5c27 3c3e c36d a6bc
00000330: 9715 abbd 85d9 923c 275e 98bc 6cf3 863e
00000340: 8cc8 e5bd 3cc0 36be 4493 513d e81f 68be
00000350: 7add 1bbe 8d32 533d 0fca 8bbb 84d7 dd3b
00000360: ad88 0e3d 516f 153e fee3 6f3d e178 453e
00000370: 29a4 acbc d844 e0bc 775e c73c 5518 c6bd
00000380: e47a f9bd 8af1 a6bd 1c4e a13d 5cda 873d
00000390: a589 1d3d 6f31 acbd 18cb 62bc c0c5 5a3c
000003a0: 4010 953d 3aa6 fb3d aac6 863e 43ee afbd
000003b0: 2fe0 95bd 7536 08be a134 7fbe c3c2 92bd
000003c0: d491 0ebe d409 19be d1e1 b93d cdb3 64bd
000003d0: 55aa 27bd 3f96 86bc 977f 2cbd ac57 2abd
000003e0: cf13 07bc 6e82 58bd d539 823c f97b 753c
000003f0: b34a 0d3e 351a 27bd 8841 71bd bc80 063c
-0.01180481 0.026612192 0.121489204 -0.068724155 -0.06615663 -0.06992775 0.11523864 0.10674409
-0.078661405 0.008673568 0.033835087 -0.016046038 -0.010913868 0.026858868 0.11389501 0.08098004
-0.13577007 -0.016190398 -0.02057576 0.053554848 0.23283261 -0.14322697 -0.18198897 0.18896183
-0.15210843 -0.2492485 0.17807621 0.0947831 0.12859721 0.050795116 -0.10502293 -0.28537035
-0.13688694 0.0655605 -0.028590512 0.10002456 0.067738846 -0.039032113 -0.03803059 0.09642264
-0.027679993 -0.1706831 0.097212106 0.13556834 -0.1346147 0.010149494 -0.04898117 0.001256887
0.06647244 0.031960636 -0.22658785 0.13544683 0.11896462 -0.034486204 0.007803919 -0.05293071
0.087289974 0.0785062 0.03772403 -0.0624844 -0.032020647 0.106749676 -0.08689956 0.023913365
-0.11888018 -0.07737286 -0.10577926 -0.21523929 0.03200629 -0.08538792 -0.048128624 0.071018666
-0.046559352 0.04926598 0.06813124 0.1035463 -0.19108656 -0.0037142497 0.09460423 -0.12808578
0.13573827 -0.049575467 -0.07374032 -0.12053025 0.03414721 -0.0019725314 -0.15309973 -0.019253237
0.11200577 0.037575666 -0.0639045 0.05686802 -0.018609276 -0.19345973 0.06353895 -0.20013258
-0.24775118 0.18150793 -0.1465139 -0.0074819606 -0.00017082597 0.073428795 -0.005519574 -0.027625652
0.11176796 -0.015505763 -0.17044131 0.0702768 0.0737785 0.09926216 0.050316483 0.053681664
0.23030394 0.051489666 0.016392672 0.042487904 0.3154224 0.039698068 0.10400389 -0.05011221
-0.04576026 0.029759167 0.19024476 -0.13594638 -0.06455695 -0.07483868 -0.024855297 -0.042955514
-0.084175356 -0.027403546 0.093807 0.1517021 -0.28159046 -0.3031 -0.07833203 0.061767645
0.056583937 -0.060810458 -0.007717985 0.07459594 0.1441883 -0.10449798 0.071395546 -0.05146798
0.038021635 -0.020288447 -0.06966319 -0.036668405 0.02363353 0.026486104 -0.061095357 0.03253911
0.09769006 -0.11492271 0.00160623 -0.02323158 -0.04233496 -0.008758776 0.12478947 -0.080374196
-0.029160654 0.16123724 0.020692615 -0.05460459 0.0031506298 0.048432495 0.014573172 0.070225045
0.08081466 0.018135957 0.027840976 0.004819529 0.0039895377 -0.022549374 0.052287135 0.021384867
-0.09501567 0.035985067 0.044843595 0.0013165696 -0.04054412 -0.011779276 -0.030023156 0.026669016
0.1887915 0.057271123 -0.08191428 0.027331688 -0.037666243 -0.017082717 0.0083121145 0.06891994
-0.016495124 0.050454434 0.062534384 -0.05890288 0.022341281 0.071656175 -0.07314381 0.05091152
0.12598069 0.016883386 0.1837439 -0.02031601 -0.08353727 0.017925987 -0.018599583 0.2635759
-0.11219892 -0.17846769 0.051165834 -0.22668421 -0.15221205 0.05156188 -0.0042660306 0.006770076
0.034798313 0.14593245 0.05856704 0.19284393 -0.021074371 -0.027376577 0.024337037 -0.0967261
-0.12181643 -0.08151539 0.07876226 0.066334456 0.038461346 -0.08407866 -0.013842367 0.013352811
0.0727849 0.122875646 0.26323444 -0.08590367 -0.0731815 -0.13302024 -0.2492242 -0.07166054
-0.13922817 -0.14945155 0.09076274 -0.055835534 -0.040933926 -0.016429065 -0.042113867 -0.041587517
-0.008244469 -0.052858762 0.015896717 0.014983171 0.13798027 -0.040796477 -0.058900386 0.008209404

block_1.conv2.bias f4 [16]
00000000: 938d 51bd 2b9d 04bc 0b08 8b3e 2a03 913d
00000010: f1d7 2bbe 0b73 da3f 100e afbe 08aa 413d
00000020: da9b 6ebd 5846 fb3e 69b2 643f 0903 883e
00000030: 5f54 de3b 8bce 38be fecc 0bbe 07b6 10be
-0.051160406 -0.008094112 0.27154574 0.070806816 -0.16781594 1.7066358 -0.34190416 0.047281295
-0.0582541 0.49077106 0.8933473 0.26564816 0.00678496 -0.1804754 -0.13652417 -0.14131938

block_2.conv1.weight f4 [32, 16, 3, 3]
00000000: 7703 8dbd 926c cfbd 70eb d5bd 3576 14bc
00000010: 331b d5bd 3f00 a73d 3d76 1b3d 11c5 87bd
00000020: 35ee a73c 3ebf bd3c b932 aebd 0d0e 22bd
00000030: 068e 483d d852 bcbd 661a b0bd 61b8 8b3d
00000040: 0975 183d caec d0bd e4f0 e1bb 165b e83d
00000050: ef34 893d fcaf c1bd 0802 81bd c5d4 95bd
00000060: 0035 acbd ce4d 733d 1905 70bd bf95 60bd
00000070: 3861 67bd f2b1 b6bd 5839 01bd 420f 59bc
00000080: fd23 d83c 2278 9c3d fead d3bc 5b9a 7f3d
00000090: e36c 663d 85a8 833d 6dd6 453c c890 a23d
000000a0: 3d8f 0fbd 9e59 fdbc d432 403a bff6 80bd
000000b0: 8818 4dbd 31aa bdbb e0d3 3dbc 43db 58bd
000000c0: e7cf 19bd a01b d2ba fe09 51bd 6231 d7bc
000000d0: a6f6 c03c f2ed 9fbc d909 323d df75 9abc
000000e0: b1ef fabc 9ce3 e3bd 90de fe3c 2968 34be
000000f0: 7239 93bc e771 8ebb 40d1 6ebd 2356 bebb
00000100: 618e 41bd 6e66 a8bd 7d99 313c e319 c2ba
00000110: cfd4 1dbd 7207 273d 7786 db3c 7c54 363d
00000120: c881 e6bd 283e 5f3d 0e92 2e3d 6942 7ebd
00000130: b257 923d b95a d5bc c966 6fbc 6dcf 633d
00000140: 09bf 643d a60e 04bd 2bdd 1cbc 6ec4 0f3d
00000150: fd0f 4bbc ef17 2ebc 37db acbc e463 5d3c
00000160: 4d3c 103d 8614 9cbc c5c3 883c 6463 f53d
00000170: bf56 3d3e b2c1 3abb bb5f 233d 95ea f23d
00000180: ca85 9cbd 5718 9dbd 0cf0 183e 7ac8 4cbd
00000190: 3829 2b3c e570 363d 99fd 36bd f66a 103d
000001a0: 7e92 a13d fa68 38bd 9db3 e1bc cde1 ce3c
000001b0: 49d4 67bd 5b9f a53d 8f6e 89bc 4e15 0c3d
000001c0: 73aa c13d 943e 9a3d 84b1 03ba f21c 8cba
000001d0: fa0b 143e b927 043d e6ff 713d 7473 703c
000001e0: ad38 633d 5bc7 b13d 144b 093d 559a 68bd
000001f0: c0d7 57bc 67ea d8bd 263a 8d3c d1a1 e9bc
00000200: f096 adbc c5f3 893d 8e7b 773d 31f1 aebc
00000210: 93ad 1abb 8e10 8cbd 4cae 50be db73 763d
00000220: 3481 3a3c 3dbb a93b 6d22 603d fb8c 1f3d
00000230: 4f92 c73c 7bfa 6b3d 45f9 943c a832 143d
00000240: 65dc 5ebd 969f 0a3d c5d7 813a 73fc 9dbd
00000250: 0c02 a9bc 129f 44bc 6e4f d1bd 4f22 ccbd
00000260: 2e4b 6dbd ea62 103d faa8 c5bc 1237 6dbd
00000270: 7445 62bd 0d75 ddbc 3fc8 d4bc 72d9 303d
00000280: cfc7 e03c ca03 f53c afb3 7cbd 1168 8d3c
00000290: 66be 8dbd 2df9 8fba af48 213d 8fac d83c
000002a0: 61f9 85bd 1a8e 35bd 9c42 94bd 58b9 723d
000002b0: fbd0 6fbb 91a8 873c a3d8 34ba 03e1 c4bb
000002c0: cc81 c33c 00c6 13bd 2876 fa3a f07c 283c
000002d0: d6c6 6fbc aea6 4bbd 1f21 cbbc 06da 34bd
000002e0: 6c83 37bd 99bb 78bd 25dc d5bd 75b0 afbd
000002f0: a609 1cbe 998c 31be ebd1 063d dc1c ccbd
00000300: 08a3 62bd a41d 103e b81a 353b de90 053d
00000310: 8e97 ca3e 2059 093e 7d03 5c3d 9c0f 30bc
00000320: 3ac1 2fbd fdf6 113d da4b 05bd c4c4 90bc
00000330: 38ca b13d 13c2 c4bd 95fa c5bd af62 aaba
00000340: f3fd 42bc 24dd a93b f187 433c 22a1 9c3d
00000350: b30d 823d d4a6 973c 3a09 713d 50b0 803d
00000360: 64b4 41b8 0212 8f3c a032 54bd cf8a 473d
00000370: a878 a03c 56e6 ecbc 7ccc 873c c632 ddbb
00000380: b186 0b3c 0646 54bd 3472 d2bc a0a9 0bbd
00000390: 8ef1 6ebc 79b5 1f3d f9aa 4abc 825a ed3c
000003a0: 33ed 473e f35f 8f3d 9e02 7f3c d2b4 c13d
000003b0: 6a45 983d e01b 95bc 0793 3c3d b002 b43c
000003c0: 4fed c4bc 2202 2d3d 94f4 13bd 6064 97bd
000003d0: 63d8 3ebb 80e6 b2bc d9f6 573a 8257 083d
000003e0: c391 983c 97bf 003c eb3a 143e 4705 263d
000003f0: e351 5dbd f9cf a03c 21db 933d ac27 173c
-0.068854265 -0.1012813 -0.10445297 -0.009061386 -0.104055785 0.08154344 0.037954558 -0.06629384
0.020499328 0.02316248 -0.08505768 -0.03956418 0.04896357 -0.09195489 -0.08598785 0.06822277
0.03722099 -0.10201414 -0.0068951715 0.11345498 0.066995494 -0.094573945 -0.062992156 -0.07315973
-0.084085464 0.059400372 -0.05859861 -0.05483031 -0.0564892 -0.08920659 -0.031548828 -0.013248267
0.026384348 0.07640101 -0.025839802 0.062403064 0.056256186 0.06428627 0.012075049 0.07937771
-0.035048712 -0.030926522 0.0007331793 -0.06297063 -0.050072223 -0.0057881107 -0.0115861595 -0.05294348
-0.037551787 -0.0016029961 -0.05103492 -0.026268665 0.023555111 -0.01952264 0.043466423 -0.018855033
-0.030631872 -0.111273974 0.031111985 -0.17617859 -0.017971728 -0.0043470743 -0.058305025 -0.005808608
-0.047254924 -0.08222662 0.010839817 -0.001480874 -0.03853303 0.040778585 0.026797516 0.044514164
-0.112552226 0.054502636 0.042619757 -0.062075052 0.07145633 -0.026044236 -0.014611908 0.05561774
0.055846248 -0.032240532 -0.009574215 0.03509944 -0.012393949 -0.010625823 -0.021100624 0.013512585
0.035213757 -0.019052755 0.016694913 0.11981848 0.18490122 -0.00284968 0.039886218 0.11861149
-0.07642706 -0.07670658 0.1493532 -0.049995877 0.010446839 0.04454126 -0.044675443 0.035258256
0.07889269 -0.04502199 -0.027551467 0.025254155 -0.056598935 0.08087035 -0.016776351 0.034200005
0.09456339 0.07531467 -0.00050237053 -0.0010689779 0.14457694 0.032264445 0.059081934 0.014675964
0.055473972 0.08680602 0.033518866 -0.056787807 -0.013173997 -0.10591584 0.017239641 -0.028519543
-0.021190137 0.067359485 0.060420565 -0.021355243 -0.0023601993 -0.06839095 -0.20378989 0.060169082
0.0113833435 0.0051797912 0.05472033 0.03895281 0.024361758 0.057611924 0.018185267 0.036181122
-0.054409403 0.0338436 0.0009906223 -0.077141665 -0.020630859 -0.012000816 -0.10220228 -0.09967481
-0.057933025 0.03525058 -0.024128426 -0.057913847 -0.055242017 -0.027033353 -0.025974391 0.043176122
0.027439026 0.029909033 -0.061694797 0.017261537 -0.06921081 -0.0010984294 0.039375957 0.02644947
-0.06541706 -0.04432497 -0.07239267 0.05925879 -0.0036593068 0.01655987 -0.00068987365 -0.006008269
0.023865603 -0.0360775 0.00191087 0.010283694 -0.0146348085 -0.049719505 -0.024796067 -0.044153236
-0.044803068 -0.060725782 -0.1044238 -0.085785784 -0.15238056 -0.1733879 0.032915037 -0.09966442
-0.05533126 0.14073807 0.0027634334 0.03260886 0.39568752 0.13412905 0.053714264 -0.010745909
-0.042908885 0.035635937 -0.03254304 -0.01767195 0.08681148 -0.09607329 -0.09666935 -0.0012999381
-0.0119013665 0.0051838327 0.011934266 0.07647921 0.06350269 0.018512167 0.05884669 0.06283629
-4.6182788e-05 0.017464641 -0.051806092 0.048716363 0.019588783 -0.028918426 0.016576998 -0.0067504374
0.008516 -0.051824592 -0.025689222 -0.034097314 -0.014583958 0.038991425 -0.012369865 0.028973822
0.19524078 0.07000723 0.015564589 0.09458317 0.07435115 -0.018201768 0.046038654 0.021973938
-0.024038939 0.042238362 -0.03612192 -0.07392192 -0.0029120676 -0.021838427 0.0008238382 0.03328658
0.018624192 0.007858179 0.144756 0.040532377 -0.05403317 0.01963042 0.0721953 0.009225767

block_2.conv1.bias f4 [32]
00000000: 1163 9bbd 5427 8a3f 74e5 173c 793f 763e
00000010: 10ee c63c 3890 ed3d 17cd 993d 6517 66be
00000020: e296 693e 0936 b03c 1626 4e3e ed93 803d
00000030: cd06 313d a9fd 86bb ca83 753f 2b2c 263d
00000040: e7d1 07bd 6734 bc3d c9a5 05bd 6a6f ae3d
00000050: 44db c6bd ec25 6dbc b26d 413e c3b7 e73e
00000060: 9404 d0bb 4903 dd3d d3bf 073e 0118 d0bc
00000070: 05f4 6b3d d0ae 643d b3ab 633e dbea cb3d
-0.07587255 1.0793252 0.0092710145 0.2404765 0.024283439 0.11599773 0.07509821 -0.22469862
0.22811463 0.021510141 0.20131716 0.062782146 0.043219376 -0.004119594 0.9590422 0.040569466
-0.033159163 0.091896825 -0.03262881 0.08517344 -0.0970979 -0.014474373 0.18889502 0.45257387
-0.006348202 0.10791642 0.13256769 -0.025402071 0.057605762 0.055830777 0.22233467 0.099569045

block_2.conv2.weight f4 [32, 32, 3, 3]
00000000: 25cf 78bd 4876 abbc 1673 43bd 4326 5f3d
00000010: e95a 67ba 343c 18bd ad03 ce3d 9d61 183d
00000020: 87d5 dabb a6f2 9d3d eb3e ff3c 7651 e83c
00000030: 701d b73c 2326 993c a73b e9bc d5e9 133d
00000040: 27ad 193d cabf 71bd cd28 1ebd e8e7 0dbd
00000050: 23d2 1dbd 020c 2fbd 056b 15bd b05f 0ebd
00000060: 05ee 29bd 73d4 dabc 6006 e6bc a782 6fbd
00000070: 6576 3a3c 173a 443d 62a0 c8bb ac4d afbc
00000080: 141d e63c 6d95 143d a988 3fbd 3b96 17bd
00000090: 7b23 e5bc 5c4b 96bc 0352 763c b5c3 eebc
000000a0: 9d2d 8dbd 27a4 42bd f080 e3bc a6ef 9cbd
000000b0: 0a39 cdbc 80f3 8bbd d011 603c cd55 7dbd
000000c0: df74 3fbd 0dfe 62bd e696 07bc 0de8 15bd
000000d0: 62c6 6fbd db11 91bc 5a58 c9bc 45f1 4bbd
000000e0: 3528 f9bc 83c9 053d 4bca 3cbd 77c7 8ebb
000000f0: ca4e 6e3d 91a9 163d 9efc e33b 83b0 b43c
00000100: 300c 2bbc 7fbc 1fbd fe3c cfbc 4b73 0cbd
00000110: 4398 373b fb8b 7dbd 14fe 77bc c996 cd3c
00000120: 108a a4bd e5ec 823c 8394 413e 0630 09be
00000130: d280 47bd bbe5 b93d 9801 05be fcf0 a2bd
00000140: ec96 26bd 286a 80bc 250d aabc 775c b5bc
00000150: 6ecc 92bc 0ecd a2bc 366b bbbc 8258 87bc
00000160: d6ca 76bc 3159 84bc a4b8 a43c 259e f2bc
00000170: 1679 7abb d8cc 363d 7b75 b7bd 01e9 b3bd
00000180: 18a1 b53c 9287 01bd aca8 89bd db20 b63c
00000190: fa2b 883d 4bda b93c d006 f4bc 4144 d53d
000001a0: 87bc 973d c4bb 06bd 6b5b c5bc 5d72 9a3d
000001b0: a8b7 763d 767a 3bbd 81dc 033c 7b62 e23c
000001c0: 6de3 28bd cea6 99bc b791 19bd 7e53 d2bb
000001d0: cbda 82bd 6215 80bd cc66 ad3c 60f4 89bd
000001e0: 1745 00bd f798 5a3c c0df a43c 3f7f a3bd
000001f0: df1c ccbb 683c 6d3d d9ec 26bd cca5 21bd
00000200: a93d d03b e556 7a3d da07 aebd 16a6 1dbd
00000210: fa14 db3d f8b7 f33b a79f 84bd 0e51 04bc
00000220: a4d3 463d 1f01 543c fbfc bcbd 38bd b63c
00000230: 5417 103d 0faf fbbd 6b94 0bbe f1bc ff3c
00000240: aa5d b6bc dec1 d5bc 3ae6 e8bc 5da3 d5bc
00000250: 956d b6bc 9229 f1bc 6ba9 dbbc 0a59 88bc
00000260: fd87 9ebc 7308 85bd c596 69bd dd4b f7bc
00000270: f2c3 953d d544 edbd e6da f0bb 62c8 463d
00000280: 56f2 e63c 1314 a4bd 324d f2bd c7b6 bcbd
00000290: 89dc 18bd 27e2 82bd baa1 b33c 23d3 55bd
000002a0: ab86 9abd cd50 54bb 1430 17bd 8fed 07bc
000002b0: 04d4 33bd 2052 4fbc fef7 e5bc 5077 bebd
000002c0: 9923 4ebd 87a2 cdbd 6577 c7bd f91a e1bd
000002d0: ca9e 823c 2014 c9bb bc71 5bbd d728 50bd
000002e0: 4bc3 9e3d f575 82bc afcc c6bd 4482 0e3c
000002f0: fc07 4f3c d34b 273d 1b77 69bd 4b60 9abc
00000300: fe55 313d e8aa a4bd e077 ccbd 26c0 243c
00000310: 8368 a7bb d0af 9ebd fbae c6bd 3326 e7bd
00000320: d189 01bd d8e4 7fbc 165d 06bd 05bd 44bd
00000330: 44ff 4a3d f37e 393d 4815 1cbd bfd0 39bd
00000340: 1976 72bd f4cb a23d 959f b73c a8da 283c
00000350: 5ab7 a6bc a6fb c8bc 0d8b 103d 7669 5ebd
00000360: 643c 79bd 8e89 04bc 635f d639 4726 e03b
00000370: d375 e93b 50de bd3d 710f 33bb e66b bbbc
00000380: 6803 133e 7f81 cebd 32d7 3e3c cc44 2a3d
00000390: 7e77 b73d 027d c7bd 77fc 003e 4d38 b03d
000003a0: 0745 8db7 e628 9fbc ba9c b3bd b7d9 5cbd
000003b0: c7a4 2b3d f387 42bd dd6c de3b 4b2c cd3c
000003c0: d212 92bc 0f0e cf3c c267 323d ae3d 14bd
000003d0: fde1 58bc 2b13 aa3c 224d d4bc c1be 3bbd
000003e0: 7290 0dbd cc9f 5bbc eca5 17bd 0db5 52bd
000003f0: f6b9 93bd ca91 0fbd aaa3 a33d f62e 183d
-0.060744423 -0.020930424 -0.047717176 0.05447985 -0.00088254974 -0.03716679 0.10059295 0.037202466
-0.0066782865 0.07712297 0.031157931 0.028359156 0.022352904 0.018694943 -0.028470827 0.03611167
0.037518647 -0.059020795 -0.03861313 -0.03464499 -0.03853048 -0.04273606 -0.036479015 -0.034759223
-0.04148676 -0.026712632 -0.028079212 -0.05847421 0.0113807665 0.04790696 -0.0061226347 -0.021399342
0.028090037 0.036275316 -0.04676119 -0.037008505 -0.02797102 -0.018346481 0.015034202 -0.029146055
-0.06893466 -0.04751983 -0.027771443 -0.07662897 -0.025051612 -0.06833553 0.013676122 -0.061849404
-0.046742316 -0.055418063 -0.008275723 -0.036598254 -0.058538802 -0.01770871 -0.024578262 -0.04979064
-0.03041468 0.03266288 -0.04609136 -0.004357274 0.058180608 0.036782805 0.0069576045 0.022056824
-0.010439917 -0.038998123 -0.025297638 -0.03428964 0.002801434 -0.061901074 -0.015136261 0.025096314
-0.08034146 0.0159821 0.18904309 -0.13397226 -0.048706837 0.09077021 -0.12988889 -0.0795612
-0.040671274 -0.01567562 -0.02075822 -0.022138817 -0.017919745 -0.019873168 -0.02287827 -0.016521696
-0.015063008 -0.016155811 0.020107575 -0.029616425 -0.0038219145 0.044628948 -0.089579545 -0.08784676
0.022171542 -0.03162343 -0.06721625 0.022232464 0.06649013 0.022687098 -0.029788405 0.10413409
0.074090056 -0.03289391 -0.024091443 0.07541344 0.060233742 -0.045771085 0.008048178 0.02763485
-0.041232515 -0.018756296 -0.03749248 -0.0064186445 -0.06389388 -0.062540784 0.021167181 -0.06736064
-0.03131589 0.013342134 0.020126224 -0.07983255 -0.0062290276 0.057918936 -0.04075322 -0.039464757
0.0063550067 0.061118025 -0.08497591 -0.03848847 0.1069736 0.0074377023 -0.06475764 -0.008075966
0.04854168 0.01293972 -0.0922794 0.022307023 0.035178497 -0.12289249 -0.13630836 0.031218024
-0.02226146 -0.02609342 -0.028430093 -0.026078874 -0.02226905 -0.029438768 -0.026814183 -0.01664402
-0.019351954 -0.06495752 -0.05702855 -0.030187542 0.07312764 -0.11585394 -0.0073503135 0.048530944
0.028191727 -0.08011641 -0.1183113 -0.092145495 -0.037319694 -0.063907914 0.021927703 -0.05220331
-0.07545217 -0.0032396794 -0.036911085 -0.0082963845 -0.043903366 -0.0126538575 -0.028072353 -0.09300101
-0.050326917 -0.10040765 -0.097395696 -0.10991473 0.015944857 -0.0061364323 -0.053575262 -0.050820198
0.07752093 -0.015925387 -0.09707009 0.00869805 0.012636181 0.040843796 -0.056998353 -0.018844744
0.0432949 -0.0804041 -0.09983802 0.010055577 -0.0051088943 -0.07748377 -0.097013436 -0.11286583
-0.031625573 -0.015618525 -0.032803617 -0.048031826 0.049559847 0.045287084 -0.038106233 -0.04536509
-0.059194658 0.07949057 0.022414962 0.010306038 -0.0203511 -0.024534058 0.03528886 -0.054299794
-0.06084861 -0.008089436 0.0004088833 0.0068405005 0.0071246414 0.09270918 -0.0027322436 -0.022878598
0.14356768 -0.10083293 0.011647986 0.041569516 0.08958338 -0.0974064 0.12596308 0.086044885
-1.6840653e-05 -0.019428682 -0.087701276 -0.053918567 0.04190519 -0.047492933 0.00678788 0.025045535
-0.01783124 0.025275258 0.043555982 -0.036191635 -0.013237474 0.020761093 -0.025915686 -0.045836214
-0.034561582 -0.013404798 -0.03702347 -0.051442195 -0.072132036 -0.035051145 0.07990201 0.03715416

block_2.conv2.bias f4 [32]
00000000: af43 823c a74d 0fbe 8e07 273d f31f 4c3d
00000010: 2aa8 f13e 5482 9ebd 809a cebd 3b9c b0bd
00000020: f160 76bd 6a50 03bd dd46 523e 99dd f93c
00000030: 5f96 d23d dea3 d63d dfd3 8cbd acfd 3a3e
00000040: 0307 6fbe 48d2 2e3d a7d2 0b3d 6e27 f8bd
00000050: 74cf 973c 00d1 87be 68a4 a8bc 17a6 03be
00000060: fd67 cc3c 6fd5 0ebf ac1b 17bd 2e21 b3bd
00000070: 4808 bebd f225 163c ce96 253e eb39 093c
0.015901415 -0.13994466 0.04077869 0.049835157 0.47198611 -0.07739702 -0.10088062 -0.086235486
-0.060151044 -0.03205911 0.20534845 0.030501174 0.10282587 0.10480474 -0.06876349 0.1826083
-0.23342519 0.04268101 0.03413644 -0.121168956 0.018531539 -0.26526642 -0.020586208 -0.12856327
0.02495193 -0.55794424 -0.036891624 -0.08746563 -0.09278923 0.00916432 0.16170809 0.008375625

dblock_3.denselayer1.conv1.weight f4 [48, 32, 3, 3]
00000000: de64 ac3d cc26 8e3d 1268 523d 1280 833c
00000010: 7d3a b93c 55f9 983d f40c 8a3d 90d0 2c3d
00000020: 6bf6 443d a59a 293d 117f 3b3d 1f0d 053d
00000030: afd5 9c3d 6104 d63b 9b46 f03c 4f5c fb3c
00000040: 07be 1f3d d0a3 463d 6170 853c aa53 78bd
00000050: 3ab0 133a ef60 6bbd e1e3 15bd e8e1 b7bc
00000060: f402 6b3d 9d8a 34bd 84ad f53c aba3 583b
00000070: bc29 d73c 73d1 e63b e820 b9bc 07fb 243c
00000080: 393f 2c3d a1da 1b3c a74d b23c b50b 78bc
00000090: 7440 35bd 98ba a2bc 4081 ab3c 5fc2 473c
000000a0: b098 4e3b ae1c 9c3c 4fef 2ebd f2f7 16bd
000000b0: df4b 4dbb 8b34 4a3d 1db8 0f3d 118e c43d
000000c0: 8151 c7bc 1709 173d 756a 4f3d 665b 313d
000000d0: e634 ccbc c8a7 a23d 50f3 93bb 8401 44bd
000000e0: 76f9 25bd c977 b2bd 0d85 abbb d57e 20bb
000000f0: b332 84bd 9378 a2bd ce6f fcbd 33cd d7bc
00000100: bd06 87bb 6e8b 14bd 3569 2cbc b56e 7dbc
00000110: 344d f33c b060 e2bc 9ccc 923c 8d3e 4ebd
00000120: 017c 08bd fc40 90bd 9999 90bc 0d0c 32bd
00000130: b004 0a3e 54b7 4f3c 2c53 173b cb69 2cbd
00000140: e53e 3e3b 5fb0 1a3d a314 2c3d 024c af3b
00000150: 9221 003d 027b a9bd 0c73 c73c 713a cd3d
00000160: 727e 7cbc 4d82 0a3d 5837 3abd bbd8 00bc
00000170: 849a 50bd 2cff 8abd 64f7 483d afb0 ac3d
00000180: 2a23 3ebd 40c5 7abd 7686 62bd 5f84 08be
00000190: 920a cfbd 81d4 9abd 9b94 c3bd 8f14 82bd
000001a0: 90b1 05be 08e4 35bd df4a 3dbe 4a6d e6bd
000001b0: 4343 883b 2923 66bc d433 3d3d 7c71 81bd
000001c0: b931 8d3d 4b08 05bd 394a 55bc f03d 6c39
000001d0: d990 41bd a0c6 253d 76cf 22bd 7462 533d
000001e0: ad28 953d c39f c5bc 5e31 ef3b d954 e5bc
000001f0: fe6e 433d 41c1 803c f545 2a3d d787 fd3c
00000200: d323 a13d 6448 143d 63d1 e4bc 1fe2 11bd
00000210: 4d7e 1c3c 197b 23bc 8357 c73d d931 573d
00000220: 366b 7b3d 2263 903c 5c60 1c3d 04e2 d1bc
00000230: 5c7b 8b3d aee5 723d 7e2a 553d 2853 203d
00000240: ea04 843d a0d1 8a3d 1275 bf3d d1a1 653d
00000250: 202f b73a ebe6 e03d 6b85 cd3d c597 b43d
00000260: 2d61 ec3c f5e7 003d d228 b73c c8a4 cc3c
00000270: f642 20bd 6bc3 103d 00e0 50bd c824 8fbd
00000280: b0e8 03bd 0a0a c13c 6f10 ee3c cf4b af3c
00000290: 8159 b9bb 82c0 ebbb 07e1 20be 88af 163c
000002a0: b035 8e3c 3116 e53d 59a6 35bd bc06 54bd
000002b0: 8b05 e8bc 178b 70bd 8880 14bd b01c 2fbd
000002c0: a9a0 02bd 5cb1 41bd 485e 69bd 7027 dfbd
000002d0: 8631 5bbd 78b4 1abd 3a24 ebbc 2e48 09bd
000002e0: b8c5 0cbd 8ed2 a43c 6e2d d5bc 6ddb a3bd
000002f0: 02f1 58bd f90d 3cbb f481 99bb 3886 5a3d
00000300: 158a 873c f547 1c3e 022e 4f3d 5174 5e3d
00000310: df3a 25bd 04e0 6b3d 9a03 0a3c 0720 093d
00000320: 26f2 173c 0217 a03c 90cb 76bd d3d1 91bc
00000330: 01af cfbc 059f a73b 6ba7 833c a1d9 7b3b
00000340: 630a a7bc 20fa 02bd e669 3cbd 7da5 3f3c
00000350: 6654 eb3c 34a2 9c3c eed2 82bc e39d c7bc
00000360: 6da2 eabc ac8d 3abd f6c0 f3bb 4640 82bd
00000370: ccca a23d c2cc 70bc 8e33 59bd 6c01 0dbd
00000380: 2651 febc 2ab8 fabb ed76 0338 4c83 bdbc
00000390: 5189 f9ba e765 8ebc 612a 00bd 054b 13bd
000003a0: a7a9 28bc 19c2 863b de3b 6c3c cea1 0e3d
000003b0: a463 9e39 875b ed3c 041a c63d 7bd9 6e3d
000003c0: 709c a23c 497c be3c 9b08 923b c3e5 1abd
000003d0: 2ada 38bc 76f5 b23c bcd3 013e cb1f a1bc
000003e0: afec c9bd a700 a33a b462 a8bb 34af bd3d
000003f0: 822e a93d 4b68 3b3d e353 333d 5362 71bd
0.084176764 0.06940994 0.05136878 0.01605228 0.022610897 0.07469431 0.06740752 0.04219109
0.048086565 0.041407246 0.045775477 0.032483216 0.076579444 0.0065312837 0.029330542 0.030683665
0.038999584 0.048496068 0.016288938 -0.060626663 0.0005633865 -0.05746549 -0.036594275 -0.022446588
0.057375863 -0.044077504 0.029989965 0.0033056538 0.026265018 0.0070440113 -0.022598699 0.010069615
0.04205248 0.009512574 0.021765543 -0.01513951 -0.04425092 -0.019864365 0.020935655 0.012192338
0.0031524114 0.019056644 -0.04270869 -0.036857553 -0.003132574 0.049366515 0.035087693 0.095974095
-0.024330856 0.036873903 0.050638635 0.043300055 -0.024927568 0.07942158 -0.004515089 -0.047853008
-0.040521108 -0.087142535 -0.0052343667 -0.002448966 -0.064549826 -0.07933154 -0.123260126 -0.026342964
-0.0041206763 -0.036265783 -0.01052313 -0.015468289 0.0296999 -0.027633995 0.017919831 -0.05035262
-0.033321384 -0.07043645 -0.017651366 -0.043468524 0.1347835 0.012677986 0.0023090346 -0.04209308
0.0029029187 0.037765857 0.04201187 0.005349637 0.031282015 -0.08275415 0.02434685 0.100209124
-0.015411006 0.03381567 -0.045462936 -0.007864173 -0.050928608 -0.067869514 0.049064055 0.08432137
-0.046420254 -0.06122327 -0.055304013 -0.13331746 -0.10109438 -0.07560063 -0.095498286 -0.063515775
-0.13056016 -0.04440692 -0.18485592 -0.11251314 0.004158409 -0.014046469 0.046192005 -0.063204736
0.068942495 -0.032478612 -0.013018184 0.00022529787 -0.047257278 0.040472627 -0.03974863 0.051607564
0.07283149 -0.024124032 0.007299586 -0.02799456 0.047713272 0.01571715 0.041570622 0.030948563
0.07868161 0.03620185 -0.027931875 -0.035616037 0.009551597 -0.009978079 0.097334884 0.052537773
0.06138154 0.017625395 0.038177833 -0.025620468 0.06810638 0.05930107 0.052042477 0.039141804
0.0644625 0.06778264 0.09348501 0.056062523 0.0013975836 0.10981544 0.10035213 0.0881801
0.02885493 0.03147121 0.022358332 0.024980918 -0.03912636 0.035342615 -0.050994873 -0.06989437
-0.03220433 0.023564357 0.02906057 0.021398453 -0.0056564217 -0.0071945796 -0.15710841 0.009197123
0.017359585 0.11185873 -0.044348095 -0.051764235 -0.028322956 -0.058726396 -0.03625539 -0.042751968
-0.0318915 -0.047288284 -0.05697468 -0.10896194 -0.053514026 -0.037769765 -0.028703798 -0.0335161
-0.034368247 0.020119932 -0.02602264 -0.080008365 -0.052964218 -0.0028694852 -0.004684681 0.053350657
0.016545335 0.15261824 0.050580986 0.054310147 -0.040339347 0.057586685 0.00842371 0.03347781
0.009274041 0.019542221 -0.060252726 -0.017800247 -0.025352003 0.005115392 0.016071042 0.0038429277
-0.020390695 -0.03197682 -0.04599943 0.01169717 0.028726768 0.019120313 -0.01596972 -0.024367278
-0.028641904 -0.045545265 -0.007438774 -0.063599154 0.07948837 -0.014697256 -0.053027682 -0.034425184
-0.031044554 -0.0076513486 3.1343592e-05 -0.023133896 -0.0019038116 -0.017382575 -0.031290416 -0.035960216
-0.0102943545 0.0041124937 0.01441857 0.034822278 0.00030210346 0.028974308 0.09672931 0.058312874
0.019849986 0.023252623 0.0044565923 -0.037816774 -0.011282483 0.02184556 0.12678427 -0.01966848
-0.09859597 0.0012436107 -0.0051387195 0.09261933 0.08260824 0.04575376 0.043781172 -0.05893166

dblock_3.denselayer1.conv1.bias f4 [48]
00000000: 4e60 073c 67a5 553d c960 fdbc 5bda 0fbb
00000010: 5eec 613c 3d3c a33c 2f5b cc3d d8dd 4c3d
00000020: 3ac7 2c3c 218e c33c 77be 98bd dc96 5cbc
00000030: 13bb 333e 2da8 9c3d 4784 79bc 0725 d3bc
00000040: 6fc9 2c3c 38bf 2c3c 3944 1bbc 1195 0cbd
00000050: d9c6 2c3c 2ea5 f93c a643 a73c 8d72 fdbc
00000060: 8106 b93c b050 833d 9cee d138 518e 2abd
00000070: a10e 513d 4ba9 2c3c a792 243d 52eb 803c
00000080: 33d0 a5bc 1760 7cbc 32ca 2c3c 7cbf 2c3c
00000090: b945 13bd c9f3 1c3e 4c27 ae3c 85cb f53a
000000a0: e44e 6d3c 0dd7 3e3d 4ae1 693d aa52 db3c
000000b0: 5926 803d e347 d3bc 6803 d9ba 23c3 2c3c
0.008262707 0.052159693 -0.03092994 -0.0021950218 0.0137892645 0.019926185 0.099783294 0.050016254
0.010545546 0.023871483 -0.07458203 -0.013463702 0.17551832 0.076492645 -0.015229291 -0.025774492
0.010546072 0.010543637 -0.009476715 -0.03432185 0.010545456 0.030474272 0.020418 -0.030938411
0.02258611 0.06411874 0.00010010341 -0.04163963 0.05103934 0.010538409 0.04017892 0.01573721
-0.020240879 -0.015403769 0.010546254 0.0105437 -0.035955165 0.15327372 0.021258973 0.001875267
0.014484141 0.046591807 0.057099618 0.026772816 0.06257314 -0.025791114 -0.0016556801 0.010544571

dblock_3.denselayer1.conv2.weight f4 [48, 48, 3, 3]
00000000: 31df 103c 2050 20bd 030a 01bd bfff 4ebd
00000010: 05c5 5ebc 9790 8b3b 1c80 3abd 93bd 703c
00000020: d375 74bd 1b45 09bc 64d8 a83c 4f73 dcbb
00000030: 3ad9 183d f0ab 083b 1650 c3bc 1c1b ebbb
00000040: e76f fabc 5078 433d 26cb b53c 77fb 743c
00000050: 989d 7ebd 95dc 12bd d749 5a3d 6f0d 32bd
00000060: 2f56 90bb 4cf5 1bbd bc2f 103d 488a 693d
00000070: 1089 033c 580b 9c3b 4393 943c 7e9a 493d
00000080: d968 073d 4228 073b 0364 813d 844c e3bb
00000090: 7428 56ba 0969 433d 7602 a3bc 51fb 083d
000000a0: caa7 0ebd 4fd2 4f3d d140 bd3c c802 5f3d
000000b0: 3ec2 6abc 4544 ddbc 1372 efbc f9ed 4bbd
000000c0: c866 7ebc 9bbe 91bc b37d 27bd 5c3f f0bc
000000d0: beac dbbc 1ec7 2c39 00b0 30bc 307b 8dbc
000000e0: c14a 54bc 72ec 3cbb dfc4 28ba ac37 f83b
000000f0: 3a0b 363c bdc7 d6bc 5095 7b3c 80a9 d1b8
00000100: ca3e bebb e86d 91bd 40d8 c3bb d856 523c
00000110: bf0e 99bc b07e b03c 5780 453c 95a8 c33a
00000120: a836 95bb 22de a6bb 7f78 febb 475f 95bb
00000130: 3ad3 18bb 2309 86bb 611c 0fbc d155 cbbb
00000140: fb7a b4bb c0dc e9bb 2859 4bbd 05a0 b4bc
00000150: c18b 92bc 1f5f f33b 54dc bcbc a8bf 34bd
00000160: adf2 4abc c162 2d3c de8f c2bc b40d 3abd
00000170: 42b0 e5bc a325 95bc 4600 ec3c b20e 55bd
00000180: 228b 493b abab e2bb b98d 23bc 3375 34bd
00000190: a3e0 79bc 35c4 3eb9 ce29 5fbd 446b 97bd
000001a0: 102f bbbc b9ce 50bb 3857 a2bd e72a 77bd
000001b0: e87d bf3b 9f1a da3a e4c4 cebc 1ffa 3c3c
000001c0: 51b4 163c a819 13bd 87e5 57bc 1067 d8bc
000001d0: e3ec 1fbd df35 10bd 0b54 3b3b 58ae b7bc
000001e0: 5c08 623c de1e 40bd 1f6e 13bc 33ae e4bc
000001f0: f06f 3abd f801 9ebb bb18 c23d a1d5 a93d
00000200: 3cb0 6d3b 5fb5 e23b a657 cc3d ffee 0439
00000210: 5c72 f2bb 2b87 aeba 145e d73c 0b30 a93b
00000220: 1ef3 843d 7026 3e3d c967 8f3d 57f5 a53d
00000230: 2572 c63c 51af 933d 74f5 3b3d 1321 0a3d
00000240: c837 95bb 30e1 a6bb a07b febb 8060 95bb
00000250: b0d6 18bb f50a 86bb 841c 0fbc 9456 cbbb
00000260: 4f7a b4bb be32 95bb 64d4 a6bb e66e febb
00000270: 445b 95bb b0c8 18bb d403 86bb fc1b 0fbc
00000280: 6f53 cbbb 137d b4bb b67a a6bb 19d0 47bd
00000290: 754b 213c 241e ec3b de51 ac3d 74e4 28bd
000002a0: ffc7 f7bc ed86 573b 50ee cd3c 5d0c 3d3a
000002b0: 580c 8a3d 5a68 6ebd 1914 51bd 1843 9e3d
000002c0: 3f77 133d 2ade 8b3c 0f1e 7bbd 9e1e 833c
000002d0: 7d36 95bb f2dd a6bb 4878 febb 1c5f 95bb
000002e0: 08d3 18bb 1e09 86bb 4c1c 0fbc b655 cbbb
000002f0: fc7a b4bb 606a 33bc 95d0 123d c71a 173c
00000300: f8ee 8fbb d6df 063c 9d6f 0e3c 0bb3 94bc
00000310: 7c6a 83bc 5411 2abd 808e 58bd 3f14 653c
00000320: f8a5 073b d52c a23d 623f 84bd 403d 51bb
00000330: 9342 5f3c 8c6f 9e3c 9838 163c 388a ec3c
00000340: 8ded 84bd e33b 163c 85ec df3c f8d8 95bc
00000350: e49c cbbb fc6e 5c3c a6e9 7dbb 85cc bcbb
00000360: abe6 a23c 1f69 d239 1947 85ba 1c4b 3f3c
00000370: 148f 6dbc 5479 533c c1b2 f93b 6574 d13c
00000380: ebd2 0eb7 f51e 36bd f7a0 56bd 504e 12bd
00000390: b4d7 23bd 29fe 48bd aa14 0abd 2082 03bd
000003a0: 49ba ecbc 6f59 9e3c cf9a b03b 3bfa 61bb
000003b0: b663 b43c 2b29 c93c 17ad d13c d4cb 283d
000003c0: 3f20 e83b 3111 753d 2aab 0e3c cb1d 3c3c
000003d0: ed90 483d 4d1b 56bc 7302 1e3d d84f 6e3d
000003e0: c8f4 ab3c d823 2bbb 7193 783c 3e64 9fba
000003f0: 57c7 a23b 1187 87ba e71b 37bc 2dce e63b
0.0088422755 -0.039138913 -0.03150369 -0.050536867 -0.013596778 0.00425918 -0.04553233 0.0146936355
-0.05968268 -0.008378292 0.020610996 -0.006727613 0.03731654 0.0020854436 -0.023841899 -0.0071748625
-0.030570937 0.04772216 0.022191595 0.014952532 -0.06216201 -0.035854895 0.053293075 -0.043469843
-0.004404805 -0.03807573 0.035201773 0.05701664 0.008028284 0.0047620945 0.018136626 0.0492196
0.033058975 0.002062336 0.06317904 -0.0069366116 -0.000816948 0.04770759 -0.019898634 0.0334428
-0.034827985 0.050737675 0.023102196 0.05444601 -0.0143285375 -0.027010093 -0.0292292 -0.049787495
-0.015527435 -0.017791083 -0.04089136 -0.029327087 -0.026815768 0.00016477375 -0.010784149 -0.017270654
-0.012957276 -0.0028827456 -0.00064380275 0.007574996 0.011111075 -0.02621829 0.015355423 -9.9974684e-05
-0.005805825 -0.07101041 -0.0059767067 0.012838088 -0.01868379 0.021544784 0.012054524 0.0014927561
-0.0045536347 -0.0050923983 -0.007765829 -0.004558477 -0.002331926 -0.0040904447 -0.008734793 -0.0062052985
-0.0055078245 -0.007136911 -0.049645573 -0.02204896 -0.017888905 0.007427111 -0.02305428 -0.04412809
-0.01238696 0.010582627 -0.023750242 -0.045423225 -0.028038148 -0.018206423 0.028808724 -0.052015968
0.0030753096 -0.006917437 -0.00998252 -0.044057082 -0.0152513115 -0.00018192905 -0.054483227 -0.07393506
-0.02284959 -0.0031861498 -0.07926792 -0.06034365 0.0058438666 0.0016640014 -0.02524037 0.011534243
0.009198264 -0.03591314 -0.013177282 -0.026416332 -0.039044272 -0.035207625 0.002858403 -0.022422
0.013795938 -0.046904437 -0.008998423 -0.027915096 -0.04551691 -0.004822012 0.09477373 0.082926996
0.0036268374 0.006918594 0.09977655 0.00012677534 -0.0073988866 -0.001331543 0.026289977 0.005163198
0.064916834 0.046423376 0.07002217 0.081034355 0.02422435 0.07211173 0.04588838 0.03372295
-0.004553769 -0.0050927624 -0.007766202 -0.004558623 -0.0023321323 -0.0040906616 -0.008734826 -0.0062053893
-0.0055077444 -0.004553168 -0.005091237 -0.007764685 -0.004557999 -0.0023312978 -0.004089812 -0.008734699
-0.0062050144 -0.005508074 -0.0050805463 -0.04878244 0.0098446505 0.0072057415 0.084140524 -0.041233495
-0.030246733 0.0032886819 0.02513805 0.000721162 0.06740636 -0.058204986 -0.051044557 0.07727641
0.036002394 0.01707371 -0.061307963 0.01600581 -0.0045536146 -0.005092376 -0.0077658035 -0.004558457
-0.0023319144 -0.0040904423 -0.008734774 -0.006205286 -0.005507825 -0.010950655 0.03584345 0.009222693
-0.004392501 0.008232078 0.008693603 -0.01815178 -0.016041987 -0.04152043 -0.052870274 0.013981878
0.002069829 0.07918707 -0.06457402 -0.0031927377 0.013626712 0.0193403 0.009168766 0.028874502
-0.06490622 0.009169552 0.027334461 -0.018291935 -0.006213771 0.013454195 -0.0038744002 -0.0057616853
0.019885382 0.00040132643 -0.0010168283 0.011675622 -0.0144994445 0.012907345 0.007620186 0.025568197
-8.512968e-06 -0.044463117 -0.0523996 -0.035719216 -0.040000632 -0.04907051 -0.033711113 -0.03210652
-0.028897421 0.019329755 0.0053895484 -0.0034481424 0.022020202 0.024555763 0.025595231 0.04121001
0.007083922 0.059830848 0.008707801 0.011481713 0.048966337 -0.013068032 0.038576555 0.058181614
0.020990744 -0.0026113894 0.0151718715 -0.0012160612 0.004967611 -0.0010339936 -0.011176086 0.007043621

dblock_3.denselayer1.conv2.bias f4 [48]
00000000: f9c9 f33b 5f2e 673d 8f13 503d f1ab b1b9
00000010: 9863 0d38 d7a9 bebc f518 e9b9 6386 c8b9
00000020: ee66 3abc eb35 7dbd 56d4 0dba b270 8bbd
00000030: be4a 953c a252 4d3c 322c b83c 9198 15ba
00000040: fbc4 563d 65b9 cebd 0753 673c 48fa 78bc
00000050: ce9e b7bc c7f8 fab9 c148 32b9 738b 313d
00000060: cdc0 01bd a8b2 3cbd 2a99 20ba 119b d136
00000070: cfe2 003a 3e40 b1b9 1b12 e439 cd37 e6bc
00000080: 5392 8fbd 81ac a4bc 6c67 f3bc 934d 583d
00000090: f554 0bba a2f8 fb3c cf56 72bc e8b9 d3bc
000000a0: fff7 193d 42b1 953c 86d8 91bd d3d0 f6bc
000000b0: b880 18ba 46e6 2f3d 8344 96b9 e7cd 51bd
0.0074398485 0.056440707 0.050799903 -0.00033888177 3.3709774e-05 -0.023274345 -0.00044459818 -0.000382471
-0.011377079 -0.061819 -0.00054103637 -0.06808604 0.018224116 0.012531908 0.022482011 -0.0005706633
0.05243395 -0.10093955 0.014118916 -0.01519639 -0.022414591 -0.0004786907 -0.00017002506 0.04334588
-0.03167801 -0.046068817 -0.0006126339 6.2467375e-06 0.00049166096 -0.00033807935 0.00043501038 -0.02810278
-0.07010331 -0.020101788 -0.029712401 0.052808356 -0.0005315089 0.030758206 -0.014791205 -0.025845483
0.037590023 0.018273 -0.07121377 -0.030128872 -0.00058175204 0.042944215 -0.00028661275 -0.051221754

side_1.conv.weight f4 [32, 16, 1, 1]
00000000: 2d2e 993d 2701 ff38 3344 c2bd 6d21 8d3d
00000010: 0d83 b23d fbb7 8d3d 3481 04bd b199 193e
00000020: 3137 babd 8dee b83d 2386 033e 72c8 093e
00000030: f0e2 b83d 8854 4bbe 2daa b0ba 8e2e a9bd
00000040: 9626 083e 676c bbbd 7c12 873d b22a a4bc
00000050: 3439 873c 9750 4c3d b8d4 753d 25ff 50bd
00000060: a4c2 83bd 1a76 4abc bb62 eabd 7603 403d
00000070: 5e9a be3d 0ffb 433e 9437 44bd 6fec 01bd
00000080: ba92 253d afbb c23d 40bf 853d 76bd 193b
00000090: 09df 343d 0344 083e 088a 8e3d 4983 4cbd
000000a0: 6b45 983c 0ded ccbd 6a69 373e fbd6 5c3d
000000b0: 8b6f 56bd 41b5 67bd ed17 2f3d a5ce 193e
000000c0: 1517 10bb 86f0 d0bd 0d67 64bd 4b55 a5bc
000000d0: 52fe b13c c3d3 a4bd d77b c8bd d15c 1abd
000000e0: 03de 98bd 6402 9d3d 2ef9 023d dd1e 0b3e
000000f0: c563 e6bc 502c 053e cb36 c03d c306 ec3d
00000100: 82ad 09bd be16 0f3d 546a 3bbd 1cdf 173d
00000110: 34e3 54bd 0db5 8b3e 8cc3 71bd 435a 443d
00000120: caf3 5dbd 3475 d33d 62c6 093e a63f 423e
00000130: 251b 19bd 3df8 03be 2335 3ebe 18b6 55bd
00000140: 58e7 013e a0b7 f2bd 0d5e 0d3e bd10 a43d
00000150: 7593 073e 54f1 4f3c 0500 993d b1ce 203e
00000160: 1f1e 793b bb55 37bd 23c5 fb3c fb0d 07be
00000170: d072 ccbd dd20 57bd 52df a63c 72b9 f93c
00000180: 9558 7abd 6a9a c4bc c923 2abd 1203 bf3d
00000190: d097 f13d cea3 4e3d 2186 0bbe e14e f43b
000001a0: 8862 aa3d 9408 003d 515e a03e bff9 893d
000001b0: 26f6 cebc 14d6 d8bd d043 b7ba 2878 053e
000001c0: b6bd 00bd 5192 ba3d ab89 39bc 79f7 a0bd
000001d0: 1820 5a3d 3e09 3b3e 65d5 abbd 56a3 073c
000001e0: b0bd 0b3e 0330 613e b70f 0dbd 7868 0f3e
000001f0: a446 053e 8aa0 c93d 47bd a6bd 7489 8a3c
00000200: 493d 843e 08ab 2f3d 1016 893e c610 56bd
00000210: 2bb1 83bc 6ac5 c13d cffa 4d3c a13a a3bd
00000220: 1e26 a53d 3448 41be 0b4e 85bd fa2b 06bd
00000230: f043 90bc a2f3 d3bc 6184 8b3e 2486 c53d
00000240: 6884 1a3d db66 ebbd 8d41 e3bd 7998 053e
00000250: 869b c8bc baa1 33bd 02a2 eabd c3c9 ba3c
00000260: d7df 0cbe ac41 8f3c d9b4 933d 5a80 dbbd
00000270: eef7 d83d bb33 723e e271 8e3d 9209 a3bd
00000280: 2119 6d3d 58d9 b6bd 9309 b43c 6851 7b3d
00000290: 9a3c 04bd a8e1 1a3e 91d9 86be 6ef4 a1bd
000002a0: 9841 86bd 291d 253d 7541 4a3e 65e7 00bc
000002b0: b2f4 013e f3e8 bdbc 0a9a 183e 8be9 353c
000002c0: 1001 0cbd be64 d7bd e0b1 eabd 2c8a 8a3d
000002d0: 003b 073e 0277 0fbe e3d7 323e 02ce 4abe
000002e0: 5bde e13c 3507 dcbd 8772 8c3e 3c78 a2be
000002f0: 6491 dcbd b646 52bd 4080 b3bd 1b86 913d
00000300: 7e89 d8bd cb25 17be 75bf 553e 3dad 98be
00000310: 98fe 573e 4d34 25ba 9c7e 32bd 3251 88bd
00000320: a2bb bcbd cb8c fc3a 4b4e 7f3b 5c2f fc3b
00000330: 88d7 c6bd cedb 043e 543a 7bbd de6c d93d
00000340: 7068 52be cda5 f23d 3678 093e 8f2a afbd
00000350: e83d c2bd 92f8 dc3d 892c 053e 16ca d6bd
00000360: 1c14 89be b513 f93d 66f8 b5bd 9608 c83d
00000370: 88d4 33be b6bf 21be f623 d03c e110 88bd
00000380: da4e 93bd 1469 a63d e8d6 89bc e2c1 bc3d
00000390: eb07 b8bb 5a5e fd3d 187f f23d d274 9d3d
000003a0: 7863 c23d dfea 00bd 0534 95bc 18c5 6fbd
000003b0: a74b fa3c 685d 593e efac 30be 967e 283c
000003c0: c005 9c3d 01e5 783d 0666 6b3d a64c 9c3d
000003d0: e792 ce3c 3572 4d3e 66cf d73d 1307 78be
000003e0: f6c5 5ebd 7262 abbd 6b86 fb3d de57 403e
000003f0: ff4f ee3d 058d 1ebe 8a6b 71bd 4d17 6f3e
0.074795105 0.00012159562 -0.09485664 0.06891141 0.08716402 0.06919857 -0.03234978 0.15000035
-0.09092558 0.09029875 0.12844138 0.1345537 0.0902766 -0.19856465 -0.0013478451 -0.08260833
0.1329597 -0.091515355 0.065953225 -0.02003989 0.016506769 0.049881544 0.060017318 -0.051024575
-0.06433609 -0.012357259 -0.114446126 0.0468783 0.09306787 0.1913874 -0.047904566 -0.03171962
0.040423132 0.09508454 0.06530619 0.0023458875 0.044158015 0.13307194 0.06959921 -0.04992989
0.018587789 -0.10006151 0.17911306 0.05391596 -0.05235247 -0.05656934 0.042747427 0.15020235
-0.0021986414 -0.10202126 -0.05576234 -0.020182272 0.021727715 -0.08048203 -0.097892456 -0.037686173
-0.074642204 0.076664716 0.031975918 0.13585992 -0.028123746 0.13005185 0.09385451 0.11524727
-0.033612736 0.034933798 -0.0457557 0.037078008 -0.05197449 0.27286568 -0.05902438 0.047937643
-0.054187573 0.10325089 0.13454583 0.18969592 -0.037379403 -0.12887664 -0.18574958 -0.05217561
0.12685907 -0.1185143 0.13805409 0.08011005 0.13239844 0.012691814 0.07470707 0.15703847
0.0038012338 -0.044759493 0.03073365 -0.13188927 -0.09982836 -0.052521575 0.02037016 0.030483935
-0.061119635 -0.023999412 -0.041538034 0.093267575 0.11796534 0.050449185 -0.13625385 0.007455692
0.083195746 0.03125818 0.31321958 0.067370884 -0.025263857 -0.10587707 -0.0013982002 0.13034117
-0.031430922 0.09109939 -0.0113243265 -0.07859702 0.053253263 0.18265244 -0.08390311 0.008278688
0.13646579 0.21990971 -0.034438815 0.14004695 0.13015229 0.098450735 -0.081415705 0.016911246
0.25828007 0.042887717 0.26774645 -0.05226209 -0.016075691 0.09461482 0.012572004 -0.07970167
0.08063911 -0.188752 -0.06509026 -0.032756783 -0.01761052 -0.02587301 0.27249435 0.09644726
0.03772393 -0.114942275 -0.11096487 0.13046445 -0.024488222 -0.043855406 -0.11456682 0.022801286
-0.13757263 0.01748737 0.07212228 -0.107178405 0.10594164 0.23652546 0.06955315 -0.0796081
0.057885293 -0.08928174 0.021977222 0.061356932 -0.032284357 0.15125144 -0.26337865 -0.079079494
-0.0655548 0.040311012 0.19751532 -0.007867669 0.12691 -0.023182368 0.14902511 0.011103044
-0.0341807 -0.10517262 -0.11459708 0.067646354 0.132061 -0.14010242 0.17465167 -0.19805148
0.027571848 -0.10743562 0.27431127 -0.31732357 -0.107699186 -0.051336966 -0.08764696 0.07105657
-0.105730996 -0.1476051 0.20873816 -0.2981967 0.21093214 -0.0006302044 -0.043577775 -0.06656112
-0.092154756 0.0019268034 0.0038956578 0.0076960754 -0.09709078 0.12974474 -0.061334923 0.10616468
-0.20547652 0.1184803 0.13424763 -0.08553039 -0.09484464 0.107895985 0.1300527 -0.104877636
-0.26773155 0.12161962 -0.08885269 0.09767263 -0.17561543 -0.15795788 0.025407773 -0.066438444
-0.07192774 0.08125511 -0.016826108 0.09216668 -0.0056161783 0.12371512 0.118406475 0.07688297
0.094916284 -0.03147399 -0.018213281 -0.058537573 0.030553652 0.21227038 -0.17253469 0.010284087
0.07618284 0.06076527 0.057470344 0.07631807 0.025216533 0.20063098 0.10537605 -0.24221449
-0.05438801 -0.08368386 0.122814976 0.18783519 0.11636352 -0.15483482 -0.058940448 0.23348732

side_1.conv.bias f4 [32]
00000000: e9cd 503d 2ee6 a3bd b286 0f3e 97c4 973d
00000010: b6c9 a33e dc5b bcbd b489 4b3d 5547 0b3c
00000020: 774a 4f3c 6502 a8bd 534d 073e abb7 56bb
00000030: 7beb 093e 5b23 d43d 8977 c5bb 0940 9a3d
00000040: e6b1 afbd 3a26 9d3d 8696 21bd 2399 c03c
00000050: 96ec 643d 92e2 28be 92a9 9aba e8d9 8f3c
00000060: 5262 883d 3a38 54be 5722 373d 7f72 8ebd
00000070: 1022 a9bc c314 643b e3fd 193e 71ba b13d
0.05097762 -0.08002888 0.14016226 0.074105434 0.3198983 -0.09197208 0.04969187 0.008500894
0.012652031 -0.08203582 0.1321309 -0.0032763283 0.13468735 0.10358306 -0.0060262126 0.07531745
-0.08578853 0.07673307 -0.03945019 0.023510521 0.05588969 -0.1649268 -0.0011799803 0.01755996
0.06659378 -0.20724574 0.044710483 -0.06955432 -0.020646125 0.0034802414 0.15038256 0.08678139
