checkpoints/BIPED/7/7_model.pth (torch, 249139 bytes, 30 tensors)

block_1.conv1.weight f4 [16, 3, 3, 3]
0	0xbe34f3d4	-0.17671138
1	0xbd9fcff5	-0.078033365
2	0xbe50ceb8	-0.20391357
3	0xbd4c150f	-0.04982477
4	0xbdc2c0f3	-0.095094584
5	0xbe057aaa	-0.13035074
6	0xbe4ccc09	-0.19999708
7	0xbd96e554	-0.073679596
8	0xbe11b684	-0.1422978
9	0x3e340ec5	0.17583759
10	0x3d12ba67	0.0358223
11	0xbd313cab	-0.043270748
12	0x3cef4a5d	0.029210264
13	0x3e000814	0.12503082
14	0xbdab59eb	-0.0836676
15	0xbe2b84ea	-0.16749921
16	0xbda75f1c	-0.081724375
17	0xbdb37604	-0.08762744
18	0x3e23fed4	0.16015178
19	0x3e05d166	0.1306816
20	0x3debb0c8	0.11508328
21	0x3e6661a6	0.22498187
22	0x3e92a00c	0.2863773
23	0x3e1910c3	0.149478
24	0x3d891b2d	0.066946365
25	0x3e1fce7a	0.15606108
26	0xbda02f6b	-0.07821544
27	0xbdcda90e	-0.1004201
28	0xbd4da143	-0.05020262
29	0xbe240327	-0.16016828
30	0xbe0e9db3	-0.13927345
31	0xbd0add50	-0.033902466
32	0xbd9ef79b	-0.07762071
33	0xbe2bdc2e	-0.1678321
34	0xbdda6b98	-0.10665053
35	0x3cc42aec	0.023946248
36	0x3ee2e472	0.44314915
37	0x3e153302	0.14570239
38	0x3d975607	0.07389455
39	0x3e3ba65d	0.18325181
40	0x3e2b3cbd	0.16722389
41	0x3cafbd71	0.021452637
42	0x3e17e061	0.14831688
43	0x3e49d3ed	0.1970975
44	0x3e35bef9	0.17748632
45	0xbc2f2eec	-0.010692339
46	0xbe98efe4	-0.29870522
47	0xbdc67622	-0.09690501
48	0x3dc82ab1	0.09773768
49	0xbda06732	-0.07832183
50	0xbd9636ee	-0.07334696
51	0xbdc29d2d	-0.09502635
52	0xbde69c3f	-0.1126027
53	0x3c9eb3f7	0.019372923
54	0x3e08d099	0.13360824
55	0xba7492a2	-0.00093297113
56	0x3d8675c7	0.06565433
57	0xbbeb5741	-0.0071820323
58	0xbe005ec3	-0.12536149
59	0xbd2e08f1	-0.042488996
60	0xbcbca00d	-0.023025537
61	0xbe04b76d	-0.12960596
62	0x3d899cc6	0.06719355
63	0x3d313e40	0.043272257
64	0xbda703f8	-0.08155054
65	0x3db11713	0.08646979
66	0x3c4fd96b	0.012686114
67	0xbde6a462	-0.11261822
68	0x3e510a50	0.2041409
69	0x3df05f2f	0.11736905
70	0xbe2edccb	-0.17076413
71	0x3aeacb54	0.001791338
72	0x3d6d35a4	0.057912484
73	0xbdf33f17	-0.11877268
74	0xbd02dc63	-0.03194846
75	0x3cc039bc	0.02346503
76	0xbe18069e	-0.14846274
77	0xbde95232	-0.11392631
78	0x3d99eb54	0.075155884
79	0xbe8d1228	-0.27552915
80	0xbd94732b	-0.07248529
81	0xbd08fbd8	-0.033443302
82	0x3ddc9646	0.1077085
83	0x3e29b6bd	0.16573615
84	0xbd843ab0	-0.06456506
85	0x3ea6b104	0.32556927
86	0x3e674035	0.22583087
87	0xbe700c9e	-0.23442313
88	0xbcfaceaa	-0.030616123
89	0x3e29f1e9	0.16596188
90	0xbe4637a6	-0.19357166
91	0xbe3b5f70	-0.18298125
92	0xbe0d5cfa	-0.13804999
93	0xbcb1e53e	-0.021715757
94	0x3d80fbde	0.0629804
95	0x3ce82116	0.02833609
96	0xbd57ac8c	-0.052654788
97	0xbdc834be	-0.09775685
98	0xbe825fa6	-0.254636
99	0x3dcf4700	0.10120964
100	0xbdbeb80c	-0.09312448
101	0x3dddfa4a	0.108387545
102	0x3e1babc3	0.1520224
103	0x3c97f15a	0.018547703
104	0x3e2fbefa	0.17162696
105	0xbd5d2564	-0.053990737
106	0xbc3791fe	-0.011204241
107	0xbdd941ad	-0.1060823
108	0xbe044795	-0.12917931
109	0xbd9ee0d8	-0.07757729
110	0xbdb519b8	-0.08842796
111	0xbd5b745a	-0.05357776
112	0x3d5e9bcd	0.054347802
113	0x3c956c6b	0.018240174
114	0xbe1d3c4e	-0.15355036
115	0x3d891a90	0.066945195
116	0x3d6f9aaf	0.058497127
117	0xbdb32cc0	-0.0874877
118	0x3d8b5640	0.0680356
119	0xbe461a37	-0.19345938
120	0xbc203eb3	-0.009780574
121	0x3e11d01c	0.14239544
122	0xbdad5553	-0.0846354
123	0x3c584a63	0.013201329
124	0x3c225e7f	0.009910225
125	0x3df0990f	0.117479436
126	0xbb9f9337	-0.0048698443
127	0x3e518558	0.20461023
128	0x3dd1efa1	0.10250784
129	0xbd2435bf	-0.04009032
130	0x3e5ab4b4	0.21357995
131	0x3db6eae6	0.08931522
132	0x3cee58c3	0.02909506
133	0x3e10904b	0.14117543
134	0xbd11aa49	-0.035562787
135	0xbd024ffe	-0.031814568
136	0x3d8cd8a6	0.0687726
137	0x3cf9c3ec	0.03048893
138	0xbd6ab373	-0.057300042
139	0x3d49f324	0.049304143
140	0xbd088967	-0.033334162
141	0xbc9c4fd2	-0.01908103
142	0x3b8781b0	0.004135333
143	0xbb04d098	-0.0020265933
144	0xbde898a3	-0.11357238
145	0xbe1045f4	-0.14089185
146	0xbe551bbf	-0.20811366
147	0xbe6f2afd	-0.23356242
148	0xbdb3d540	-0.087809086
149	0xbdbbc3ec	-0.091682285
150	0xbe3e74bc	-0.18599218
151	0xbdc6ed78	-0.09713262
152	0xbe6c761c	-0.2309193
153	0x3d332de7	0.043744948
154	0x3df8e953	0.12153878
155	0x3cb95aa1	0.022626223
156	0x3e38c41b	0.18043558
157	0x3e332b8a	0.17497078
158	0x3e0d816c	0.13818902
159	0x3e247a9e	0.160624
160	0x3e95ce0a	0.29258758
161	0x3e3c069e	0.183619
162	0x3db789eb	0.08961853
163	0x3e460c08	0.19340527
164	0x3e4a26fd	0.19741435
165	0xbca015f7	-0.019541724
166	0x3e1830b5	0.1486233
167	0x3dca32af	0.098729484
168	0x3d0087e3	0.03137959
169	0x3e906ca6	0.28207892
170	0x3e065381	0.13117792
171	0x3caee74b	0.021350523
172	0x3b8182c0	0.003952354
173	0xbda1a1a8	-0.078921616
174	0xbd39062a	-0.045171894
175	0x3db0ca9f	0.08632397
176	0x3d4634ba	0.048390128
177	0x3d0106e6	0.03150072
178	0x3dafd516	0.08585565
179	0x3db9caa1	0.090718515
180	0xbdd44864	-0.1036537
181	0xbe29e835	-0.16592486
182	0xbe1e2782	-0.15444759
183	0x3cdd29a4	0.026997395
184	0xbdddb395	-0.10825268
185	0xbe9788f3	-0.2959667
186	0xbdeac423	-0.11463191
187	0xbe16da68	-0.14731753
188	0xbe844370	-0.258327
189	0xbd445a92	-0.047937937
190	0x3e9e2af2	0.3089214
191	0x3e1f713a	0.15570536
192	0x3db7af14	0.089689404
193	0xbd6e351b	-0.058156114
194	0x3dc6ec4d	0.097130395
195	0xbd4a2dca	-0.049360074
196	0xbe0608c1	-0.13089277
197	0xbc444884	-0.01198018
198	0xbe1cc601	-0.15309907
199	0x3c820ecb	0.015876194
200	0x3e160325	0.14649637
201	0x3e457087	0.19281207
202	0x3d935d07	0.07195478
203	0x3c832720	0.016009867
204	0xbe393c13	-0.18089323
205	0xbe9e1e3a	-0.30882436
206	0xbe7e9706	-0.24862298
207	0xba288b63	-0.00064294616
208	0x3e297867	0.16549836
209	0x3d08665d	0.033300746
210	0x3e1aaac4	0.15104204
211	0x3b9cbc3f	0.004783183
212	0x3dfe089e	0.12403987
213	0x3d024a8e	0.031809382
214	0xbe50d27f	-0.20392798
215	0xbe40c8a4	-0.18826538
216	0x3c8874d6	0.016657274
217	0x3d2ee5bb	0.042699557
218	0x3cba0b40	0.022710443
219	0x3e901409	0.28140286
220	0x3d458c50	0.048229516
221	0x3d812706	0.06306271
222	0x3e24aaa1	0.16080715
223	0xbba7cb25	-0.0051206523
224	0x3e047ecd	0.12938996
225	0xbe4f3c72	-0.20237902
226	0xbe45a508	-0.19301236
227	0xbe238d2a	-0.15971819
228	0xbe5df957	-0.21677147
229	0xbdfd9886	-0.12382607
230	0xbb9ff938	-0.004882004
231	0xbe2a5b37	-0.16636358
232	0xbe63f041	-0.22259618
233	0xbceff5f6	-0.029292088
234	0xbcf63a44	-0.03005708
235	0x3d5beed4	0.05369456
236	0x3bbaf9bc	0.00570604
237	0x3cbe023b	0.023194423
238	0x3d873ba3	0.06603172
239	0x3e84aad0	0.2591157
240	0x3d51f7f8	0.051261872
241	0xbb703888	-0.003665479
242	0x3e51dce7	0.20494424
243	0xbe4768ec	-0.19473618
244	0xbd015438	-0.031574458
245	0xbdafa588	-0.085764945
246	0xbca5f1b1	-0.020256849
247	0x3cb1d09d	0.02170592
248	0x3e054908	0.1301614
249	0xbc74d3ad	-0.014943046
250	0x3ced219a	0.028946687
251	0x3e35f802	0.17770389
252	0xbe41c96b	-0.18924491
253	0xbe519eb6	-0.204707
254	0xbda2ce62	-0.07949521
255	0x3de71661	0.11283565

block_1.conv1.bias f4 [16]
0	0x3d7e5e7f	0.062101837
1	0x3d415615	0.047201235
2	0x3da4336e	0.08017622
3	0x3e946946	0.28986567
4	0x3e81a31e	0.2531976
5	0x3e7f7770	0.24947906
6	0x3e999af7	0.3000104
7	0xbe1fdda0	-0.15611887
8	0x3f152d49	0.58272225
9	0xbec54c99	-0.38535002
10	0xbed00da7	-0.40635416
11	0x3e261fd1	0.16223074
12	0xbefc0df4	-0.49229395
13	0xbedee7da	-0.43536264
14	0xbef72e53	-0.4827753
15	0xbd861104	-0.06546214

block_1.conv2.weight f4 [16, 16, 3, 3]
0	0xbc3bae22	-0.011455091
1	0x3cd66ada	0.026173998
2	0x3df47abf	0.119374745
3	0xbd920511	-0.071298726
4	0xbd8d26ab	-0.06892141
5	0xbd943c3d	-0.07238052
6	0x3de3943d	0.111122586
7	0x3dd95903	0.10612681
8	0xbda4657e	-0.080271706
9	0x3c16fa69	0.009214976
10	0x3d01430a	0.031558074
11	0xbca0f0b1	-0.01964602
12	0xbc3833ba	-0.011242801
13	0x3cc15062	0.0235979
14	0x3de16444	0.11005452
15	0x3da59f49	0.08087022
16	0xbe0ce072	-0.13757494
17	0xbc8f1e9e	-0.017470654
18	0xbcaadb52	-0.020856533
19	0x3d58cb4b	0.05292825
20	0x3e6bee91	0.23040225
21	0xbe11ac94	-0.1422599
22	0xbe38dcee	-0.18053028
23	0x3e418ed5	0.18902142
24	0xbe1cb960	-0.1530509
25	0xbe7fdd9a	-0.24986878
26	0x3e355da5	0.17711504
27	0x3dbfd146	0.093660876
28	0x3dfe07c4	0.12403825
29	0x3d4bd8ca	0.049767293
30	0xbdd9d98f	-0.10637199
31	0xbe9193a7	-0.28432962
32	0xbe0cf781	-0.1376629
33	0x3d7c68dd	0.061623443
34	0xbcf57375	-0.02996228
35	0x3dcf799e	0.101306185
36	0x3d8b5589	0.06803424
37	0xbd202992	-0.039102145
38	0xbd2147d9	-0.03937516
39	0x3dc4e5c6	0.09614138
40	0xbcda5fb5	-0.026656965
41	0xbe2ec4c0	-0.17067242
42	0x3dbf4c00	0.09340668
43	0x3e092962	0.13394693
44	0xbe0acf93	-0.13555746
45	0x3bfcbea4	0.007713156
46	0xbd49d4a3	-0.04927505
47	0x3b16d8c9	0.0023017398
48	0x3d83806a	0.064209774
49	0x3d022d68	0.031781584
50	0xbe6541de	-0.22388408
51	0x3e0a79eb	0.1352307
52	0x3df55880	0.11979771
53	0xbd1117cd	-0.03542309
54	0x3beda9e1	0.007252917
55	0xbd5d4b0c	-0.05402665
56	0x3db5fded	0.08886323
57	0x3d9d5c36	0.076836035
58	0x3d116dfd	0.035505284
59	0xbd790e42	-0.060804613
60	0xbd0299e6	-0.03188505
61	0x3dd69cd5	0.10479132
62	0xbdae0e2f	-0.08498799
63	0x3caa4442	0.020784501
64	0xbdfdfcc0	-0.12401724
65	0xbda20bd5	-0.07912413
66	0xbdd64232	-0.104618445
67	0xbe59ccad	-0.21269484
68	0x3cf099b4	0.029370166
69	0xbdb24e3e	-0.0870633
70	0xbd541107	-0.05177405
71	0x3d8f857a	0.070078805
72	0xbd3f6285	-0.046724815
73	0x3d499e28	0.049223095
74	0x3d8eefdd	0.06979344
75	0x3dd0a8a8	0.101884186
76	0xbe432059	-0.19055308
77	0xbb5d81b4	-0.0033799233
78	0x3dbd2804	0.09236148
79	0xbe01ae76	-0.12664208
80	0x3e0c0594	0.13674003
81	0xbd59acc5	-0.05314328
82	0xbd973afc	-0.07384297
83	0xbdf71470	-0.12064445
84	0x3d01ce2e	0.03169077
85	0xbb07a3be	-0.0020696963
86	0xbe1faf93	-0.1559432
87	0xbca40f2d	-0.020026768
88	0x3de22c8a	0.110436514
89	0x3d1d1c0a	0.03835682
90	0xbd859e8a	-0.065243796
91	0x3d70d497	0.05879649
92	0xbc8bb9e2	-0.01705641
93	0xbe45e9f5	-0.19327529
94	0x3d81c1bf	0.06335782
95	0xbe4c6cea	-0.19963422
96	0xbe7d22c4	-0.24720293
97	0x3e34c845	0.17654522
98	0xbe19ae18	-0.15007818
99	0xbc22d959	-0.009939515
100	0xbb55c3c1	-0.00326179
101	0x3d93bc0c	0.072136015
102	0xbbaaceb3	-0.0052126287
103	0xbcec8440	-0.028871655
104	0x3de1d432	0.11026801
105	0xbc674670	-0.014115915
106	0xbe29969e	-0.16561362
107	0x3d89cd76	0.06728642
108	0x3d94a7bd	0.07258556
109	0x3dcd050a	0.10010727
110	0x3d49e95b	0.04929481
111	0x3d5e4803	0.054267894
112	0x3e6e0f7e	0.23248097
113	0x3d604efd	0.05476283
114	0x3c8377d2	0.016048346
115	0x3d2899fd	0.04116248
116	0x3ea279f7	0.31733677
117	0x3d2773af	0.04088181
118	0x3dd5a3b1	0.10431612
119	0xbd47523a	-0.0486624
120	0xbd40c94b	-0.047066968
121	0x3d06422d	0.032777954
122	0x3e430aac	0.1904704
123	0xbe0c556b	-0.1370446
124	0xbd80da11	-0.06291593
125	0xbd8c24b8	-0.06842941
126	0xbcdfc34e	-0.027314808
127	0xbd30b6b2	-0.04314298
128	0xbdb26c9b	-0.08712121
129	0xbcfc35bc	-0.030787341
130	0x3dbbdadd	0.09172604
131	0x3e1bb47d	0.1520557
132	0xbe92687a	-0.28595334
133	0xbe9c2e50	-0.30504084
134	0xbda981ec	-0.08276734
135	0x3d8008fb	0.06251713
136	0x3d5ed18a	0.05439905
137	0xbd8539b0	-0.06505144
138	0xbbad1549	-0.0052820784
139	0x3d9f90f7	0.07791322
140	0x3e118953	0.14212541
141	0xbdcf27b9	-0.10114998
142	0x3d97155b	0.0737712
143	0xbd580b48	-0.052745134
144	0x3d1b2e9a	0.03788624
145	0xbc9a59f1	-0.018841716
146	0xbd8b23d9	-0.06793947
147	0xbd0bccdc	-0.034130916
148	0x3cce7d3b	0.025206199
149	0x3cf579b3	0.029965257
150	0xbd725a7d	-0.059168328
151	0x3d02259f	0.03177416
152	0x3dca7259	0.09885091
153	0xbde68b60	-0.112570524
154	0x3ab282ab	0.0013619264
155	0xbcbb2380	-0.022844076
156	0xbd1d1db7	-0.038358416
157	0xbc153b20	-0.009108335
158	0x3df916da	0.12162562
159	0xbda0390f	-0.07823383
160	0xbcee8799	-0.029117392
161	0x3e238c0c	0.15971392
162	0x3c91fed2	0.017821703
163	0xbd58c0fc	-0.05291842
164	0x3b7772ec	0.0037757708
165	0x3d42bba4	0.04754223
166	0x3c7398ad	0.014867944
167	0x3d91b3a3	0.07114341
168	0x3da3a7cd	0.0799099
169	0x3c9c2bea	0.019063909
170	0x3cebdc3a	0.028791536
171	0x3bdfdfc7	0.0068320963
172	0x3b9f23b6	0.004856552
173	0xbcb3e3c1	-0.021959187
174	0x3d5dbaca	0.054133214
175	0x3cbeccf8	0.023291096
176	0xbdbddc23	-0.09270503
177	0x3d0d5183	0.034501564
178	0x3d3c0e51	0.04591209
179	0x3ab3a9d7	0.0013707232
180	0xbd2dcb3c	-0.042430148
181	0xbc44abd5	-0.012003859
182	0xbcff7cef	-0.031187503
183	0x3cda4edf	0.026648937
184	0x3e41e824	0.18936211
185	0x3d6dfec9	0.05810431
186	0xbdaa7db9	-0.08324761
187	0x3ce9895f	0.028507886
188	0xbd1471cd	-0.03624134
189	0xbc94a356	-0.01814429
190	0x3c08c40f	0.008347525
191	0x3d8997fc	0.06718442
192	0xbc884d53	-0.016638434
193	0x3d4688b2	0.048470207
194	0x3d79bb5d	0.0609697
195	0xbd758307	-0.05993941
196	0x3cb9a25f	0.022660432
197	0x3d93b531	0.07212294
198	0xbd9b3222	-0.075779215
199	0x3d4bd7af	0.04976624
200	0x3e005792	0.12533405
201	0x3c79e91d	0.015253332
202	0x3e3cbe1d	0.18431897
203	0xbc954951	-0.018223437
204	0xbdadeb02	-0.0849209
205	0x3c94fb28	0.018186167
206	0xbc947f0f	-0.018126993
207	0x3e8814a2	0.26578242
208	0xbde49d2c	-0.11162791
209	0xbe38a8c4	-0.18033129
210	0x3d58a159	0.052888248
211	0xbe679b4a	-0.22617832
212	0xbe18d9f1	-0.14926888
213	0x3d4ff39f	0.050769445
214	0xbbcb41e2	-0.006202922
215	0x3c127eb2	0.008941339
216	0x3d229a30	0.039697826
217	0x3e18a42e	0.1490638
218	0x3d7c3939	0.06157801
219	0x3e495f85	0.19665344
220	0xbc915363	-0.017739957
221	0xbcd85e99	-0.026412295
222	0x3cdafdda	0.026732374
223	0xbdc2709d	-0.094941355
224	0xbdff3a9f	-0.12462353
225	0xbdaed225	-0.08536176
226	0x3d9f0807	0.07765203
227	0x3d8d1d29	0.068903275
228	0x3d1e6320	0.03866875
229	0xbdaee2f7	-0.08539384
230	0xbc5185b3	-0.012788224
231	0x3c5c5ca7	0.013449824
232	0x3d935395	0.071936764
233	0x3df793ef	0.12088763
234	0x3e880dfc	0.2657317
235	0xbd9f700a	-0.07785042
236	0xbd8ac992	-0.06776728
237	0xbe0468d2	-0.12930611
238	0xbe7bc13a	-0.24585429
239	0xbd91f41d	-0.07126639
240	0xbe08d767	-0.1336342
241	0xbe1b9758	-0.15194452
242	0x3db88aa3	0.09010818
243	0xbd6ce34d	-0.05783396
244	0xbd23f707	-0.040030506
245	0xbc73a56e	-0.0148709845
246	0xbd29904e	-0.041397385
247	0xbd139c27	-0.03603759
248	0xbb8deb39	-0.0043310192
249	0xbd514910	-0.05109507
250	0x3c92d5cd	0.017924214
251	0x3c7a198e	0.015264882
252	0x3e07014c	0.13184088
253	0xbd360ec3	-0.04444767
254	0xbd6d80fd	-0.05798434
255	0x3bcad64c	0.006190097

block_1.conv2.bias f4 [16]
0	0xbd5b8dca	-0.053602017
1	0xbbb64b6a	-0.0055631893
2	0x3e87d01a	0.26525956
3	0x3d9194ff	0.07108497
4	0xbe2f16fb	-0.1709861
5	0x3fddc5c2	1.7325976
6	0xbeaef561	-0.34171584
7	0x3d2a5d61	0.04159296
8	0xbd66beea	-0.056334414
9	0x3efa89b3	0.4893318
10	0x3f684dc1	0.90743643
11	0x3e87493b	0.26423058
12	0x3b247548	0.002509432
13	0xbe400e3a	-0.18755427
14	0xbe0dc664	-0.13845211
15	0xbe101305	-0.14069755

block_2.conv1.weight f4 [32, 16, 3, 3]
0	0xbd96b799	-0.07359237
1	0xbdc832b3	-0.09775295
2	0xbdce3f15	-0.10070626
3	0xbc38d009	-0.011280068
4	0xbdd490b8	-0.103791654
5	0x3da11151	0.07864631
6	0x3d0fa76f	0.035071786
7	0xbd8125a4	-0.063060075
8	0x3cc7142b	0.024301609
9	0x3cac7119	0.021050023
10	0xbdab68e9	-0.083696194
11	0xbd1ee482	-0.03879214
12	0x3d4eaae1	0.05045593
13	0xbdbae8d8	-0.09126443
14	0xbdaeb8be	-0.085313305
15	0x3d8a866a	0.06763919
16	0x3d20560c	0.03914456
17	0xbdcf0142	-0.10107662
18	0xbb77efb4	-0.0037832083
19	0x3de6c104	0.112672836
20	0x3d870cce	0.06594239
21	0xbdc0df82	-0.09417631
22	0xbd83f9af	-0.06444108
23	0xbd962809	-0.07331855
24	0xbdafc9f3	-0.08583441
25	0x3d61d895	0.05513819
26	0xbd8103bf	-0.06299543
27	0xbd632ef3	-0.055464696
28	0xbd6bd331	-0.057574455
29	0xbdb77f80	-0.089598656
30	0xbd032291	-0.032015387
31	0xbc2a2bf5	-0.010386457
32	0x3ccf8dee	0.025336232
33	0x3d9d1bed	0.07671342
34	0xbce3a0c4	-0.02778662
35	0x3d6d5c5e	0.057949416
36	0x3d4f4e3b	0.050611716
37	0x3d8831a5	0.06650094
38	0x3c3df93d	0.011595068
39	0x3d9e8d55	0.07741801
40	0xbcef12ed	-0.02918383
41	0xbcf92ac3	-0.030415898
42	0x3ae2734f	0.0017276796
43	0xbd6a3249	-0.057176862
44	0xbd4a9942	-0.049462564
45	0xbbe35de7	-0.0069386843
46	0xbc5ba3f5	-0.01340579
47	0xbd5c508b	-0.05378775
48	0xbd1e0fe0	-0.03858936
49	0xbb44aee4	-0.003001147
50	0xbd54c74e	-0.051947884
51	0xbcd4fbde	-0.025999006
52	0x3cd70415	0.026247064
53	0xbc8c9744	-0.017161973
54	0x3d2b3a0f	0.041803416
55	0xbcabddf2	-0.020979855
56	0xbce2992d	-0.02766093
57	0xbde3a734	-0.11115876
58	0x3cf5a19e	0.029984292
59	0xbe332455	-0.17494328
60	0xbca6d9c0	-0.020367503
61	0xbbe40d2f	-0.0069595794
62	0xbd6aebbc	-0.05735372
63	0xbc10f44f	-0.00884731
64	0xbd383546	-0.04497268
65	0xbdaf1e8f	-0.085507505
66	0x3c5dbf38	0.01353436
67	0x3b601a4a	0.0034195357
68	0xbd2c4a6c	-0.04206316
69	0x3d30c91c	0.043160543
70	0x3d02178f	0.03176075
71	0x3d3916fa	0.045187928
72	0xbde67835	-0.112533964
73	0x3d61d302	0.055132873
74	0x3d40aab3	0.04703779
75	0xbd7f90c9	-0.062393937
76	0x3d96664e	0.07343732
77	0xbcd0712a	-0.025444586
78	0xbc60fa69	-0.013731577
79	0x3d6a3d19	0.057187174
80	0x3d6c31be	0.057664625
81	0xbcf5207d	-0.029922718
82	0xbc1ac0b0	-0.009445354
83	0x3d1069f6	0.035257302
84	0xbc445cb8	-0.0119849965
85	0xbc38b632	-0.0112739075
86	0xbca2e06d	-0.019882405
87	0x3c8600a8	0.016357735
88	0x3d135fe0	0.035980105
89	0xbc9a47ca	-0.01883306
90	0x3c931f8e	0.017959382
91	0x3df59c2c	0.11992678
92	0x3e3b4de1	0.18291427
93	0xbb303f3a	-0.0026893155
94	0x3d1d3a65	0.038385767
95	0x3defd9df	0.117114775
96	0xbd9af321	-0.075659044
97	0xbd9d72d5	-0.07687918
98	0x3e176d01	0.14787675
99	0xbd5c7c41	-0.053829435
100	0x3bd4bbe2	0.006492124
101	0x3d31633b	0.043307524
102	0xbd41c56a	-0.04730741
103	0x3d08e497	0.033421125
104	0x3d9cbc69	0.07653124
105	0xbd3de968	-0.04636517
106	0xbcdee5a1	-0.027209105
107	0x3cc01b60	0.023450553
108	0xbd60ef21	-0.05491555
109	0x3da2d454	0.079506546
110	0xbc966338	-0.018357858
111	0x3d13dd1f	0.03609955
112	0x3dc40a72	0.09572305
113	0x3d94f21d	0.07272742
114	0x3b0f669a	0.0021881224
115	0x3bb52bd7	0.0055289078
116	0x3e16c94e	0.14725229
117	0x3d0b1756	0.0339578
118	0x3d7af565	0.061269183
119	0x3c9ad463	0.018900102
120	0x3d5fccae	0.054638557
121	0x3daf0214	0.08545318
122	0x3cfbfb77	0.030759556
123	0xbd6f9e05	-0.05850031
124	0xbc7e8ecd	-0.015536976
125	0xbdddc260	-0.1082809
126	0x3c8e6f38	0.017387018
127	0xbce054bc	-0.027384154
128	0xbca96ff8	-0.020683274
129	0x3d834258	0.064091384
130	0x3d645fd0	0.055755436
131	0xbcb50a6c	-0.022099696
132	0xbb394bff	-0.0028274057
133	0xbd8cb3e3	-0.06870248
134	0xbe520ae8	-0.20511973
135	0x3d68bb25	0.0568191
136	0x3c3b636e	0.01143728
137	0x3bbdf2ad	0.0057967515
138	0x3d75deb2	0.060026832
139	0x3d40fe78	0.04711768
140	0x3cdfc9c4	0.027317889
141	0x3d88ad0e	0.066736326
142	0x3ccfe63d	0.02537834
143	0x3d1622c3	0.036654245
144	0xbd557cd2	-0.05212099
145	0x3d0016a5	0.031271596
146	0x3b23ac1e	0.0024974416
147	0xbd9ddfbe	-0.07708691
148	0xbcbcbf10	-0.023040324
149	0xbc526e7f	-0.012843727
150	0xbdd1e056	-0.10247867
151	0xbdcbde97	-0.09954565
152	0xbd71ae30	-0.05900401
153	0x3d0723f8	0.032993287
154	0xbcb554bf	-0.022135137
155	0xbd655893	-0.055992674
156	0xbd625303	-0.055254947
157	0xbcbfe27b	-0.023423424
158	0xbcbe229e	-0.023209866
159	0x3d27cd81	0.04096747
160	0x3ce116bc	0.02747666
161	0x3ced7308	0.028985515
162	0xbd801198	-0.06253356
163	0x3ca41dd3	0.020033753
164	0xbd8cef35	-0.068815626
165	0xbbc0228c	-0.0058634933
166	0x3d1bee9f	0.038069364
167	0x3cd14656	0.025546234
168	0xbd8b793b	-0.06810232
169	0xbd32937e	-0.04359769
170	0xbd9542b6	-0.07288115
171	0x3d72852c	0.059209034
172	0xbaeb4db5	-0.0017952236
173	0x3c9cb804	0.019130714
174	0xbaee3a16	-0.001817527
175	0xbb4d9e99	-0.003137505
176	0x3cce22a7	0.025163008
177	0xbd17d4ba	-0.037068106
178	0x3ae6ff6b	0.0017623728
179	0x3c0703c6	0.008240646
180	0xbc7ae3a1	-0.01531306
181	0xbd27080f	-0.04077917
182	0xbcaabab8	-0.020840988
183	0xbd36ce10	-0.04463011
184	0xbd312427	-0.04324737
185	0xbd80f318	-0.062963665
186	0xbde0988a	-0.109665945
187	0xbdac28f4	-0.08406249
188	0xbe1eb3d1	-0.15498282
189	0xbe32f732	-0.1747711
190	0x3cf6818a	0.030091066
191	0xbdcf26ae	-0.101147994
192	0xbd5eb35e	-0.054370277
193	0x3e0cafb5	0.13738902
194	0x3b2c6115	0.0026302983
195	0x3d153bbb	0.036433917
196	0x3ecb4760	0.39702892
197	0x3e0f8535	0.14015658
198	0x3d5aa13e	0.05337643
199	0xbc1dfa40	-0.009642184
200	0xbd38d42a	-0.04512421
201	0x3d0ed4ef	0.034871038
202	0xbcf94737	-0.030429466
203	0xbc9b2b1e	-0.018941458
204	0x3db1b41a	0.0867693
205	0xbdba48b9	-0.09095902
206	0xbdbf9c27	-0.093559556
207	0xbaa2cebe	-0.0012421233
208	0xbc64ae9d	-0.013957647
209	0x3bd6ae5a	0.006551546
210	0x3c191c09	0.009345063
211	0x3d9bc0a2	0.07605101
212	0x3d7cd7a1	0.061729077
213	0x3c9cbecd	0.01913395
214	0x3d80012d	0.06250224
215	0x3d778564	0.060429946
216	0xba2a619c	-0.000649953
217	0x3c93d2ef	0.018044917
218	0xbd4744e0	-0.04864967
219	0x3d4c8000	0.049926758
220	0x3ca111ef	0.019661872
221	0xbce934bb	-0.028467527
222	0x3c9726e2	0.018451158
223	0xbbbdd20a	-0.005792861
224	0x3c1114bc	0.008855041
225	0xbd3fe3ed	-0.046848226
226	0xbca746d6	-0.02041952
227	0xbd0c3112	-0.034226485
228	0xbc598f73	-0.01327883
229	0x3d25f73f	0.040518995
230	0xbc78ec90	-0.01519312
231	0x3d03af64	0.032149687
232	0x3e4af8c7	0.19821464
233	0x3d8d8d80	0.069117546
234	0x3c3cb229	0.011517086
235	0x3dbbed2c	0.09176096
236	0x3d974afc	0.07387349
237	0xbc9461c6	-0.018113028
238	0x3d306750	0.043067276
239	0x3cadd0cf	0.021217732
240	0xbcbb8631	-0.022891136
241	0x3d2ceb64	0.042216673
242	0xbd09fa17	-0.03368577
243	0xbd967164	-0.07345846
244	0xbb128633	-0.002235782
245	0xbcb02803	-0.021503454
246	0x3a42d036	0.00074315385
247	0x3d0c73ca	0.034290113
248	0x3cabc91f	0.020969925
249	0x3bcde433	0.006283307
250	0x3e142376	0.14466652
251	0x3d35e54c	0.044408128
252	0xbd58a5ff	-0.05289268
253	0x3ca55285	0.02018095
254	0x3d8f03a7	0.069831185
255	0x3c5e9903	0.0135862855

block_2.conv1.bias f4 [32]
0	0xbd92be06	-0.0716515
1	0x3f8887f4	1.066649
2	0x3c1cf0f7	0.009578935
3	0x3e6d29cd	0.23160477
4	0x3bfe557a	0.0077616544
5	0x3de7f2c0	0.11325598
6	0x3d8eec19	0.06978626
7	0xbe669dda	-0.22521153
8	0x3e676d7d	0.2260036
9	0x3c9163e8	0.017747834
10	0x3e4a971d	0.19784208
11	0x3d871e51	0.06597579
12	0x3d30bf8f	0.043151435
13	0xba24100e	-0.0006258496
14	0x3f76c0c8	0.9638791
15	0x3d2f2d52	0.04276783
16	0xbd258005	-0.040405292
17	0x3dae57b1	0.085128196
18	0xbd0ab268	-0.033861548
19	0x3db3050c	0.08741197
20	0xbdc9f890	-0.09861863
21	0xbc82a89f	-0.015949545
22	0x3e3f5286	0.18683824
23	0x3ee6a543	0.4504796
24	0xbc24fc6c	-0.010069948
25	0x3de5f420	0.11228204
26	0x3e067689	0.13131155
27	0xbce5cb3a	-0.028051008
28	0x3d692eca	0.056929387
29	0x3d565030	0.052322567
30	0x3e60db42	0.2195864
31	0x3dc34acd	0.095357515

block_2.conv2.weight f4 [32, 32, 3, 3]
0	0xbd6ccb1f	-0.0578109
1	0xbca39da5	-0.019972632
2	0xbd34e3af	-0.04416245
3	0x3d619bda	0.055080272
4	0xbab7560e	-0.0013987438
5	0xbd1fdefe	-0.03903102
6	0x3dd06d45	0.101770915
7	0x3d1a498f	0.037667807
8	0xbc1bd208	-0.009510525
9	0x3da049ca	0.07826574
10	0x3cf94860	0.030430019
11	0x3cf5cf27	0.030006004
12	0x3ccb80ac	0.024841629
13	0x3c8e497b	0.017369023
14	0xbce7dc8e	-0.02830341
15	0x3d18f4c2	0.037342794
16	0x3d167060	0.036728263
17	0xbd6fdad3	-0.058558296
18	0xbd22d6ae	-0.039755516
19	0xbd0e2e66	-0.034712218
20	0xbd230aef	-0.03980535
21	0xbd341176	-0.043961965
22	0xbd11fb21	-0.035639886
23	0xbd122687	-0.035681274
24	0xbd22af99	-0.039718244
25	0xbce35e00	-0.027754784
26	0xbcee99a2	-0.029125992
27	0xbd6a66ce	-0.05722695
28	0x3c0cf258	0.008602701
29	0x3d3de0c3	0.046356928
30	0xbbf2b886	-0.007407251
31	0xbcb6f1b5	-0.022332052
32	0x3cbf125a	0.02332418
33	0x3d04ce72	0.032423444
34	0xbd418b4f	-0.047251996
35	0xbd1647ee	-0.03668969
36	0xbce653ad	-0.028116072
37	0xbc96b27d	-0.018395657
38	0x3c747644	0.014920775
39	0xbced9ad3	-0.02900449
40	0xbd92410e	-0.071413144
41	0xbd3a7063	-0.045517337
42	0xbcb6c57e	-0.022310968
43	0xbd9b3dfd	-0.07580183
44	0xbcbf8cd0	-0.023382574
45	0xbd876dd6	-0.066127464
46	0x3c82ef65	0.015983293
47	0xbd725806	-0.059165977
48	0xbd3eb992	-0.046563692
49	0xbd53bc03	-0.051692974
50	0xbb809e72	-0.003925138
51	0xbd261263	-0.04054488
52	0xbd67b8a1	-0.05657256
53	0xbc92ea45	-0.017933974
54	0xbca9e273	-0.020737862
55	0xbd4b8644	-0.049688593
56	0xbce0fdb2	-0.027464721
57	0x3cfbce35	0.030737976
58	0xbd2af210	-0.041734755
59	0x3b1304e3	0.0022433333
60	0x3d622caf	0.055218395
61	0x3d12a3c3	0.035800707
62	0x3c1ad55e	0.009450285
63	0x3c959f7f	0.01826453
64	0xbc3fb923	-0.011701855
65	0xbd1f5903	-0.038903248
66	0xbccf072f	-0.02527198
67	0xbd1626f9	-0.03665826
68	0x3b8bb2db	0.0042632646
69	0xbd72ba01	-0.05925942
70	0xbc75714b	-0.014980624
71	0x3cbb6d5e	0.022879299
72	0xbd9e14b8	-0.077187955
73	0x3c82e1a7	0.01597674
74	0x3e40cff1	0.18829323
75	0xbe0635d9	-0.13106479
76	0xbd3caf9d	-0.046065915
77	0x3db42f6e	0.08798109
78	0xbe0a95e4	-0.13533741
79	0xbda25c70	-0.07927787
80	0xbd1cf3ba	-0.038318373
81	0xbc86808b	-0.016418716
82	0xbcb41450	-0.021982342
83	0xbcb360ea	-0.021896798
84	0xbc94b322	-0.018151823
85	0xbca7b7f6	-0.020473462
86	0xbcbe1059	-0.023201155
87	0xbc8650bd	-0.01639592
88	0xbc7eb68b	-0.015546451
89	0xbc89f814	-0.016841926
90	0x3cb9d7b3	0.022685861
91	0xbceabcaf	-0.028654424
92	0xbb73efbc	-0.003722175
93	0x3d37f5d4	0.044912174
94	0xbdb4b003	-0.08822634
95	0xbdaf6c42	-0.085655704
96	0x3cc7a60a	0.024371166
97	0xbd0157d5	-0.031577904
98	0xbd826a4d	-0.063679315
99	0x3cad06e2	0.021121446
100	0x3d862645	0.06550268
101	0x3cbbfb7d	0.022947067
102	0xbce09a7e	-0.027417418
103	0x3dd5f952	0.10447945
104	0x3d94db97	0.07268446
105	0xbcee9955	-0.029125849
106	0xbc9f4560	-0.01944226
107	0x3d9736c7	0.07383495
108	0x3d7ed45f	0.06221425
109	0xbd398193	-0.045289587
110	0x3bc55ed5	0.0060232677
111	0x3cf03342	0.029321317
112	0xbd264ec1	-0.04060245
113	0xbc8d307b	-0.017235031
114	0xbd0dbf20	-0.0346061
115	0xbc123547	-0.008923835
116	0xbd6af892	-0.05736596
117	0xbd764782	-0.06012679
118	0x3cb367d7	0.0219001
119	0xbd7f7519	-0.062367532
120	0xbce6358c	-0.028101705
121	0x3c634e0b	0.013873587
122	0x3c925e94	0.017867364
123	0xbd9e62e9	-0.07733709
124	0xbbaa9db4	-0.005206788
125	0x3d4f816a	0.05066053
126	0xbd1317b4	-0.035911277
127	0xbd1b8ac4	-0.037974134
128	0x3b8101a7	0.0039369646
129	0x3d821aa6	0.06352739
130	0xbda92116	-0.08258264
131	0xbd280452	-0.041019745
132	0x3ddb1b28	0.10698539
133	0x3b970a86	0.004609409
134	0xbd83003f	-0.06396531
135	0xbaab17c1	-0.0013053344
136	0x3d515f23	0.05111612
137	0x3c543dca	0.012954185
138	0xbdae31a9	-0.08505566
139	0x3cd3e938	0.025868043
140	0x3d13b0fa	0.03605745
141	0xbdfc4f69	-0.12319834
142	0xbe01a285	-0.12659653
143	0x3d0bb80d	0.03411107
144	0xbcbb3cbe	-0.022856113
145	0xbcd81f74	-0.026382186
146	0xbced2bd6	-0.028951567
147	0xbcdb011a	-0.026733924
148	0xbcb58821	-0.022159638
149	0xbcf3b8fb	-0.029751291
150	0xbcd9064f	-0.026492266
151	0xbc8965e3	-0.016772216
152	0xbca104ad	-0.01965555
153	0xbd72811a	-0.059205152
154	0xbd642541	-0.05569959
155	0xbd0084db	-0.0313767
156	0x3d956b58	0.07295865
157	0xbdded022	-0.10879542
158	0xbc007afe	-0.007841824
159	0x3d3bb84d	0.04583006
160	0x3cf1e088	0.02952601
161	0xbd9b666c	-0.07587895
162	0xbdef9292	-0.11697878
163	0xbdb46f91	-0.08810342
164	0xbd13f553	-0.03612263
165	0xbd79edac	-0.061017677
166	0x3cc017fb	0.023448935
167	0xbd4ba8b4	-0.049721435
168	0xbd918d70	-0.07107055
169	0x39587e75	0.00020646474
170	0xbd1019e6	-0.03518095
171	0xbb9440eb	-0.0045243404
172	0xbd22368c	-0.0396028
173	0xbc5c598d	-0.013449085
174	0xbce546f5	-0.027987937
175	0xbdb993b6	-0.09061377
176	0xbd43806a	-0.047729887
177	0xbdcf4de6	-0.1012228
178	0xbdc30cc8	-0.09523922
179	0xbde1afae	-0.11019836
180	0x3c05c55e	0.008164732
181	0xbc4e2afd	-0.012583491
182	0xbd55a194	-0.052156046
183	0xbd42d896	-0.047569834
184	0x3d907cc3	0.070550464
185	0xbca4b620	-0.020106375
186	0xbdbcfde6	-0.09228115
187	0x3c36c4b6	0.011155298
188	0x3bf85e79	0.0075796214
189	0x3d39f10b	0.045395892
190	0xbd6288ef	-0.05530637
191	0xbca2f998	-0.019894406
192	0x3d3242d2	0.043520756
193	0xbd9e4752	-0.07728447
194	0xbdc6bf05	-0.09704403
195	0x3bf47d22	0.007461206
196	0xb8d41361	-0.00010112557
197	0xbd92ee41	-0.071743496
198	0xbdc1002e	-0.094238624
199	0xbddd5698	-0.10807532
200	0xbcd5e88b	-0.026111862
201	0xbc87660b	-0.01652815
202	0xbd002d15	-0.031292994
203	0xbd39cac4	-0.045359388
204	0x3d52dec4	0.051481977
205	0x3d2a481f	0.041572686
206	0xbd31f017	-0.04344186
207	0xbd293782	-0.041312702
208	0xbd60d17c	-0.05488728
209	0x3da7b381	0.081885345
210	0x3cd0db41	0.025495173
211	0x3c7a3fbc	0.0152739845
212	0xbc96e17a	-0.018418062
213	0xbcb20cda	-0.021734644
214	0x3d1fab8b	0.038981955
215	0xbd5c7ab6	-0.053827964
216	0xbd6feebf	-0.058577295
217	0xbc2464d4	-0.010033805
218	0xb91e9d71	-0.00015126706
219	0x3c116298	0.008873604
220	0x3c125f16	0.008933803
221	0x3db5c435	0.08875314
222	0xbb9998fe	-0.0046874275
223	0xbc8bdecf	-0.017074017
224	0x3e1278ee	0.14303944
225	0xbdc70935	-0.09718553
226	0x3c3b5b58	0.011435352
227	0x3d269c98	0.040676683
228	0x3dbcdbfb	0.092216454
229	0xbdbd4ba3	-0.09242942
230	0x3dfe052f	0.124033324
231	0x3dadf7b4	0.08494511
232	0xbb15052d	-0.002273868
233	0xbc8e91fc	-0.017403595
234	0xbda80812	-0.08204664
235	0xbd5026e2	-0.05081833
236	0x3d103ecd	0.03521614
237	0xbd35286c	-0.044228002
238	0x3c4f53bc	0.012654241
239	0x3cd2716f	0.025688855
240	0xbcb2db83	-0.021833187
241	0x3cd2ad9a	0.025717545
242	0x3d3dc3a9	0.046329174
243	0xbd0ad993	-0.0338989
244	0xbc2cb410	-0.010540977
245	0x3cc1a991	0.023640426
246	0xbcc80a68	-0.024419025
247	0xbd3e6377	-0.046481576
248	0xbd05b21c	-0.03264056
249	0xbc45d4c1	-0.01207465
250	0xbd15fbb6	-0.036617003
251	0xbd587b6c	-0.05285208
252	0xbd8f30a0	-0.06991696
253	0xbcf98bb4	-0.030462123
254	0x3da316bd	0.07963321
255	0x3d262f56	0.040572487

block_2.conv2.bias f4 [32]
0	0x3c94955e	0.01813763
1	0xbe0ac4c1	-0.13551618
2	0x3d3bb4bf	0.04582667
3	0x3d4008f5	0.046883542
4	0x3eeffe37	0.46873638
5	0xbd9a568b	-0.07536038
6	0xbdc60369	-0.09668619
7	0xbdaa4e92	-0.08315767
8	0xbd684eda	-0.056715824
9	0xbcedf08c	-0.029045366
10	0x3e57241b	0.21009867
11	0x3cf8fdfd	0.030394549
12	0x3de40a72	0.11134805
13	0x3ddb7d10	0.10717213
14	0xbd835201	-0.064121254
15	0x3e3a2785	0.18179138
16	0xbe6c7bb1	-0.2309406
17	0x3d450494	0.04810007
18	0x3d1b4172	0.03790421
19	0xbdf0564e	-0.11735211
20	0x3c9edb29	0.019391613
21	0xbe8398fa	-0.2570265
22	0xbc923808	-0.017848983
23	0xbdf73857	-0.12071293
24	0x3cf36087	0.029709114
25	0xbf0cf4be	-0.55060947
26	0xbd03c73b	-0.032172423
27	0xbdaba5f1	-0.0838126
28	0xbdaf4ec0	-0.08559942
29	0x3c2bc556	0.01048406
30	0x3e27afeb	0.16375701
31	0x3c257f7b	0.0101011945

dblock_3.denselayer1.conv1.weight f4 [48, 32, 3, 3]
0	0x3da37fcc	0.0798336
1	0x3d842450	0.064522386
2	0x3d4d44ff	0.050114628
3	0x3c75de55	0.015006621
4	0x3c8f1317	0.017465157
5	0x3d8d503e	0.069000706
6	0x3d842024	0.06451443
7	0x3d23c0f1	0.039978925
8	0x3d31ccb0	0.043408096
9	0x3d25c960	0.04047525
10	0x3d3cd110	0.046097815
11	0x3d0b23cc	0.033969685
12	0x3da50657	0.0805785
13	0x3c04808f	0.008087291
14	0x3d00a3cf	0.03140622
15	0x3ced5224	0.028969832
16	0x3d280ad5	0.041025955
17	0x3d47616b	0.04867689
18	0x3c6df5c4	0.014523927
19	0xbd817bdb	-0.06322452
20	0xba80d2b1	-0.0009828416
21	0xbd66c727	-0.05634227
22	0xbd155047	-0.03645351
23	0xbcd75689	-0.02628638
24	0x3d71abf4	0.059001878
25	0xbd3999bc	-0.04531263
26	0x3cd7ce8c	0.026343606
27	0x3b9fd565	0.0048777335
28	0x3d03ce98	0.032179445
29	0x3c517d89	0.012786278
30	0xbcac93ca	-0.021066565
31	0x3c5be99b	0.013422395
32	0x3d404070	0.046936452
33	0x3c4692d4	0.0121199675
34	0x3ccf49a0	0.025303662
35	0xbc04bc9c	-0.008101609
36	0xbd42c10c	-0.047547385
37	0xbcbf8804	-0.023380287
38	0x3c3a69e3	0.011377784
39	0x3c1abc2a	0.009444276
40	0x3a8a908e	0.0010571645
41	0x3c12ece6	0.008967614
42	0xbd4527bd	-0.0481336
43	0xbd2d6ef1	-0.04234213
44	0xbbff6900	-0.0077944994
45	0x3d49d24b	0.049272817
46	0x3d097784	0.033561245
47	0x3dbfbacf	0.09361803
48	0xbcb691a6	-0.022286247
49	0x3d161f8b	0.036651175
50	0x3d485fb0	0.04891938
51	0x3d3341e4	0.04376401
52	0xbccac9ed	-0.024754489
53	0x3d9f3d58	0.07775372
54	0xbb29d1c0	-0.0025912374
55	0xbd40e71e	-0.04709541
56	0xbd268b6c	-0.040660307
57	0xbdac67b5	-0.08418218
58	0xbb5b0e2f	-0.0033425202
59	0xbb7b46d6	-0.0038341782
60	0xbd798e47	-0.060926702
61	0xbda101a8	-0.07861644
62	0xbdf7c77a	-0.12098594
63	0xbcc26197	-0.023728175
64	0xb70a5b16	-8.246649e-06
65	0xbd28c007	-0.041198757
66	0xbae98741	-0.0017816798
67	0xbc37ce21	-0.011218579
68	0x3cfd6d38	0.030935869
69	0xbcc35781	-0.023845436
70	0x3c8c61f4	0.017136551
71	0xbd56d219	-0.05244646
72	0xbd174125	-0.03692736
73	0xbd95e735	-0.0731949
74	0xbc972515	-0.0184503
75	0xbd2527f7	-0.040321317
76	0x3e091972	0.13388613
77	0x3c2039c0	0.009779394
78	0x3b6c83b3	0.003608924
79	0xbd26c779	-0.040717576
80	0x39fa596c	0.0004775034
81	0x3d195f03	0.037444126
82	0x3d22e76e	0.03977149
83	0x3bbeeb0c	0.0058263596
84	0x3d0512ac	0.03248851
85	0xbdabea92	-0.0839435
86	0x3cb2aa96	0.021809857
87	0x3dd51843	0.10405018
88	0xbc5fef5c	-0.013667908
89	0x3d09fb36	0.03368684
90	0xbd301279	-0.042986367
91	0xbbd7de17	-0.0065877545
92	0xbd53d1e1	-0.051713828
93	0xbd81e206	-0.06341939
94	0x3d546849	0.051857267
95	0x3dad3360	0.08457065
96	0xbd306291	-0.04306275
97	0xbd789d6e	-0.06069701
98	0xbd63ab80	-0.055583477
99	0xbe073973	-0.13205509
100	0xbdc92577	-0.09821599
101	0xbd974c45	-0.07387594
102	0xbdc33ca5	-0.095330514
103	0xbd7cb798	-0.061698526
104	0xbe030ef0	-0.12798667
105	0xbd29122c	-0.041277096
106	0xbe38e3ef	-0.180557
107	0xbde45b13	-0.111501835
108	0x3b4b3dd9	0.0031012206
109	0xbc999500	-0.018747807
110	0x3d35b567	0.044362452
111	0xbd890fb2	-0.06692447
112	0x3d8bbd7a	0.06823249
113	0xbd2b238b	-0.041781943
114	0xbc56a7a8	-0.013101496
115	0xbb71df5c	-0.0036906814
116	0xbd51a943	-0.05118681
117	0x3d332bd1	0.04374296
118	0xbd250aee	-0.040293626
119	0x3d5ad9d7	0.053430405
120	0x3d92d4c1	0.07169486
121	0xbca20007	-0.019775404
122	0x3b6b1d26	0.0035875528
123	0xbcf46068	-0.029831126
124	0x3d5ea4e0	0.054356456
125	0x3c7f6a95	0.015589376
126	0x3d18cb6d	0.037303377
127	0x3cf1df34	0.029525377
128	0x3d976ecd	0.073941804
129	0x3d154c75	0.03644987
130	0xbd02353b	-0.031789046
131	0xbd191eeb	-0.037383
132	0x3c17c45e	0.009263126
133	0xbc639141	-0.013889612
134	0x3dbddcd0	0.09270632
135	0x3d632f63	0.055465113
136	0x3d83cac3	0.06435158
137	0x3cb557b0	0.02213654
138	0x3d25dbae	0.040492706
139	0xbcbdd5ad	-0.023173178
140	0x3d91b9c9	0.07115514
141	0x3d81fd31	0.063471206
142	0x3d69a318	0.057040304
143	0x3d26a57c	0.040685162
144	0x3d833d89	0.06408221
145	0x3d8ad6e2	0.06779267
146	0x3dbffc6d	0.09374318
147	0x3d6155ee	0.05501359
148	0xb9b8810f	-0.0003519137
149	0x3ddd6777	0.1081075
150	0x3dcbd9ac	0.09953627
151	0x3dae0725	0.084974565
152	0x3ccfd6e8	0.02537103
153	0x3ce9b731	0.028529735
154	0x3ca8300f	0.020530729
155	0x3cc2f409	0.023798006
156	0xbd0f1a9f	-0.034937497
157	0x3d04b34c	0.032397553
158	0xbd4d8e00	-0.05018425
159	0xbd8bad9d	-0.068202235
160	0xbd034e96	-0.032057367
161	0x3cbd4f55	0.023109118
162	0x3d08b678	0.03337714
163	0x3cb485f9	0.02203654
164	0xba846021	-0.001009945
165	0xbc02b7a8	-0.007978357
166	0xbe1c8ef6	-0.1528891
167	0x3c58e3d9	0.013237917
168	0x3ca953d8	0.020669863
169	0x3df08198	0.11743468
170	0xbd2bdae2	-0.04195679
171	0xbd4593ac	-0.048236534
172	0xbce26366	-0.027635287
173	0xbd78dca3	-0.06075729
174	0xbcffcf54	-0.031226791
175	0xbd208531	-0.03918952
176	0xbcf10adb	-0.029424122
177	0xbd3ce3a5	-0.046115536
178	0xbd65be17	-0.056089487
179	0xbdd54614	-0.10413757
180	0xbd5cef5d	-0.053939212
181	0xbd1c8284	-0.038210407
182	0xbd0465d3	-0.03232367
183	0xbcfc2938	-0.030781373
184	0xbd083947	-0.03325775
185	0x3c8eb674	0.017420985
186	0xbcc2dd67	-0.023787213
187	0xbda4be5f	-0.08044123
188	0xbd565249	-0.052324567
189	0xbb839f27	-0.004016775
190	0xbba4b162	-0.0050260285
191	0x3d53f78a	0.051749744
192	0x3c8ebb83	0.017423397
193	0x3e1cebd9	0.15324344
194	0x3d4cbd94	0.049985483
195	0x3d5e4b5f	0.0542711
196	0xbd1aa1ad	-0.037751842
197	0x3d5d7133	0.054063033
198	0x3be19ae5	0.00688492
199	0x3d03c133	0.03216667
200	0x3bad95f2	0.005297416
201	0x3c84f7f6	0.016231518
202	0xbd70de28	-0.058805615
203	0xbc8e9518	-0.017405078
204	0xbcdb80df	-0.026794849
205	0x3ba4ae2f	0.005025647
206	0x3c6ebe39	0.01457172
207	0x3bb666ff	0.0055664773
208	0xbc8e5792	-0.017375741
209	0xbce10a5b	-0.027470758
210	0xbd2f88a4	-0.04285492
211	0x3c6c8e51	0.014438228
212	0x3cffc1d7	0.03122036
213	0x3cc3a278	0.023881182
214	0xbc4eb873	-0.012617218
215	0xbc92d246	-0.017922532
216	0xbcdee1a9	-0.027207213
217	0xbd39dd81	-0.04537726
218	0xbc026df2	-0.007960783
219	0xbd6d3ffa	-0.05792234
220	0x3da3cd3c	0.0799813
221	0xbc836657	-0.01604001
222	0xbd5d7cba	-0.054074027
223	0xbd0d18a5	-0.03444733
224	0xbd0686a4	-0.032843247
225	0xbc5c296c	-0.01343761
226	0xbad4a67f	-0.0016223936
227	0xbcd77b85	-0.026304016
228	0xbba3068f	-0.004975147
229	0xbca3c4f6	-0.01999138
230	0xbd0557be	-0.03255438
231	0xbd35fb7e	-0.044429295
232	0xbc80d93a	-0.015728582
233	0xb9b01745	-0.00033586673
234	0x3c75ee13	0.015010375
235	0x3d10a773	0.035315942
236	0xbade9355	-0.0016981164
237	0x3cee2691	0.029071124
238	0x3dcbf316	0.09958474
239	0x3d6e5c87	0.05819371
240	0x3c9d2b41	0.019185664
241	0x3cda488b	0.02664592
242	0x3b106a21	0.0022035914
243	0xbd0c776c	-0.034293577
244	0xbc02b3a9	-0.007977405
245	0x3ca1883f	0.019718288
246	0x3e044fe0	0.12921095
247	0xbc8d0c88	-0.01721789
248	0xbdca1af4	-0.09868422
249	0x3b2f7f33	0.0026778698
250	0xbb8c4408	-0.004280571
251	0x3db86ac8	0.09004742
252	0x3da3dc70	0.080010295
253	0x3d3354b2	0.043781944
254	0x3d3db8df	0.046318885
255	0xbd72a2be	-0.059237234

dblock_3.denselayer1.conv1.bias f4 [48]
0	0x3bd50273	0.006500536
1	0x3d57f608	0.052724868
2	0xbceb8dad	-0.02875408
3	0xbb75b8ca	-0.0037494176
4	0x3c88ac24	0.016683646
5	0x3cafed49	0.021475451
6	0x3dc7943f	0.097450726
7	0x3d52c080	0.051453114
8	0x3c21618e	0.009849919
9	0x3cd11a7e	0.025525328
10	0xbd94f400	-0.07273102
11	0xbc46511a	-0.012104297
12	0x3e34bfeb	0.17651336
13	0x3d9a6b10	0.07539952
14	0xbc71937e	-0.0147446375
15	0xbcc2c93d	-0.023777599
16	0x3c2166ed	0.0098512
17	0x3c21514c	0.009846043
18	0xbc089830	-0.008337066
19	0xbd03b533	-0.032155227
20	0x3c216157	0.009849868
21	0x3cfcc474	0.030855395
22	0x3cac04e7	0.020998431
23	0xbcd87585	-0.026423225
24	0x3caccf82	0.021095041
25	0x3d833a2a	0.06407578
26	0x3bee72b4	0.0072768573
27	0xbd238521	-0.039921883
28	0x3d4ac103	0.049500477
29	0x3c212322	0.0098350365
30	0x3d2fe509	0.042943034
31	0x3c7c2b3d	0.015391168
32	0xbc8f0b4c	-0.017461441
33	0xbc7d963f	-0.015477716
34	0x3c216820	0.0098514855
35	0x3c2151e4	0.009846184
36	0xbd16da3e	-0.036829226
37	0x3e2007e9	0.15628017
38	0x3c9a9a24	0.018872328
39	0x3b79461b	0.003803617
40	0x3c594cb2	0.0132629145
41	0x3d2f74ce	0.042836003
42	0x3d5fbbd9	0.054622505
43	0x3ce9812f	0.028503982
44	0x3d711e7f	0.058866974
45	0xbcd590c5	-0.026070008
46	0xbaa9c476	-0.0012952227
47	0x3c215974	0.009847987

dblock_3.denselayer1.conv2.weight f4 [48, 48, 3, 3]
0	0x3c26e69e	0.010186819
1	0xbd1d1114	-0.038346365
2	0xbcf555d9	-0.029948162
3	0xbd5651f1	-0.05232424
4	0xbc5ea3b1	-0.013588832
5	0x3bbf04d4	0.005829433
6	0xbd207963	-0.039178263
7	0x3c65c8d2	0.01402493
8	0xbd78fa42	-0.06078554
9	0xbc2119f9	-0.0098328525
10	0x3ca409a4	0.020024128
11	0xbb8a0437	-0.004211928
12	0x3d159d52	0.036526985
13	0x3ba2f56c	0.004973104
14	0xbcca5442	-0.02469838
15	0xbbc49881	-0.005999625
16	0xbced2923	-0.02895028
17	0x3d51e259	0.051241253
18	0x3ca8d5c0	0.020609736
19	0x3c70b582	0.014691712
20	0xbd88065f	-0.0664184
21	0xbd134102	-0.03595067
22	0x3d62f78a	0.055411853
23	0xbd3a1737	-0.045432296
24	0xbc0702cf	-0.008240416
25	0xbd1cbd90	-0.03826672
26	0x3d09238c	0.033481166
27	0x3d677017	0.05650338
28	0x3c0eaf38	0.008708768
29	0x3c0ebf9f	0.008712678
30	0x3ca34216	0.019928973
31	0x3d4db62a	0.050222553
32	0x3d078d12	0.03309352
33	0x3b27c518	0.0025599655
34	0x3d863aaf	0.06554162
35	0xbb7e62a9	-0.003881613
36	0xbb8a601b	-0.0042228824
37	0x3d363c43	0.044491064
38	0xbcaf913a	-0.021431554
39	0x3d0c1234	0.034197047
40	0xbd29cdf5	-0.04145618
41	0x3d41559d	0.047200788
42	0x3c99f326	0.0187927
43	0x3d542bad	0.051799465
44	0xbc6af343	-0.014340225
45	0xbcef0807	-0.029178632
46	0xbd0170bc	-0.031601653
47	0xbd43c2e1	-0.047793273
48	0xbc8b7a61	-0.017026128
49	0xbc689332	-0.01419525
50	0xbd30f9e1	-0.043207053
51	0xbd05b4e0	-0.0326432
52	0xbce5dd2e	-0.028059568
53	0xbaaca410	-0.0013171453
54	0xbc0e0760	-0.0086687505
55	0xbc8d8623	-0.017275875
56	0xbc03bdee	-0.008040888
57	0xbaaac39b	-0.0013028266
58	0x37815451	1.5417261e-05
59	0x3be675ba	0.007033077
60	0x3c0d7806	0.008634573
61	0xbd0689ee	-0.032846384
62	0x3c8e4549	0.017367022
63	0x3b3a9d84	0.0028475234
64	0xbae61b3f	-0.0017555727
65	0xbd8c6bb7	-0.068564825
66	0xbb5b8eff	-0.003350198
67	0x3c4f3723	0.012647423
68	0xbcaa0ee9	-0.020759063
69	0x3cd2a884	0.02571512
70	0x3c6604c1	0.014039219
71	0xb8ed119d	-0.000113043214
72	0xbb988088	-0.004653994
73	0xbbecedf4	-0.0072305147
74	0xbc1f77cf	-0.009733154
75	0xbb8efc5e	-0.0043635806
76	0xbb640012	-0.003479008
77	0xbbb623b4	-0.0055584554
78	0xbc099c22	-0.008399041
79	0xbbdfce8b	-0.0068300418
80	0xbbbba80d	-0.0057268203
81	0xbbbdc706	-0.0057915477
82	0xbd5362d6	-0.05160793
83	0xbcd5efd1	-0.02611533
84	0xbc87643e	-0.016527291
85	0x3c5bbaee	0.013411267
86	0xbcb111dd	-0.021614963
87	0xbd32bddb	-0.04363809
88	0xbc377eeb	-0.011199693
89	0x3c2959dc	0.010336366
90	0xbcd5734d	-0.026055956
91	0xbd3550e5	-0.0442666
92	0xbcf9fd8f	-0.030516414
93	0xbc8f661d	-0.017504746
94	0x3d16b84a	0.036796845
95	0xbd496b44	-0.049174562
96	0x3b3b520e	0.0028582844
97	0xbb15deb7	-0.0022868344
98	0xbc43150c	-0.011906873
99	0xbd38c238	-0.045107096
100	0xbc53e9dd	-0.012934175
101	0xb88b925f	-6.6553e-05
102	0xbd634b0d	-0.055491496
103	0xbd9081e7	-0.07056027
104	0xbc95ba09	-0.018277185
105	0xbb81991e	-0.0039550206
106	0xbd97d548	-0.07413727
107	0xbd7aaaa4	-0.06119789
108	0x3b997248	0.004682813
109	0x3b512494	0.0031912671
110	0xbcd7f05b	-0.026359728
111	0x3c09fd20	0.008422166
112	0x3c099f23	0.008399758
113	0xbd21b204	-0.03947641
114	0xbc7723bc	-0.015084203
115	0xbcda0656	-0.02661435
116	0xbd189c6f	-0.03725856
117	0xbd156683	-0.036474716
118	0x3a676d64	0.0008828251
119	0xbc9aaede	-0.018882211
120	0x3c8b44a8	0.017000511
121	0xbd459b63	-0.04824389
122	0xbbd75b71	-0.00657218
123	0xbcc7a597	-0.024370952
124	0xbd453c6e	-0.048153333
125	0xbb66a60a	-0.0035194182
126	0x3dc66985	0.09688095
127	0x3dac4cf8	0.08413118
128	0x3b2c6783	0.0026306815
129	0x3bcae6c0	0.0061920583
130	0x3dc19c81	0.09453679
131	0x3b0e59e6	0.0021721064
132	0xbbd43894	-0.006476471
133	0xba5d29a5	-0.00084366865
134	0x3cdf1a52	0.02723423
135	0x3a237f40	0.0006236918
136	0x3d7f4437	0.062320914
137	0x3d39b336	0.045336924
138	0x3d909f62	0.0706165
139	0x3da82120	0.08209443
140	0x3cb3d594	0.021952428
141	0x3d91a7eb	0.07112106
142	0x3d389c71	0.04507107
143	0x3d0a6e69	0.0337967
144	0xbb9884f6	-0.004654522
145	0xbbecf9cd	-0.007231927
146	0xbc1f7dd4	-0.00973459
147	0xbb8effda	-0.004363996
148	0xbb640d7f	-0.0034798083
149	0xbbb629a9	-0.0055591655
150	0xbc099be4	-0.008398984
151	0xbbdfd27e	-0.0068305125
152	0xbbbba6dc	-0.0057266783
153	0xbb987244	-0.0046522934
154	0xbbecc971	-0.007226162
155	0xbc1f6561	-0.00972876
156	0xbb8ef201	-0.004362345
157	0xbb63d6e8	-0.0034765545
158	0xbbb61258	-0.005556386
159	0xbc099cf7	-0.00839924
160	0xbbdfc2dc	-0.006828649
161	0xbbbbac30	-0.0057273135
162	0xbc084c77	-0.008319012
163	0xbd6291e6	-0.05531492
164	0x3b26ba5c	0.0025440669
165	0x3b97dd5c	0.0046345424
166	0x3da4d365	0.08048133
167	0xbd390bed	-0.04517739
168	0xbd189961	-0.03725565
169	0xbb9509fe	-0.0045483103
170	0x3c9a3fc2	0.01882923
171	0xbb16b642	-0.0022996818
172	0x3d86520b	0.06558617
173	0xbd82f6e3	-0.06394746
174	0xbd4ba572	-0.049718328
175	0x3d9683f7	0.07349389
176	0x3d12ed85	0.035871048
177	0x3c9acc95	0.01889638
178	0xbd804dfd	-0.06264875
179	0x3c617deb	0.013762931
180	0xbb98807c	-0.0046539884
181	0xbbecedc3	-0.007230492
182	0xbc1f77cb	-0.009733151
183	0xbb8efc34	-0.004363561
184	0xbb63ffdc	-0.0034789955
185	0xbbb623bd	-0.0055584596
186	0xbc099bff	-0.008399009
187	0xbbdfce7e	-0.0068300357
188	0xbbbba839	-0.005726841
189	0xbc4170c9	-0.011806675
190	0x3d148a1a	0.036264516
191	0x3c4ebce5	0.012618278
192	0xbbfa38d4	-0.007636169
193	0x3b94a4d8	0.0045362525
194	0x3b81ecc4	0.0039649922
195	0xbca7d199	-0.020485686
196	0xbc8f3b0f	-0.017484216
197	0xbd2e4473	-0.042545747
198	0xbd5bbd7d	-0.053647507
199	0x3c5c381f	0.013441115
200	0x39e89b97	0.00044366412
201	0x3da684be	0.08130787
202	0xbd7d799a	-0.061883546
203	0xbac0414b	-0.0014667896
204	0x3c69165c	0.014226522
205	0x3cb68328	0.022279337
206	0x3be713f8	0.007051941
207	0x3ce49696	0.027903836
208	0xbd7bd387	-0.061481025
209	0x3c171fb7	0.00922387
210	0x3cf188fb	0.029484263
211	0xbc80c661	-0.015719594
212	0xbbbbe2b6	-0.005733813
213	0x3c3d8d27	0.011569298
214	0xb8830414	-6.2473264e-05
215	0xba9d356a	-0.0011994068
216	0x3cb5f1a9	0.02220996
217	0x3ba37d11	0.0049892743
218	0xbab072b4	-0.0013461919
219	0x3c61c89b	0.013780738
220	0xbc39b6bd	-0.011335072
221	0x3c6ce8ec	0.01445983
222	0x3c235990	0.009970084
223	0x3cf6fd9f	0.030150233
224	0x3b597638	0.0033182036
225	0xbd325db6	-0.0435464
226	0xbd68a538	-0.05679819
227	0xbd1fce2f	-0.03901499
228	0xbd1992d0	-0.037493527
229	0xbd603e34	-0.05474682
230	0xbd1f5e0e	-0.038908057
231	0xbd061056	-0.032730423
232	0xbce4c7b4	-0.027927257
233	0x3cab8d0b	0.020941278
234	0x3c14d490	0.009083882
235	0xbb28f168	-0.0025778655
236	0x3cd17bed	0.025571788
237	0x3cfce3f9	0.030870425
238	0x3cccb492	0.024988446
239	0x3d2063ac	0.039157555
240	0x3c38e594	0.011285204
241	0x3d7ce848	0.06174496
242	0x3c15c4b7	0.009141139
243	0x3c343051	0.010997848
244	0x3d4e0b08	0.05030349
245	0xbc735f64	-0.014854286
246	0x3d147f5e	0.03625428
247	0x3d6c0162	0.057618506
248	0x3ca36b35	0.019948581
249	0xbbd1dab9	-0.0064042476
250	0x3c5c934a	0.013462851
251	0xbb354ea0	-0.0027665272
252	0x3baf0df6	0.0053422404
253	0x3be78709	0.007065658
254	0xbc02ae9c	-0.0079762
255	0x3c02bbbd	0.007979331

dblock_3.denselayer1.conv2.bias f4 [48]
0	0x3bffedf0	0.007810347
1	0x3d68cb8c	0.056834742
2	0x3d5412c2	0.0517757
3	0xba62da84	-0.0008653777
4	0x3a39fcaf	0.0007094843
5	0xbcbb2756	-0.022845905
6	0xb69218bf	-4.35402e-06
7	0x3a2e9096	0.0006659118
8	0xbc559b56	-0.013037523
9	0xbd73cea9	-0.05952326
10	0xb9dbd74b	-0.0004193134
11	0xbd89f800	-0.06736755
12	0x3c8b91ed	0.017037356
13	0x3c30d68e	0.010793341
14	0x3cb6f6c2	0.02233446
15	0x39245034	0.00015670137
16	0x3d50c034	0.05096455
17	0xbdd0fc51	-0.102043755
18	0x3c680ca6	0.014163172
19	0xbc783f31	-0.015151785
20	0xbca65bc1	-0.020307424
21	0xba5775d8	-0.0008219159
22	0xba50a874	-0.0007959672
23	0x3d2b4063	0.04180945
24	0xbd090d4d	-0.03345995
25	0xbd3347a0	-0.04376948
26	0xb9ef26ce	-0.00045614544
27	0x399ca28e	0.0002987575
28	0xb9d9152c	-0.0004140524
29	0xba0c20e3	-0.00053454767
30	0x39fcfcd1	0.00048253548
31	0xbcdaad67	-0.026694013
32	0xbd8b41cd	-0.0679966
33	0xbcb28b85	-0.021795044
34	0xbcf7cbf3	-0.030248618
35	0x3d5406c2	0.051764257
36	0xb9a6b0c2	-0.00031793682
37	0x3cf71795	0.030162612
38	0xbc79f5cf	-0.015256359
39	0xbccc8997	-0.024967952
40	0x3d1f5656	0.038900696
41	0x3c90fa60	0.017697513
42	0xbd949d00	-0.07256508
43	0xbcf83713	-0.030299699
44	0xba156789	-0.0005699327
45	0x3d3337c4	0.043754354
46	0x3a82262b	0.0009929588
47	0xbd4f0733	-0.050543975
