checkpoints/BIPED/4/4_model.pth (torch, 249139 bytes, 30 tensors)

block_1.conv1.weight f4 [16, 3, 3, 3]
0	0xbe321045	-0.17389019
1	0xbd959e31	-0.07305563
2	0xbe482756	-0.19546255
3	0xbd267c9d	-0.040646184
4	0xbdbb828b	-0.091557585
5	0xbdf6e88b	-0.12056073
6	0xbe4c2fbd	-0.19940086
7	0xbd8fc742	-0.07020427
8	0xbe0aeacf	-0.13566135
9	0x3e37729d	0.17914815
10	0x3d01bfb4	0.031676963
11	0xbd217555	-0.039418537
12	0x3cfc748c	0.030817293
13	0x3e0179ef	0.1264417
14	0xbda9c1d7	-0.08288925
15	0xbe30cd1d	-0.17265745
16	0xbdb5115b	-0.08841201
17	0xbdb3cf82	-0.08779813
18	0x3e1ff046	0.15619001
19	0x3df2d75b	0.11857482
20	0x3de48ff5	0.1116027
21	0x3e667e06	0.22509012
22	0x3e8ef79c	0.27923286
23	0x3e13dedb	0.14440481
24	0x3d8436d4	0.0645577
25	0x3e17f4c0	0.14839458
26	0xbdbab04d	-0.09115658
27	0xbdc8e59b	-0.09809419
28	0xbd4b0d18	-0.049573034
29	0xbe24f268	-0.16108096
30	0xbe0db50e	-0.13838598
31	0xbd05067e	-0.032476895
32	0xbd9d8cdd	-0.07692883
33	0xbe2741c0	-0.16333675
34	0xbdcf72f0	-0.101293445
35	0x3d01f120	0.031724095
36	0x3ee29e78	0.44261527
37	0x3e10e2a1	0.14148952
38	0x3d8ca560	0.0686748
39	0x3e378feb	0.17925994
40	0x3e271aff	0.16318892
41	0x3c85a207	0.016312612
42	0x3e16fb6f	0.14744352
43	0x3e49d561	0.19710304
44	0x3e37c201	0.179451
45	0xbc2a7402	-0.010403635
46	0xbe9a0dda	-0.30088693
47	0xbdc93982	-0.09825422
48	0x3dc73cee	0.09728418
49	0xbda06f56	-0.07833736
50	0xbd96527e	-0.07339953
51	0xbdbfdb33	-0.09367981
52	0xbddfe871	-0.109330066
53	0x3cd35a7a	0.025799979
54	0x3e0bb239	0.13642205
55	0xbc07518c	-0.008259188
56	0x3d7d611e	0.061860196
57	0xbc55a3d3	-0.013039547
58	0xbe075cd5	-0.13219006
59	0xbd41fd50	-0.04736072
60	0xbcc051b6	-0.023476463
61	0xbe0923a1	-0.13392498
62	0x3d936750	0.0719744
63	0x3d1cb7b8	0.038261145
64	0xbdb649c7	-0.08900791
65	0x3dab08fd	0.08351324
66	0x3bdf54d2	0.0068155313
67	0xbde2874e	-0.110609636
68	0x3e5a4b24	0.21317726
69	0x3df9b144	0.12192014
70	0xbe29f0f1	-0.16595818
71	0x3c3a1727	0.011358059
72	0x3d6f5f1e	0.05844032
73	0xbded8386	-0.11597352
74	0xbcd7f3d0	-0.026361376
75	0x3cb4f5fc	0.02208995
76	0xbe0c9166	-0.1372734
77	0xbdd52642	-0.10407688
78	0x3da3ddc9	0.080012865
79	0xbe886278	-0.26637626
80	0xbd67ec9f	-0.056622144
81	0xbd042607	-0.03226283
82	0x3dd5ea73	0.10445108
83	0x3e252cb8	0.1613034
84	0xbd839c13	-0.06426253
85	0x3ea37a09	0.31929043
86	0x3e612f78	0.21990764
87	0xbe708fc9	-0.2349235
88	0xbd1723d4	-0.036899403
89	0x3e278ad0	0.16361547
90	0xbe442c83	-0.19157605
91	0xbe3b26f4	-0.18276578
92	0xbe0d3692	-0.13790348
93	0xbc871f67	-0.016494466
94	0x3d7bbba0	0.06145823
95	0x3cecd3e2	0.028909627
96	0xbd3ca641	-0.04605699
97	0xbdc4d1a1	-0.09610296
98	0xbe8196dd	-0.25310412
99	0x3dd22428	0.102608025
100	0xbdc353ec	-0.09537491
101	0x3ddf7241	0.10910464
102	0x3e1d4e66	0.15361938
103	0x3c393c35	0.011305858
104	0x3e2f4490	0.17115998
105	0xbd58ce64	-0.052931204
106	0xbc42f33d	-0.011898813
107	0xbdd6d274	-0.104893595
108	0xbe01d2f5	-0.1267813
109	0xbda322c0	-0.079656124
110	0xbdb6bc4b	-0.08922633
111	0xbd56687f	-0.05234575
112	0x3d5af5b6	0.053456984
113	0x3c6dc711	0.014512793
114	0xbe2274b0	-0.15864825
115	0x3d7c40fb	0.061585408
116	0x3d56da67	0.05245438
117	0xbdba4110	-0.09094441
118	0x3d7cba9e	0.06170141
119	0xbe4f0518	-0.20216787
120	0xbc6ec90c	-0.0145743005
121	0x3e0a792e	0.13522789
122	0xbdc8cc16	-0.09804551
123	0x3b85be85	0.0040815496
124	0xbbb52cf3	-0.00552904
125	0x3dd5cbbb	0.10439249
126	0x3bb1164e	0.0054042703
127	0x3e5b24a6	0.21400699
128	0x3de6d1c6	0.1127048
129	0xbd099181	-0.03358603
130	0x3e6189b2	0.22025183
131	0x3dba1fff	0.09088134
132	0x3d0389fc	0.032114014
133	0x3e0f4953	0.13992815
134	0xbd2cf7fc	-0.042228684
135	0xbd2cf195	-0.042222578
136	0x3d790ef1	0.060805265
137	0x3c9f6414	0.0194569
138	0xbd86182a	-0.06547578
139	0x3d3a1ef9	0.045439694
140	0xbd2a8ef4	-0.041640237
141	0xbcbc9a42	-0.023022775
142	0x39d5f7a8	0.00040811044
143	0xbbb94172	-0.0056535536
144	0xbddcf966	-0.107897565
145	0xbe0c5bd9	-0.13706912
146	0xbe53d06e	-0.20684978
147	0xbe6b274f	-0.22964214
148	0xbda47c24	-0.080314904
149	0xbdaf5ae8	-0.08562261
150	0xbe36eb1d	-0.17863126
151	0xbdbaaaf0	-0.09114635
152	0xbe685a39	-0.22690667
153	0x3d40a16d	0.047028948
154	0x3dff6130	0.12469709
155	0x3cbca8c3	0.02302969
156	0x3e3bc384	0.18336302
157	0x3e34a761	0.17641975
158	0x3e0ca018	0.13732946
159	0x3e24ce0f	0.1609423
160	0x3e955c02	0.2917176
161	0x3e394a9f	0.18094872
162	0x3dc1f3f7	0.09470361
163	0x3e4ac207	0.19800578
164	0x3e4aed2c	0.19817036
165	0xbc9d0dcf	-0.019171624
166	0x3e16f6e3	0.14742617
167	0x3db3cd6f	0.08779418
168	0x3d0646a0	0.032782197
169	0x3e912552	0.28348786
170	0x3df9462c	0.12171587
171	0x3bd47b26	0.006484407
172	0xbc21ee47	-0.00988347
173	0xbdc83946	-0.09776549
174	0xbd6a7c52	-0.057247467
175	0x3d9bfc7f	0.07616519
176	0x3cf52a6c	0.029927455
177	0x3ca38289	0.019959705
178	0x3d9a7ab1	0.07542933
179	0x3d9842c3	0.07434609
180	0xbdd10ce6	-0.10207538
181	0xbe1de8b1	-0.15420796
182	0xbe12e8b3	-0.1434658
183	0x3d3a83ae	0.045535736
184	0xbda73825	-0.081650056
185	0xbe8df3fb	-0.27725205
186	0xbdc899db	-0.097949706
187	0xbdf43119	-0.11923427
188	0xbe7040fe	-0.23462293
189	0xbd57a08d	-0.052643348
190	0x3e9e6d75	0.30942884
191	0x3e1cb7d3	0.15304498
192	0x3db15135	0.08658067
193	0xbd7a3dc0	-0.061094046
194	0x3dc256f7	0.094892435
195	0xbd5afcfb	-0.053463917
196	0xbe03de07	-0.12877665
197	0xbc4a27f1	-0.012338624
198	0xbe204f91	-0.15655352
199	0x3c8391d3	0.016060745
200	0x3e14b194	0.14520866
201	0x3e465bfa	0.19371024
202	0x3d96afc9	0.07357747
203	0x3c7ad58d	0.015309704
204	0xbe3961c3	-0.181037
205	0xbe9a7f8a	-0.3017543
206	0xbe7be5a3	-0.24599318
207	0x38bb15b0	8.9208945e-05
208	0x3e2d7c13	0.16941862
209	0x3d0568d4	0.032570675
210	0x3e19c74f	0.15017436
211	0x3b81b39c	0.0039581787
212	0x3dfa348f	0.12217056
213	0x3cf63f79	0.030059563
214	0xbe4cd718	-0.20003927
215	0xbe41ebe7	-0.18937646
216	0x3c326b67	0.0108898645
217	0x3d22f2e4	0.03978242
218	0x3ca8dc6c	0.020612918
219	0x3e8fbb3a	0.2807253
220	0x3d45944d	0.048237134
221	0x3d84c7e0	0.06483436
222	0x3e216ccc	0.15764159
223	0xbc08e613	-0.008355635
224	0x3e064d71	0.13115479
225	0xbe515636	-0.20443043
226	0xbe42df0b	-0.19030397
227	0xbe1ffe44	-0.15624338
228	0xbe5ad6ee	-0.21371052
229	0xbdec8372	-0.11548509
230	0x3bc5efe4	0.00604056
231	0xbe2793b1	-0.16364934
232	0xbe5e30ec	-0.2169835
233	0xbc91fbd3	-0.017820274
234	0xbd2702fc	-0.04077433
235	0x3d42e5c1	0.04758239
236	0x3a87b65c	0.001035403
237	0x3c904b41	0.017614009
238	0x3d83630d	0.06415377
239	0x3e85ef53	0.26159152
240	0x3d3a3115	0.045456965
241	0xbc076f7a	-0.008266324
242	0x3e54539e	0.20735022
243	0xbe484fd8	-0.19561708
244	0xbd0b5bc8	-0.034023076
245	0xbdafe004	-0.085876495
246	0xbcaa152c	-0.020762049
247	0x3c754592	0.0149702
248	0x3e01186d	0.12606974
249	0xbc13f93f	-0.009031593
250	0x3cdd4b40	0.027013421
251	0x3e36dc28	0.1785742
252	0xbe3ca92a	-0.18423906
253	0xbe5055d4	-0.20345241
254	0xbd9c53ee	-0.07633196
255	0x3df0096c	0.11720547

block_1.conv1.bias f4 [16]
0	0x3d7ddb9c	0.061977014
1	0x3d9e36b6	0.07725279
2	0x3d86d340	0.065832615
3	0x3e7434d9	0.23848285
4	0x3e81e1f2	0.25367695
5	0x3e6dda84	0.23227888
6	0x3e8fc1cb	0.2807754
7	0xbdedb79f	-0.116072886
8	0x3f01fdf6	0.5077814
9	0xbec51be4	-0.3849784
10	0xbee34478	-0.44388175
11	0x3e259fa0	0.16174173
12	0xbf02e3f3	-0.5112907
13	0xbee79e9e	-0.45238203
14	0xbeff93c3	-0.4991742
15	0xbddbb4e5	-0.10727862

block_1.conv2.weight f4 [16, 16, 3, 3]
0	0xbc8874f1	-0.016657325
1	0x3ccb7329	0.024835186
2	0x3df22b04	0.11824611
3	0xbd8a71e5	-0.06760005
4	0xbd81d2ef	-0.063390605
5	0xbd9288eb	-0.07155021
6	0x3df99cc2	0.12188102
7	0x3dd500b6	0.10400526
8	0xbda3ece2	-0.08004166
9	0x3b8d5973	0.0043136417
10	0x3cf27766	0.02959795
11	0xbc758649	-0.014985629
12	0xbc46cd04	-0.0121338405
13	0x3cfe85a5	0.031069586
14	0x3df48e9d	0.11941264
15	0x3da1582a	0.07878144
16	0xbe0b4630	-0.13600993
17	0xbc44b34b	-0.012005637
18	0xbcbca75e	-0.023029026
19	0x3d52767d	0.05138253
20	0x3e6e5bc1	0.23277189
21	0xbe1705bb	-0.1474828
22	0xbe3ec750	-0.18630719
23	0x3e3dd2f5	0.18537505
24	0xbe1c565a	-0.15267316
25	0xbe804b15	-0.25057283
26	0x3e376ee8	0.17913401
27	0x3dc4a83e	0.09602402
28	0x3e0aa174	0.13538152
29	0x3d52aaa3	0.051432263
30	0xbdd4450b	-0.103647314
31	0xbe941c2e	-0.2892775
32	0xbe0ec5e1	-0.13942672
33	0x3d93a1a6	0.07208566
34	0xbcc3c352	-0.023896847
35	0x3dc4a372	0.09601487
36	0x3d874e8b	0.06606778
37	0xbd2c043b	-0.041996222
38	0xbd211ff1	-0.039337102
39	0x3dc5c95d	0.096575476
40	0xbd00bafe	-0.03142833
41	0xbe32ab6e	-0.17448208
42	0x3dd2fe03	0.10302355
43	0x3e0c327e	0.13691136
44	0xbe090f06	-0.13384637
45	0x3c827682	0.01592565
46	0xbd44fad8	-0.048090786
47	0xbae42f85	-0.0017409181
48	0x3d90978d	0.07060156
49	0x3d025117	0.031815615
50	0xbe6f1c95	-0.23350747
51	0x3e0c303f	0.1369028
52	0x3df0901d	0.117462374
53	0xbd0656b3	-0.032797527
54	0x3c07afe8	0.008281685
55	0xbd583238	-0.052782267
56	0x3da68be8	0.08132154
57	0x3da690e9	0.08133108
58	0x3d26eaad	0.040751148
59	0xbd8a4a67	-0.06752472
60	0xbd0ac782	-0.03388167
61	0x3ddeb52c	0.108743995
62	0xbdbd7ab1	-0.09251917
63	0x3cee2173	0.029068684
64	0xbde3dd32	-0.11126174
65	0xbd960e4f	-0.07326948
66	0xbddf18ea	-0.10893424
67	0xbe641036	-0.22271809
68	0x3d0ede4e	0.034879975
69	0xbd9e81e1	-0.07739616
70	0xbd0fa76e	-0.035071783
71	0x3d99e9db	0.075153075
72	0xbd4ad137	-0.04951593
73	0x3d426cad	0.047466923
74	0x3d804293	0.06262698
75	0x3dd5a6ff	0.104322426
76	0xbe44d265	-0.19220884
77	0xbbbe8f9c	-0.0058154594
78	0x3dc413c2	0.09574081
79	0xbe0729f1	-0.13199593
80	0x3e076e3d	0.13225646
81	0xbd3a69e7	-0.045511153
82	0xbd9b0ba0	-0.07570577
83	0xbe021753	-0.1270421
84	0x3d1648d5	0.03669055
85	0x39afa0f9	0.00033498535
86	0xbe186121	-0.14880802
87	0xbcc5d003	-0.02414704
88	0x3de9aec2	0.114102855
89	0x3d030230	0.031984508
90	0xbd655d3c	-0.05599712
91	0x3d50f351	0.051013295
92	0xbcbf62d0	-0.023362547
93	0xbe42a336	-0.19007573
94	0x3d7e6df9	0.062116597
95	0xbe4c467e	-0.19948766
96	0xbe771878	-0.24130428
97	0x3e441e82	0.19152263
98	0xbe0d67ed	-0.13809176
99	0xbb01b5ad	-0.0019792125
100	0x3c1955a3	0.009358796
101	0x3daa80dc	0.08325359
102	0xbbdbb88b	-0.006705349
103	0xbcdcb6c8	-0.026942626
104	0x3decbf94	0.11559978
105	0xbc94c47c	-0.018160097
106	0xbe384367	-0.17994462
107	0x3d9f0f14	0.07766548
108	0x3d986672	0.07441415
109	0x3dcabd82	0.09899427
110	0x3d47062e	0.048589878
111	0x3d5306c5	0.051520128
112	0x3e68314e	0.22675058
113	0x3d3ce45d	0.04611622
114	0x3c7c1967	0.015386916
115	0x3d2d8da6	0.042371415
116	0x3e9f34bc	0.3109492
117	0x3d09586a	0.033531584
118	0x3dcb66eb	0.099317394
119	0xbd6493f3	-0.055805158
120	0xbd4a0a84	-0.049326435
121	0x3ce93e8f	0.028472213
122	0x3e3d25f6	0.18471512
123	0xbe1017b9	-0.1407155
124	0xbd674525	-0.056462426
125	0xbdbc59bc	-0.09196803
126	0xbcc60c7e	-0.024175879
127	0xbd391a5d	-0.045191158
128	0xbdab4dc3	-0.08364441
129	0xbccb8b29	-0.02484663
130	0x3dcac375	0.09900562
131	0x3e16f950	0.14743543
132	0xbe8f038d	-0.27932397
133	0xbe9a911b	-0.30188832
134	0xbd9b2aea	-0.075765446
135	0x3d8425db	0.06452533
136	0x3d80e597	0.06293791
137	0xbd4d10ef	-0.050064977
138	0xbc0b7e33	-0.008513975
139	0x3d8dd359	0.06925077
140	0x3e199ef1	0.15002038
141	0xbddd79a6	-0.10814218
142	0x3d8de687	0.06928735
143	0xbd424b8c	-0.04743533
144	0x3d31767a	0.04332588
145	0xbcafb250	-0.02144733
146	0xbd93d7ed	-0.07218919
147	0xbd1e200e	-0.03860479
148	0x3cba9163	0.022774404
149	0x3cc89859	0.024486708
150	0xbd7194d0	-0.05897981
151	0x3d1644d6	0.03668674
152	0x3dc46da7	0.09591227
153	0xbdeda653	-0.116039895
154	0x3c0a1e17	0.008430026
155	0xbc970a3b	-0.018437495
156	0xbd40ff3a	-0.047118403
157	0xbbeb0106	-0.007171753
158	0x3e052919	0.13003959
159	0xbdaa89d7	-0.08327072
160	0xbce79ac2	-0.028272036
161	0x3e2cb607	0.16866313
162	0x3ce9498b	0.02847745
163	0xbd628904	-0.05530645
164	0x3b293b23	0.0025822602
165	0x3d4cdf73	0.050017785
166	0x3c8369a3	0.016041582
167	0x3d8d52a0	0.06900525
168	0x3da85eea	0.082212284
169	0x3c8b353d	0.01699316
170	0x3cd499d8	0.025952265
171	0xbaa686c3	-0.0012704957
172	0x3b000c3a	0.0019538538
173	0xbcdd0944	-0.026981957
174	0x3d3f1dfc	0.046659455
175	0x3c9267dc	0.01787179
176	0xbdc93258	-0.098240554
177	0x3d1ae6dc	0.03781782
178	0x3d328fc0	0.043594122
179	0x396b7dd2	0.00022458218
180	0xbd1efcf7	-0.038815465
181	0xbc48168e	-0.012212409
182	0xbceb8745	-0.028751025
183	0x3cc321ad	0.023819769
184	0x3e3e359f	0.18575142
185	0x3d5dfde1	0.054197196
186	0xbda874eb	-0.08225425
187	0x3cbdb4db	0.023157528
188	0xbd2cc81d	-0.04218303
189	0xbc5012da	-0.012699807
190	0x3c2725a7	0.010201848
191	0x3d962386	0.07330994
192	0xbc5769da	-0.013147796
193	0x3d6287b7	0.05530521
194	0x3d84b450	0.064797044
195	0xbd666796	-0.05625113
196	0x3ca87239	0.020562278
197	0x3d90cc86	0.0707026
198	0xbd882946	-0.06648497
199	0x3d6184e6	0.055058382
200	0x3e040824	0.1289373
201	0x3caba210	0.0209513
202	0x3e3bca02	0.18338779
203	0xbcc2a1e5	-0.023758838
204	0xbda45910	-0.080248
205	0x3c98468d	0.018588329
206	0xbc97ad59	-0.018515276
207	0x3e87135b	0.26381955
208	0xbde50da0	-0.111842394
209	0xbe3d50c1	-0.18487836
210	0x3d50e180	0.050996304
211	0xbe674ce9	-0.22587933
212	0xbe23a491	-0.15980746
213	0x3d5eac86	0.05436375
214	0xbab9778f	-0.0014150011
215	0xb82e339d	-4.15329e-05
216	0x3ca3b38a	0.019983072
217	0x3e0b880e	0.1362612
218	0x3d51fd91	0.05126721
219	0x3e3b5d58	0.18297327
220	0xbcedff22	-0.02905232
221	0xbcf6d153	-0.03012911
222	0x3ca35ee5	0.01994271
223	0xbdcc26a6	-0.09968309
224	0xbdecc919	-0.11561794
225	0xbda405c7	-0.080089144
226	0x3d9c38a1	0.076279886
227	0x3d6f25d3	0.05838568
228	0x3d178434	0.036991313
229	0xbdaa266c	-0.0830811
230	0xbca94d85	-0.020666847
231	0x3c6aa12b	0.014320652
232	0x3d9c948a	0.07645519
233	0x3e01af77	0.12664591
234	0x3e880039	0.2656267
235	0xbdc9115d	-0.09817765
236	0xbdbafde1	-0.09130455
237	0xbe098696	-0.13430247
238	0xbe845d7e	-0.2585258
239	0xbd949cb7	-0.072564535
240	0xbe178794	-0.14797813
241	0xbe17747d	-0.1479053
242	0x3dbb3c47	0.09142356
243	0xbd70c2ce	-0.05877953
244	0xbd3a4876	-0.04547926
245	0xbc91d0e9	-0.017799811
246	0xbd1e0c58	-0.03858599
247	0xbd42d407	-0.047565486
248	0xbc4eca86	-0.012621528
249	0xbd645a56	-0.055750214
250	0x3c836ca5	0.016043017
251	0x3c9a1902	0.018810753
252	0x3e0fec70	0.14055037
253	0xbd37e1dc	-0.04489313
254	0xbd839002	-0.06423952
255	0x3c2f09d9	0.0106835

block_1.conv2.bias f4 [16]
0	0xbd409871	-0.04702038
1	0xbc111f46	-0.008857554
2	0x3e94f711	0.29094747
3	0x3d9d4464	0.0767906
4	0xbe232593	-0.15932302
5	0x3fd3b467	1.653943
6	0xbead3cfe	-0.33835596
7	0x3d713057	0.05888399
8	0xbd8510f5	-0.06497375
9	0x3efea9bc	0.49738872
10	0x3f5c247d	0.85993177
11	0x3e886805	0.2664186
12	0x3c010053	0.007873612
13	0xbe2a5af3	-0.16636257
14	0xbe02fe53	-0.1279233
15	0xbe124a72	-0.14286211

block_2.conv1.weight f4 [32, 16, 3, 3]
0	0xbd665be9	-0.056239996
1	0xbdd50aef	-0.10402476
2	0xbded3b7b	-0.115836106
3	0xbc2d3ec2	-0.010574045
4	0xbdda2504	-0.106515914
5	0x3db12c38	0.08651012
6	0x3d2fc155	0.042908985
7	0xbd97bc02	-0.074089065
8	0x3c82a372	0.015947077
9	0x3cd1880a	0.025577564
10	0xbdb63053	-0.08895936
11	0xbd28d4e9	-0.041218672
12	0x3d3af310	0.04564196
13	0xbdbaca78	-0.09120649
14	0xbdadf173	-0.084933184
15	0x3d9248b9	0.07142777
16	0x3d14a9b8	0.03629467
17	0xbdce9dbf	-0.100886814
18	0xbc8f6d4e	-0.017508175
19	0x3de5c960	0.1122005
20	0x3d896e71	0.06710518
21	0xbdc740a0	-0.09729123
22	0xbd7cc530	-0.06171149
23	0xbd93b0c8	-0.07211453
24	0xbda4bd65	-0.08043937
25	0x3d8c2ae8	0.06844121
26	0xbd4a9236	-0.049455844
27	0xbd591a72	-0.053003736
28	0xbd61af8c	-0.055099055
29	0xbdafc212	-0.08581938
30	0xbd05d947	-0.032677915
31	0xbc82d729	-0.015971737
32	0x3cd6948b	0.026193878
33	0x3d96e961	0.07368732
34	0xbcb21ba7	-0.021741701
35	0x3d93052c	0.07178721
36	0x3d8ca0a5	0.06866578
37	0x3d7a9b21	0.0611831
38	0x3c6832bc	0.014172252
39	0x3db2a421	0.08722711
40	0xbd2a3c95	-0.04156168
41	0xbce93b57	-0.028470678
42	0x3b83949d	0.004015519
43	0xbd9603de	-0.07324956
44	0xbd64e103	-0.05587865
45	0xbb87af3a	-0.0041407617
46	0xbc0f539e	-0.008747963
47	0xbd56842f	-0.052372154
48	0xbd1a428b	-0.037661117
49	0xba8a5a79	-0.0010555527
50	0xbd46740e	-0.048450522
51	0xbceaf80c	-0.028682731
52	0x3c91a0ab	0.017776808
53	0xbcbd65f3	-0.023119902
54	0x3d3296aa	0.043600716
55	0xbcb245ef	-0.021761863
56	0xbd174a17	-0.036935892
57	0xbdddf0d0	-0.10836947
58	0x3d00c016	0.031433187
59	0xbe366c8b	-0.17814843
60	0xbc49deba	-0.012321169
61	0x393c82bc	0.0001797778
62	0xbd5d07c0	-0.05396247
63	0xba194377	-0.000584654
64	0xbd49006a	-0.04907266
65	0xbda56cd9	-0.08077402
66	0x3b4d54fd	0.0031331175
67	0xbc0a8055	-0.008453448
68	0xbd09d5ba	-0.03365109
69	0x3d0a3906	0.033745788
70	0x3ca0c040	0.019622922
71	0x3d33fda5	0.043943066
72	0xbdea8087	-0.11450296
73	0x3d6e27b4	0.058143333
74	0x3d0b4115	0.033997614
75	0xbd7eb8d7	-0.062187996
76	0x3d904058	0.070435226
77	0xbcc2730c	-0.0237365
78	0xbc5d9e30	-0.013526484
79	0x3d70494a	0.058663644
80	0x3d63644b	0.05551557
81	0xbd0e058a	-0.03467325
82	0xbb944e9e	-0.0045259735
83	0x3d27b78f	0.04094654
84	0xbc88f63b	-0.016718974
85	0xbc22d9b2	-0.009939598
86	0xbcc500dc	-0.024048261
87	0x3c0e347a	0.008679504
88	0x3d0e3f0e	0.034728102
89	0xbc9fd892	-0.019512448
90	0x3c3290c5	0.010898774
91	0x3ded8957	0.11598461
92	0x3e3e34c4	0.18574816
93	0xbbc6d875	-0.006068284
94	0x3d21623d	0.039400328
95	0x3df28a4d	0.11842785
96	0xbda99027	-0.08279448
97	0xbda3be49	-0.079952784
98	0x3e17d8a2	0.14828733
99	0xbd3af463	-0.04564322
100	0x3c89cb46	0.016820561
101	0x3d2fa8d1	0.042885605
102	0xbd32e2ee	-0.04367345
103	0x3d13e8a6	0.036110543
104	0x3da0f607	0.07859426
105	0xbd4b21f9	-0.049592946
106	0xbd089633	-0.033346366
107	0x3cca9bc8	0.024732485
108	0xbd5b0326	-0.0534698
109	0x3da7cdfe	0.08193587
110	0xbc715f30	-0.014732167
111	0x3cfdd491	0.030985149
112	0x3dba8a24	0.091083795
113	0x3d9729f1	0.073810466
114	0xbc2c54c5	-0.0105182575
115	0xbc7f8b41	-0.015597166
116	0x3e0d89c2	0.13822082
117	0x3cd7da2f	0.026349155
118	0x3d5e1fc1	0.0542295
119	0x39c897e1	0.0003826013
120	0x3d56f2ef	0.052477773
121	0x3dacf318	0.08444804
122	0x3d153511	0.03642756
123	0xbd5f3ed7	-0.054503288
124	0xbc368eb4	-0.0111424215
125	0xbdd5d839	-0.10441632
126	0x3c850307	0.016236795
127	0xbd0910de	-0.03346335
128	0xbce7bd07	-0.028288377
129	0x3d8cdb46	0.068777606
130	0x3d8d8ae4	0.06911257
131	0xbcbe1e0e	-0.02320769
132	0xbad62dc5	-0.0016340545
133	0xbd8e9b7f	-0.06963252
134	0xbe544a93	-0.20731573
135	0x3d8dfffc	0.06933591
136	0x3c16c83d	0.009203014
137	0xbae0619b	-0.0017118932
138	0x3d564430	0.052311122
139	0x3cdc1930	0.02686748
140	0x3caf3106	0.02138568
141	0x3d5833b6	0.05278369
142	0x3c83b625	0.016078064
143	0x3d47db69	0.04879323
144	0xbd764a70	-0.060129583
145	0x3d0072c9	0.031359468
146	0x3b168078	0.0022964757
147	0xbd9e488f	-0.07728683
148	0xbca4c272	-0.02011225
149	0xbc11816d	-0.008880955
150	0xbdd026c6	-0.101636454
151	0xbdcef1d4	-0.10104719
152	0xbd71126a	-0.05885545
153	0x3d2e12cf	0.042498406
154	0xbcdeb47e	-0.027185675
155	0xbd8af383	-0.067847274
156	0xbd4a5783	-0.049399864
157	0xbd00234d	-0.031283665
158	0xbd0fb133	-0.0350811
159	0x3d49fcb5	0.049313266
160	0x3d0203f2	0.031742044
161	0x3cc6f61f	0.024287282
162	0xbd820c18	-0.06349963
163	0x3bc83f81	0.006111086
164	0xbd9556d7	-0.07291954
165	0x3c152591	0.009103195
166	0x3d209ed7	0.03921398
167	0x3ced81c6	0.028992545
168	0xbd6f265a	-0.058386184
169	0xbd39ba22	-0.045343526
170	0xbd91b64e	-0.0711485
171	0x3d825f11	0.06365789
172	0xbc1e00a0	-0.009643704
173	0x3c527986	0.012846356
174	0xbb3361a5	-0.0027371433
175	0xbc91f958	-0.017819092
176	0x3ca6155c	0.020273857
177	0xbd1baaf0	-0.038004816
178	0x3b32e879	0.002729921
179	0x3c47a1a9	0.012184539
180	0xbc9e30d2	-0.019310389
181	0xbd8d6396	-0.0690376
182	0xbd208345	-0.03918769
183	0xbd47a8a6	-0.04874482
184	0xbd47a59c	-0.04874192
185	0xbd8620bb	-0.065492116
186	0xbdc0ef42	-0.09420635
187	0xbdbc5c35	-0.091972746
188	0xbe1e3bdb	-0.1545252
189	0xbe320e70	-0.1738832
190	0x3d0d176a	0.034446158
191	0xbdd76723	-0.10517719
192	0xbd69923a	-0.05702422
193	0x3e1706cb	0.14748685
194	0xbb1b74e6	-0.00237208
195	0x3cd27d27	0.025694443
196	0x3ec89994	0.3917967
197	0x3df6bdb7	0.12047904
198	0x3d5f0f1b	0.054457765
199	0xbc92476f	-0.017856328
200	0xbd1f5925	-0.038903374
201	0x3d15d078	0.036575764
202	0xbd2667e3	-0.040626418
203	0xbc1022ef	-0.008797391
204	0x3db35cbc	0.08757922
205	0xbddc829f	-0.107671015
206	0xbdcc9c7b	-0.09990784
207	0xbb200292	-0.0024415595
208	0xbc15d0ba	-0.009144003
209	0x3af109b5	0.0018389734
210	0x3c2f7db5	0.010711123
211	0x3d9c2ad9	0.0762536
212	0x3d93f578	0.07224554
213	0x3c63a063	0.01389322
214	0x3d640a7e	0.05567407
215	0x3d99a457	0.075020485
216	0x3b41ef15	0.0029591967
217	0x3c9506fb	0.018191805
218	0xbd611ab1	-0.054957096
219	0x3d44d539	0.048054907
220	0x3cc313e5	0.023813197
221	0xbcf98bf8	-0.03046225
222	0x3c3c1aab	0.0114809675
223	0xbb6f0e92	-0.003647719
224	0x3a871e84	0.0010308777
225	0xbd6c89cf	-0.057748612
226	0xbcf080b0	-0.029358238
227	0xbd191403	-0.0373726
228	0xbc6c670b	-0.014428864
229	0x3d2363fd	0.039890278
230	0xbc2841c9	-0.010269591
231	0x3cbb606a	0.022873122
232	0x3e41f62a	0.1894156
233	0x3d8ef09b	0.069794856
234	0x3cb876d7	0.022517605
235	0x3dcde004	0.10052493
236	0x3d9c17c4	0.076217204
237	0xbca7d8d6	-0.020489138
238	0x3d588bdc	0.052867755
239	0x3cbef8b0	0.023311943
240	0xbce9345b	-0.028467348
241	0x3d2b7e4e	0.0418685
242	0xbd2e4f27	-0.042555954
243	0xbd97c163	-0.074099325
244	0xbaac653b	-0.0013152728
245	0xbca3578c	-0.019939207
246	0x39a4d816	0.00031441514
247	0x3d04dce9	0.03243724
248	0x3c6f9bb6	0.014624527
249	0x3c00bb01	0.007857085
250	0x3e172e8d	0.14763851
251	0x3d14202c	0.036163494
252	0xbd69e896	-0.057106577
253	0x3c723e16	0.01478531
254	0x3d97a831	0.07405127
255	0x3b29aabc	0.002588912

block_2.conv1.bias f4 [32]
0	0xbdae216d	-0.08502469
1	0x3f8d2daf	1.1029567
2	0x3b347009	0.0027532598
3	0x3e8661c8	0.26246476
4	0x3d6e4bf7	0.058177914
5	0x3dfb22e3	0.122625135
6	0x3dab58a6	0.08366518
7	0xbe643ef0	-0.22289634
8	0x3e6b508d	0.22979946
9	0x3d0af766	0.033927344
10	0x3e55cdc8	0.2087928
11	0x3d61dba4	0.055141106
12	0x3d2f92ba	0.04286454
13	0xbc8e6a1f	-0.017384587
14	0x3f7248a1	0.9464207
15	0x3d043320	0.03227532
16	0xbc9e2009	-0.019302385
17	0x3dd1bf26	0.10241537
18	0xbcde1bb8	-0.027112827
19	0x3daa6ae1	0.08321167
20	0xbdba2499	-0.09089012
21	0xbc4283e7	-0.011872268
22	0x3e43c4fa	0.1911811
23	0x3eee066c	0.46489275
24	0x3b17adb5	0.002314431
25	0x3dc86e3a	0.09786649
26	0x3e0f5a75	0.1399935
27	0xbc88e95f	-0.016712843
28	0x3d6611e7	0.056169417
29	0x3d862ccb	0.06551512
30	0x3e6667c8	0.22500527
31	0x3de4ebaa	0.11177762

block_2.conv2.weight f4 [32, 32, 3, 3]
0	0xbd80d2e8	-0.06290227
1	0xbcf46053	-0.029831087
2	0xbd687cab	-0.056759518
3	0x3d61b9ae	0.05510872
4	0xba6e7a06	-0.00090971624
5	0xbd13c502	-0.036076553
6	0x3dce14af	0.10062539
7	0x3d22f38b	0.039783042
8	0xbb104a3b	-0.00220169
9	0x3d9e2a7e	0.077229485
10	0x3d0ef0ca	0.034897603
11	0x3cc79d22	0.024366919
12	0x3c951021	0.018196167
13	0x3cb944ad	0.022615755
14	0xbcf34cbe	-0.02969968
15	0x3d0f80a8	0.035034806
16	0x3d2b4610	0.041814864
17	0xbd72ef84	-0.05931045
18	0xbd0d4598	-0.034490198
19	0xbd04e6bb	-0.032446604
20	0xbd3f3f08	-0.04669097
21	0xbd289ed6	-0.041167103
22	0xbd25a349	-0.040438924
23	0xbd22211c	-0.039582357
24	0xbd4dccb3	-0.050244045
25	0xbcfc8616	-0.030825656
26	0xbd00ead1	-0.03147394
27	0xbd6ed658	-0.058309883
28	0x3ca39279	0.019967305
29	0x3d519236	0.05116483
30	0xbb852115	-0.0040627816
31	0xbc8d1241	-0.017220618
32	0x3d10725f	0.035265323
33	0x3d36f9ad	0.044671703
34	0xbd3a9c16	-0.04555901
35	0xbd1d034a	-0.038333215
36	0xbcc6436d	-0.024202073
37	0xbc8df0bb	-0.017326703
38	0x3c619815	0.013769169
39	0xbcf18042	-0.029480103
40	0xbd5c6641	-0.053808454
41	0xbd45cec1	-0.04829288
42	0xbd15c9d4	-0.03656943
43	0xbd92ea03	-0.071735404
44	0xbcd0a723	-0.025470322
45	0xbd912855	-0.07087771
46	0x3c20d19b	0.009815599
47	0xbd8db5e1	-0.06919456
48	0xbd4dd14f	-0.05024844
49	0xbd812fe2	-0.06307961
50	0xbc929371	-0.017892571
51	0xbd1b133d	-0.037860144
52	0xbd8a0846	-0.06739859
53	0xbcbf5942	-0.023357991
54	0xbd210c28	-0.039318234
55	0xbd66f6da	-0.05638776
56	0xbd1246f7	-0.03571221
57	0x3d00a367	0.031405833
58	0xbd7c1dc3	-0.06155182
59	0xbc9ff245	-0.019524703
60	0x3d6fef24	0.05857767
61	0x3d01dda6	0.03170552
62	0xba843675	-0.001008703
63	0x3ce5c2ae	0.028046932
64	0xbc43d6da	-0.01195308
65	0xbd2f4f32	-0.042800136
66	0xbcd8efc5	-0.026481519
67	0xbcfdfa73	-0.031003213
68	0xba73116b	-0.000927231
69	0xbd839e05	-0.06426624
70	0xbc4e2754	-0.012582619
71	0x3ce63230	0.028100103
72	0xbdada5e5	-0.084789075
73	0x3ccb2c77	0.024801476
74	0x3e463d29	0.19359268
75	0xbe0a0db3	-0.13481788
76	0xbd4b628d	-0.049654532
77	0x3dcdc9e6	0.10048275
78	0xbdec033f	-0.11524057
79	0xbd9e293c	-0.077227086
80	0xbd1fe4d3	-0.039036583
81	0xbc5c6739	-0.013452345
82	0xbc8f221f	-0.017472325
83	0xbca757cf	-0.020427613
84	0xbc8a382a	-0.016872484
85	0xbc9bd4a0	-0.019022286
86	0xbcb0658a	-0.021532793
87	0xbc845ab1	-0.016156526
88	0xbc71368c	-0.014722478
89	0xbc7339b4	-0.0148453005
90	0x3c8ea2cc	0.017411612
91	0xbd0cf351	-0.034411732
92	0xbb6cf111	-0.003615443
93	0x3d47397c	0.048638806
94	0xbdbccf91	-0.09219278
95	0xbdc066bb	-0.09394594
96	0x3c9a4f03	0.018836504
97	0xbcf4e71f	-0.029895363
98	0xbd963f7d	-0.07336328
99	0x3ce4ffc8	0.027953997
100	0x3d96a409	0.07355506
101	0x3cc454f2	0.023966286
102	0xbd0f8c0b	-0.035045665
103	0x3dd604a6	0.10450105
104	0x3da17d68	0.078852475
105	0xbd364518	-0.044499487
106	0xbd0cd7d9	-0.034385536
107	0x3da33816	0.07969682
108	0x3d62afde	0.0553435
109	0xbd363cd7	-0.044491615
110	0x3c3e4e30	0.011615321
111	0x3ceb2ca3	0.028707808
112	0xbd2dab8d	-0.04239993
113	0xbcaa714e	-0.020805981
114	0xbd2aebae	-0.041728668
115	0xbbbd3310	-0.0057739094
116	0xbd9de46b	-0.07709583
117	0xbd8c2f47	-0.06844955
118	0x3ca26de1	0.019827785
119	0xbda0e40b	-0.07855996
120	0xbd32004c	-0.043457314
121	0x3c4d22f8	0.012520544
122	0x3cd0850b	0.025454065
123	0xbdae7ab9	-0.08519501
124	0xbbb2cc82	-0.005456508
125	0x3d9398a5	0.07206849
126	0xbd523f7c	-0.051330075
127	0xbd39f933	-0.04540367
128	0x3c09f0f9	0.008419269
129	0x3d68c3e6	0.05682745
130	0xbdb94567	-0.090464406
131	0xbd1991df	-0.03749263
132	0x3dd8bd84	0.10583022
133	0x3c3d7be4	0.011565182
134	0xbd8f66d2	-0.07002033
135	0xbc918f68	-0.017768577
136	0x3d4379af	0.04772347
137	0x3c8bb05b	0.017051866
138	0xbdd3f2c5	-0.10349039
139	0x3c99aa4f	0.018757967
140	0x3d0cfbed	0.034419943
141	0xbde918e2	-0.11381699
142	0xbe11418e	-0.14185163
143	0x3cbd18ef	0.023083178
144	0xbc8dad13	-0.017294442
145	0xbcb9a193	-0.022660052
146	0xbcd73ab0	-0.026273102
147	0xbcbe009a	-0.023193646
148	0xbca1f190	-0.019768506
149	0xbce93ea1	-0.028472247
150	0xbccc6df1	-0.024954768
151	0xbc72e91b	-0.0148260845
152	0xbc85cfef	-0.016334502
153	0xbda85147	-0.082186274
154	0xbd8f5f87	-0.07000642
155	0xbcd9a5a5	-0.026568243
156	0x3d91017e	0.07080363
157	0xbe0943a6	-0.13404712
158	0xbbe9c0ea	-0.007133593
159	0x3d55b346	0.05217292
160	0x3cc9e6ea	0.024646241
161	0xbdc7c8e4	-0.09755114
162	0xbde996cc	-0.11405715
163	0xbdbda087	-0.09259134
164	0xbd37f534	-0.04491158
165	0xbd902a74	-0.07039347
166	0x3ccae0dd	0.024765426
167	0xbd5c02e7	-0.053713705
168	0xbda65d1f	-0.0812323
169	0xbb9cbf13	-0.00478352
170	0xbd1a1a65	-0.037622828
171	0xbbb0118c	-0.0053731855
172	0xbd28e2b8	-0.04123184
173	0xbc4c46f2	-0.012468087
174	0xbccf1c97	-0.025282187
175	0xbdbe17ab	-0.09281858
176	0xbd3bc897	-0.045845594
177	0xbdc38d79	-0.09548468
178	0xbdc9855b	-0.09839889
179	0xbdcb8488	-0.09937388
180	0x3cf5a7db	0.029987266
181	0x3ba9cb70	0.0051817223
182	0xbd81095d	-0.06300614
183	0xbd83bed5	-0.06432883
184	0x3db33226	0.087497994
185	0xbc38f9e7	-0.01129005
186	0xbdefa700	-0.117017746
187	0x39d7351d	0.00041047568
188	0x3cb9446b	0.022615632
189	0x3d0b8f4a	0.034072198
190	0xbd601fa4	-0.054717675
191	0xbc600c49	-0.013674804
192	0x3d308cce	0.04310303
193	0xbdb6a769	-0.0891865
194	0xbdd2c75d	-0.10291932
195	0x3c765458	0.015034758
196	0xbc901166	-0.017586421
197	0xbdc73aa0	-0.09727979
198	0xbdbd499e	-0.09242557
199	0xbde7c8bd	-0.11317585
200	0xbd210f6e	-0.039321356
201	0xbaf18dec	-0.0018429137
202	0xbcc5816c	-0.024109565
203	0xbd4d1956	-0.05007299
204	0x3d4ad26b	0.049517076
205	0x3d6c4561	0.057683352
206	0xbccc7b12	-0.024961028
207	0xbd599470	-0.053120077
208	0xbd808374	-0.06275073
209	0x3d969e61	0.07354427
210	0x3c865e38	0.016402349
211	0x3ae827fa	0.0017712109
212	0xbcc1bf17	-0.023650689
213	0xbd02d09e	-0.031937234
214	0x3ce17109	0.02751972
215	0xbd60fdcc	-0.05492954
216	0xbd9a7714	-0.075422436
217	0xbbf68992	-0.007523724
218	0xbb6010f7	-0.00341898
219	0xbc110bff	-0.008852958
220	0xbc0b155d	-0.00848898
221	0x3dcaf3e3	0.09909799
222	0xbbf56107	-0.007488373
223	0xbd189cbe	-0.037258856
224	0x3e128dec	0.14311951
225	0xbde0f431	-0.10984076
226	0x3c388b47	0.011263675
227	0x3d37b5ad	0.044850994
228	0x3dab8a84	0.08376029
229	0xbdd9ce4b	-0.106350504
230	0x3e03f373	0.12885837
231	0x3db163ac	0.08661589
232	0xb99a700d	-0.00029456653
233	0xbd0579e8	-0.032586962
234	0xbdcb3406	-0.09922032
235	0xbd711022	-0.058853276
236	0x3d6fbaf9	0.05852792
237	0xbd4dbf50	-0.050231278
238	0xbaa07335	-0.0012241366
239	0x3cf71c07	0.030164732
240	0xbc5b0483	-0.013367775
241	0x3cc898dc	0.024486952
242	0x3d25c1cb	0.04046802
243	0xbd1baf37	-0.038008895
244	0xbc20e6e8	-0.009820677
245	0x3ca68c24	0.020330496
246	0xbcd43892	-0.025905881
247	0xbd264bbf	-0.04059958
248	0xbcfe01f6	-0.031006794
249	0xbc8044c9	-0.0156578
250	0xbd17548c	-0.036945865
251	0xbd27c025	-0.040954728
252	0xbd99c4ba	-0.07508226
253	0xbd204c81	-0.03913546
254	0x3dafdf2f	0.08587491
255	0x3d094fb8	0.03352329

block_2.conv2.bias f4 [32]
0	0x3c309bda	0.010779345
1	0xbe1b4f82	-0.15167049
2	0x3cf56ba6	0.029958557
3	0x3d5651af	0.052323993
4	0x3ef5d239	0.4801195
5	0xbda90f24	-0.08254841
6	0xbde65c9d	-0.11248133
7	0xbdcbf9c2	-0.09959747
8	0xbd94a469	-0.07257921
9	0xbd18c345	-0.0372956
10	0x3e491b01	0.19639207
11	0x3d00ddcd	0.031461526
12	0x3db143ab	0.08655485
13	0x3dc99dab	0.09844526
14	0xbdaf0c3e	-0.08547257
15	0x3e3acd71	0.18242432
16	0xbe789652	-0.24276093
17	0x3cd2de14	0.02574066
18	0x3ce0b877	0.02743171
19	0xbe04bffb	-0.1296386
20	0x3c56f5d2	0.013120132
21	0xbe92c10a	-0.28662902
22	0xbcf85d21	-0.030317845
23	0xbe15a959	-0.14615382
24	0x3c7c1630	0.015386149
25	0xbf12d74a	-0.57359755
26	0xbd47c0cb	-0.048767846
27	0xbdc44849	-0.095841
28	0xbde3e57d	-0.11127756
29	0x3b29e763	0.002592527
30	0x3e1f0782	0.15530208
31	0x39b83027	0.0003513109

dblock_3.denselayer1.conv1.weight f4 [48, 32, 3, 3]
0	0x3db184f5	0.08667938
1	0x3da4f674	0.0805482
2	0x3d6230ec	0.055222437
3	0x3c8f3c87	0.017484916
4	0x3cdebb99	0.027189063
5	0x3dac1b50	0.08403647
6	0x3d882287	0.066472106
7	0x3d301e00	0.04299736
8	0x3d475600	0.048666
9	0x3d190c83	0.037365448
10	0x3d28fdbd	0.04125761
11	0x3cd8b835	0.026455024
12	0x3d8bb96a	0.06822474
13	0x3b0f6a6c	0.00218835
14	0x3cf4ad19	0.029867696
15	0x3cf4c3c5	0.029878506
16	0x3d175fcd	0.036956597
17	0x3d3b810e	0.045777373
18	0x3c969eba	0.018386234
19	0xbd686c95	-0.056744177
20	0x3b91e7d3	0.0044526844
21	0xbd73774a	-0.059439935
22	0xbd1c4aaf	-0.03815716
23	0xbc9153f0	-0.01774022
24	0x3d64c5ff	0.055852886
25	0xbd347b80	-0.04406309
26	0x3d092f27	0.033492234
27	0x38aa07d0	8.107687e-05
28	0x3c15a821	0.009134323
29	0xbb818c9d	-0.00395353
30	0xbce3fd3d	-0.027830714
31	0x3ba5bf4c	0.0050582048
32	0x3ce040cf	0.027374653
33	0x3bba14b5	0.005678738
34	0x3c1b5c92	0.00948252
35	0xbce0951b	-0.027414849
36	0xbd10a1b1	-0.03531045
37	0xbc36b8e0	-0.011152476
38	0x3d36bcf0	0.04461378
39	0x3cad7146	0.021172177
40	0x3bbbab5b	0.0057272143
41	0x3d164c13	0.036693644
42	0xbd152e6d	-0.03642123
43	0xbcefc772	-0.029269908
44	0x3be31d7a	0.006931004
45	0x3d539814	0.051658705
46	0x3d218d62	0.039441474
47	0x3dcd5842	0.100265995
48	0xbcddee83	-0.02709127
49	0x3d217423	0.039417397
50	0x3d63ac8b	0.05558447
51	0x3d29e570	0.041478574
52	0xbcd74eb3	-0.026282644
53	0x3da786d1	0.08180011
54	0xbbed0730	-0.007233523
55	0xbd430a82	-0.047617443
56	0xbd224c4c	-0.039623544
57	0xbdb978a8	-0.090562165
58	0xbc08289e	-0.008310465
59	0x3b8c638a	0.004284327
60	0xbd88508f	-0.0665599
61	0xbda58ac3	-0.08083107
62	0xbdfb73c6	-0.122779414
63	0xbcceda80	-0.025250673
64	0xbc3bda99	-0.011465692
65	0xbd0e6dae	-0.034772567
66	0xbce256ef	-0.027629344
67	0xbccce4c5	-0.02501143
68	0x3cd896bd	0.026439065
69	0xbd13c532	-0.036076732
70	0x3c6be6c7	0.014398283
71	0xbd5b0b4d	-0.053477574
72	0xbce129b8	-0.027485713
73	0xbd87a942	-0.0662408
74	0xbc98ac9d	-0.018636996
75	0xbd4231ed	-0.047410894
76	0x3e0b7e7d	0.1362247
77	0x3c96149e	0.018320378
78	0x3ad4e153	0.0016241468
79	0xbd3ad8a3	-0.045616757
80	0x3c170918	0.009218477
81	0x3d20b780	0.0392375
82	0x3d43d642	0.047811754
83	0x3a85318e	0.0010161863
84	0x3cf7f2d5	0.030267159
85	0xbda4da92	-0.080495015
86	0x3cea22d3	0.028581059
87	0x3dc0864a	0.094006136
88	0xbc91a9a2	-0.017781083
89	0x3d04d7f9	0.03243253
90	0xbd3bfedd	-0.045897353
91	0xbbfa9eff	-0.0076483483
92	0xbd625cc7	-0.05526426
93	0xbd96d39d	-0.07364581
94	0x3d248922	0.040169843
95	0x3d9b9e83	0.07598593
96	0xbd6b2b8c	-0.057414576
97	0xbd88211d	-0.06646941
98	0xbd7da01c	-0.06192027
99	0xbe1346f7	-0.1438254
100	0xbde2cee6	-0.11074619
101	0xbdae3cbd	-0.08507679
102	0xbdc16397	-0.094428234
103	0xbd902407	-0.07038122
104	0xbe0b1932	-0.1358383
105	0xbd60e78a	-0.054908313
106	0xbe453634	-0.19258958
107	0xbdeeadbc	-0.11654231
108	0x3c62505c	0.0138131045
109	0xbc6d78b3	-0.014494109
110	0x3d71983b	0.05898307
111	0xbd6a9ef0	-0.05728048
112	0x3da69cc7	0.08135372
113	0xbc978c91	-0.018499644
114	0xbb15cfcf	-0.002285946
115	0x3bcfc10e	0.0063401526
116	0xbd0df909	-0.034661327
117	0x3d0f8fb3	0.03504915
118	0xbd361737	-0.044455733
119	0x3d719556	0.05898031
120	0x3d910ba4	0.070822984
121	0xbd0207d8	-0.03174576
122	0x3c06ce3f	0.008227884
123	0xbcda2ca6	-0.026632618
124	0x3d106d97	0.035260763
125	0x3c544db2	0.012957977
126	0x3d480e09	0.04884151
127	0x3d0f557c	0.034993634
128	0x3da39625	0.07987622
129	0x3d108ce1	0.035290603
130	0xbcb5befc	-0.022185795
131	0xbd073816	-0.033012472
132	0x3b93f7dd	0.0045156316
133	0xbbb0f6fa	-0.0054005357
134	0x3dcbd04a	0.09951837
135	0x3d244942	0.040108927
136	0x3d777c39	0.060421202
137	0x3b6c3bd3	0.00360464
138	0x3d0185dd	0.031621803
139	0xbd0b752a	-0.034047283
140	0x3d80e9ec	0.06294617
141	0x3d374e23	0.04475225
142	0x3d3968f9	0.045266125
143	0x3d08ce41	0.033399824
144	0x3d6d793e	0.057976954
145	0x3d89b9c3	0.06724884
146	0x3db96165	0.0905178
147	0x3d59b32a	0.05314938
148	0xbbc6fb13	-0.006072411
149	0x3de1dd76	0.110285684
150	0x3dcb4285	0.09924797
151	0x3dc09ab8	0.0940451
152	0x3d0fe937	0.03513452
153	0x3d0c47b3	0.034248065
154	0x3d04309a	0.032272913
155	0x3ccf8f7d	0.025336975
156	0xbd444218	-0.047914594
157	0x3d176d2d	0.036969353
158	0xbd412319	-0.047152612
159	0xbd9ca57e	-0.07648753
160	0xbd138ec6	-0.03602483
161	0x3ca84ec6	0.020545375
162	0x3cd796db	0.02631705
163	0x3cb1647b	0.021654358
164	0xbbbec577	-0.0058218795
165	0xbbea8fa5	-0.007158237
166	0xbe228d3e	-0.15874192
167	0xbb335225	-0.0027362194
168	0x3c380b79	0.011233204
169	0x3dc9a08c	0.09845075
170	0xbd59a782	-0.053138264
171	0xbd69feb4	-0.05712767
172	0xbd082d12	-0.033246107
173	0xbd61eaab	-0.055155437
174	0xbd44d254	-0.048052147
175	0xbd54bf7c	-0.051940426
176	0xbd097fa3	-0.03356899
177	0xbd350088	-0.04418996
178	0xbd726d3a	-0.059186198
179	0xbdedc908	-0.11610609
180	0xbd4ddfe1	-0.050262336
181	0xbd1e6230	-0.038667858
182	0xbcbe02ef	-0.023194758
183	0xbd13904d	-0.036026288
184	0xbcff6edf	-0.031180797
185	0x3cfce8da	0.030872751
186	0xbce22b6e	-0.0276086
187	0xbd9ea6ef	-0.07746684
188	0xbd517310	-0.051135123
189	0x3a00c422	0.00049120386
190	0x394cf7e9	0.0001954731
191	0x3d6d6327	0.057955887
192	0x3c8bec6e	0.017080512
193	0x3e1e79d3	0.1547616
194	0x3d60f968	0.054925352
195	0x3d600b7d	0.054698456
196	0xbd38fb29	-0.0451614
197	0x3d87fff2	0.066406146
198	0x3c095484	0.0083819665
199	0x3d1a6b05	0.037699718
200	0x3c679de6	0.014136767
201	0x3cfc079c	0.030765347
202	0xbd7cb42a	-0.061695255
203	0xbc479b75	-0.01218306
204	0xbc98f3d5	-0.018670956
205	0x3c0d5f2d	0.008628649
206	0x3cbba079	0.022903668
207	0xbb0c36ef	-0.0021395048
208	0xbcfeaae6	-0.03108735
209	0xbd2f29b4	-0.04276438
210	0xbd2f8637	-0.042852607
211	0x3c195c78	0.009360425
212	0x3cd126a6	0.025531124
213	0x3c80bc92	0.015714917
214	0xbc78ad43	-0.015178028
215	0xbcd8b977	-0.026455624
216	0xbd09ece3	-0.03367318
217	0xbd31bd5c	-0.043393478
218	0xbbbe163f	-0.005800992
219	0xbd9b4ccf	-0.075830095
220	0x3d9fe90a	0.078081205
221	0xbc2f8ed5	-0.010715206
222	0xbd571777	-0.052512612
223	0xbd1a1fcf	-0.03762799
224	0xbce82622	-0.028338496
225	0x3b13fd2c	0.0022581322
226	0x3baad29b	0.0052130944
227	0xbc89172c	-0.016734682
228	0x3afc35cf	0.001924211
229	0xbc49d8b8	-0.012319736
230	0xbcd1b95a	-0.025601078
231	0xbccb9e2d	-0.024855698
232	0xbb2e96f5	-0.002664027
233	0x3c5a4e8d	0.013324392
234	0x3c831efa	0.016005982
235	0x3d256a15	0.04038437
236	0x3c0fe303	0.008782151
237	0x3d112c24	0.035442486
238	0x3dc6ade8	0.09701139
239	0x3d876c44	0.06612447
240	0x3ce8d8c6	0.028423678
241	0x3cc63dbf	0.024199365
242	0x3c957b00	0.018247128
243	0xbd3de5e2	-0.04636181
244	0xbc8c521c	-0.017128997
245	0x3ccbcc0e	0.024877574
246	0x3df66368	0.12030679
247	0xbcb909eb	-0.022587737
248	0xbdc3047e	-0.09522341
249	0xbbdcd46d	-0.0067391903
250	0xbb8fded7	-0.0043905783
251	0x3dcfbd25	0.10143498
252	0x3db3f7c1	0.0878749
253	0x3d3ec94d	0.046578694
254	0x3d20d8eb	0.03926937
255	0xbd724af8	-0.059153527

dblock_3.denselayer1.conv1.bias f4 [48]
0	0x3c0c0e34	0.008548308
1	0x3d56d409	0.052448306
2	0xbd0efce7	-0.034909155
3	0xbba0e94c	-0.0049106237
4	0x3bf3827d	0.007431327
5	0x3c80a008	0.015701309
6	0x3dceefd5	0.10104338
7	0x3d39d835	0.045372207
8	0xbb15482b	-0.0022778611
9	0x3c89e90f	0.016834764
10	0xbda027d7	-0.07820099
11	0xbc8d8bec	-0.017278634
12	0x3e35af37	0.1774262
13	0x3d9b613b	0.075869046
14	0xbc94ff89	-0.018188255
15	0xbce469a4	-0.027882405
16	0xbb15458e	-0.0022777054
17	0xbb1552be	-0.0022784914
18	0xbc4eae36	-0.012614777
19	0xbd28fbc6	-0.041255735
20	0xbb15490a	-0.002277913
21	0x3cd4ed1f	0.025991974
22	0x3c5ed331	0.013600157
23	0xbd1f18a3	-0.038841855
24	0x3cd4157c	0.02588915
25	0x3d832726	0.06403951
26	0xbc88991d	-0.016674573
27	0xbd33e367	-0.04391804
28	0x3d623234	0.05522366
29	0xbb156f14	-0.0022801803
30	0x3d060278	0.032717198
31	0x3c4468c5	0.01198787
32	0xbcd0f229	-0.025506096
33	0xbca97c6e	-0.020689216
34	0xbb154448	-0.0022776294
35	0xbb1552aa	-0.0022784867
36	0xbd0e700a	-0.034774818
37	0x3e1503d3	0.1455224
38	0x3cd1169d	0.025523478
39	0xbbd13d89	-0.0063855094
40	0x3c93e460	0.018053234
41	0x3d57e762	0.0527109
42	0x3d7686ba	0.06018708
43	0x3cb87c41	0.022520186
44	0x3d907492	0.07053484
45	0xbcef9605	-0.02924634
46	0xbb968b09	-0.004594211
47	0xbb154dcd	-0.0022781969

dblock_3.denselayer1.conv2.weight f4 [48, 48, 3, 3]
0	0x3c7c57a3	0.015401754
1	0xbd213cbd	-0.039364565
2	0xbd0dfa19	-0.03466234
3	0xbd6a7e02	-0.057249077
4	0xbbddf287	-0.0067732963
5	0x3b4b1726	0.003098914
6	0xbd383c08	-0.044979125
7	0x3c538802	0.012910845
8	0xbd793b5a	-0.060847618
9	0x3b72f0fb	0.0037069905
10	0x3c9fd2ce	0.0195097
11	0xbc514ffb	-0.0127754165
12	0x3d034f33	0.032057952
13	0xbb8d21a6	-0.0043069897
14	0xbca6d6e4	-0.02036614
15	0xbba70dc8	-0.0050980784
16	0xbcef3571	-0.029200288
17	0x3d4f8315	0.05066212
18	0x3c575d4d	0.013144803
19	0x3c91e090	0.017807275
20	0xbd7e9c27	-0.062160637
21	0xbd169a73	-0.036768388
22	0x3d404c18	0.04694757
23	0xbd2d1a6b	-0.042261522
24	0xbb8d7df4	-0.0043179933
25	0xbd26c546	-0.04071548
26	0x3d0e2067	0.03469887
27	0x3d71256e	0.058873586
28	0x3b340a6c	0.0027472032
29	0x3c0ec607	0.008714206
30	0x3c7d1625	0.015447174
31	0x3d3fe121	0.04684556
32	0x3d007881	0.03136492
33	0x3aeb74e8	0.0017963918
34	0x3d889ffa	0.06671138
35	0xbc132c58	-0.00898274
36	0xba0099eb	-0.0004905748
37	0x3d463f3e	0.048400156
38	0xbc5e38eb	-0.013563375
39	0x3ce5ef7d	0.028068298
40	0xbce81056	-0.028328102
41	0x3d7d81d2	0.061891384
42	0x3cd7face	0.02636471
43	0x3d843a83	0.06456473
44	0xbc55533d	-0.013020334
45	0xbcccdff8	-0.02500914
46	0xbccfbdb8	-0.02535902
47	0xbd00fae9	-0.031489287
48	0xbca7838a	-0.020448465
49	0xbcda6a10	-0.026661903
50	0xbd190adb	-0.03736387
51	0xbcfc3492	-0.030786786
52	0xbcc4346d	-0.02395078
53	0xba5e6d4c	-0.00084849144
54	0xbc568858	-0.01309403
55	0xbcada7f3	-0.021198248
56	0xbcd4214b	-0.025894782
57	0xbabe7509	-0.0014530729
58	0xbb23d261	-0.0024997222
59	0x3b9ce0a5	0.004787522
60	0xbb009611	-0.0019620697
61	0xbcd70af4	-0.02625034
62	0x3c111ff3	0.008857715
63	0x3b019043	0.0019769825
64	0xbc216ac9	-0.00985212
65	0xbd8dfdf8	-0.06933206
66	0xbada42a2	-0.0016651938
67	0x3b3d2943	0.0028863705
68	0xbcbe94ca	-0.023264308
69	0x3cd35211	0.025795968
70	0x3c35c5d8	0.011094533
71	0xbbd29cb2	-0.006427371
72	0xba624933	-0.00086321234
73	0x3b30319a	0.0026885034
74	0x3af7ed2d	0.0018915288
75	0x3a81f7bd	0.0009915751
76	0x3b91c44f	0.0044484506
77	0x3b5c6cf3	0.0033634275
78	0xbb2fa22d	-0.0026799545
79	0x392c494d	0.00016430505
80	0xba850f5e	-0.0010151675
81	0xbbef64a0	-0.0073056966
82	0xbd51e9f6	-0.051248513
83	0xbcbb8608	-0.02289106
84	0xbc9455fe	-0.01810741
85	0xbb5c508b	-0.0033617343
86	0xbcbe02ac	-0.023194633
87	0xbd3a3809	-0.045463596
88	0xbc0ad6ee	-0.008474095
89	0x3c32059f	0.010865598
90	0xbcce3894	-0.025173463
91	0xbd408dd5	-0.04701026
92	0xbcccee05	-0.02501584
93	0xbccb8b40	-0.024846673
94	0x3ca2fa19	0.019894646
95	0xbd69f81f	-0.057121392
96	0xbb71e6d8	-0.0036911275
97	0xbc716688	-0.014733918
98	0xba877b02	-0.0010336342
99	0xbd2ec04b	-0.042663854
100	0xbcb0a6dc	-0.02156394
101	0x3c3a600a	0.011375437
102	0xbd7505fc	-0.05982016
103	0xbda738fe	-0.08165167
104	0xbcc4ecf2	-0.024038766
105	0xbc194ef4	-0.009357203
106	0xbdae2c49	-0.085045405
107	0xbd7f357d	-0.06230687
108	0x3b4e8f19	0.0031518398
109	0x3b3b62c2	0.00285928
110	0xbcdbec76	-0.026846152
111	0x3c15bc09	0.009139069
112	0x3bdf75c7	0.00681946
113	0xbd0ef5bd	-0.034902323
114	0xbc9ff72d	-0.019527042
115	0xbd0e8295	-0.0347925
116	0xbd2030a0	-0.039108872
117	0xbd1e2c3a	-0.038616396
118	0x3c2182b4	0.009857822
119	0xbcc9ab0c	-0.024617694
120	0x3968f326	0.00022215824
121	0xbd35fc8b	-0.044430297
122	0xbc79d137	-0.015247635
123	0xbd18fd18	-0.037350744
124	0xbd1a8187	-0.037721183
125	0xbbb008c2	-0.0053721378
126	0x3db0b37c	0.08627984
127	0x3da1cec5	0.07900766
128	0x3b194946	0.0023389622
129	0x3b4045ef	0.0029338559
130	0x3ddc3045	0.10751394
131	0xbbf06e66	-0.0073373793
132	0xbc1dc941	-0.009630502
133	0xbc02eeef	-0.0079915365
134	0x3cb04623	0.021517819
135	0x3cb4be1f	0.022063313
136	0x3d7c1da5	0.06155171
137	0x3d5b3b56	0.053523384
138	0x3d865b4a	0.06560381
139	0x3da14973	0.078753375
140	0x3ce29353	0.02765814
141	0x3d9a77ca	0.07542379
142	0x3d471896	0.04860743
143	0x3d19c5aa	0.037542023
144	0xba624bb6	-0.00086324976
145	0x3b30303f	0.0026884226
146	0x3af7ea22	0.0018914382
147	0x3a81f5d2	0.0009915179
148	0x3b91c3a3	0.0044483705
149	0x3b5c6b4b	0.0033633288
150	0xbb2fa2d1	-0.0026799927
151	0x392c3a9c	0.00016425032
152	0xba851145	-0.0010152241
153	0xba623ea3	-0.00086305494
154	0x3b3035c8	0.0026887525
155	0x3af7f557	0.0018917721
156	0x3a81feb6	0.0009917829
157	0x3b91c698	0.004448723
158	0x3b5c7196	0.0033637038
159	0xbb2f9fbc	-0.002679809
160	0x392c7df1	0.00016450115
161	0xba8509f5	-0.0010150062
162	0xbb8c419f	-0.0042802836
163	0xbd3a7698	-0.045523256
164	0x3c810150	0.015747696
165	0x3bf98930	0.007615231
166	0x3db651a6	0.08902292
167	0xbd1efa61	-0.038813
168	0xbca1b075	-0.019737462
169	0x3c876822	0.016529147
170	0x3d1ba837	0.03800222
171	0x3c7d5d49	0.015464135
172	0x3d89e585	0.067332305
173	0xbd5138c4	-0.051079527
174	0xbd37da1b	-0.044885736
175	0x3d9d5f25	0.07684163
176	0x3d29b8d0	0.041436017
177	0x3ca974cc	0.020685576
178	0xbd849c26	-0.064750955
179	0x3c87fc7f	0.016599892
180	0xba624879	-0.0008632015
181	0x3b303192	0.0026885015
182	0x3af7ed65	0.0018915354
183	0x3a81f7fe	0.0009915826
184	0x3b91c455	0.0044484534
185	0x3b5c6cf2	0.0033634272
186	0xbb2fa220	-0.0026799515
187	0x392c4c67	0.0001643166
188	0xba850f81	-0.0010151715
189	0xbc8db651	-0.01729885
190	0x3d2d0cf7	0.042248692
191	0x3bd53fc1	0.006507844
192	0xbc5ba91c	-0.013407018
193	0x3c25c437	0.010117582
194	0x3ba05f31	0.00489416
195	0xbcd15f9f	-0.025558291
196	0xbc68d0df	-0.014209955
197	0xbd37c58b	-0.044866126
198	0xbd47c3a4	-0.04877056
199	0x3c4bfd0c	0.012450468
200	0x3c052e63	0.008128735
201	0x3da21bc8	0.07915455
202	0xbd8f1cc2	-0.06987907
203	0x3b7c3b28	0.0038487408
204	0x3c8dcab8	0.017308578
205	0x3c828861	0.015934171
206	0x3c13cf5f	0.009021609
207	0x3cda9ee6	0.026687097
208	0xbd881d95	-0.06646267
209	0x3be4631c	0.0069698226
210	0x3c8e9893	0.017406737
211	0xbc0108f7	-0.007875673
212	0xbc01daa3	-0.007925662
213	0x3b32a26b	0.0027257453
214	0x3b2d58f2	0.002645072
215	0xbc2bad11	-0.010478274
216	0x3c21f0db	0.009884085
217	0xbab2226b	-0.001359058
218	0x3bb21a42	0.005435259
219	0x3b7fdb5b	0.0039040658
220	0xbc89ebd8	-0.016836092
221	0x3c4be8fc	0.0124456845
222	0x3bf5ba72	0.0074990327
223	0x3caf572d	0.021403873
224	0xbb2363e8	-0.0024931375
225	0xbd2bcad2	-0.04194147
226	0xbd267114	-0.040635183
227	0xbcf7b32f	-0.030236809
228	0xbd1a691c	-0.037697896
229	0xbd4ed5ea	-0.050496973
230	0xbd074c67	-0.033031847
231	0xbcf0a542	-0.029375676
232	0xbcd4eabe	-0.02599084
233	0x3ccb50ab	0.024818739
234	0x3bbe345b	0.005804581
235	0x3baa536a	0.005197932
236	0x3d0bdcd3	0.03414614
237	0x3cc4839c	0.023988537
238	0x3d1e7877	0.038689103
239	0x3d49912e	0.04921072
240	0x3ad2a662	0.0016071314
241	0x3d4d969f	0.05019247
242	0x3c00ff81	0.007873417
243	0x3c15e3d3	0.009148556
244	0x3d3a8310	0.045535147
245	0xbc04452c	-0.0080731325
246	0x3d22347a	0.039600827
247	0x3d6a81a1	0.05725253
248	0x3cd5d6ff	0.026103495
249	0x3a723abf	0.0009240321
250	0x3c666592	0.014062302
251	0x3bb9d126	0.0056706844
252	0x3bc12a6b	0.005894949
253	0xbbd13e18	-0.006385576
254	0xbc10e9f5	-0.008844842
255	0x3ba7ae9f	0.005117252

dblock_3.denselayer1.conv2.bias f4 [48]
0	0x3c3c0fec	0.011478405
1	0x3d63b924	0.055596486
2	0x3d54023e	0.05175995
3	0xba87e431	-0.0010367689
4	0xbb87fb5c	-0.0041498374
5	0xbce9372a	-0.028468687
6	0xbb06d070	-0.0020571016
7	0x37c56ed5	2.353584e-05
8	0xbc306f26	-0.010768687
9	0xbd8cb51f	-0.068704836
10	0xb9aa5517	-0.00032488324
11	0xbd94fbe4	-0.07274607
12	0x3cc16826	0.023609232
13	0x3c89f5c7	0.016840829
14	0x3cddfacb	0.027097126
15	0x3ab1bf09	0.0013560961
16	0x3d6bb135	0.057542045
17	0xbdcdc7e6	-0.10047893
18	0x3c58af6f	0.01322542
19	0xbc777acd	-0.015104962
20	0xbcdf4737	-0.027255638
21	0x3b0a9e4c	0.0021151481
22	0xbb570f4e	-0.0032815519
23	0x3d53dc82	0.051723965
24	0xbcee27a6	-0.02907164
25	0xbd5c96b2	-0.05385465
26	0xbaa37162	-0.0012469704
27	0x3a4be3c3	0.00077777746
28	0x3b2b2297	0.0026113146
29	0x39b9d019	0.00035440995
30	0xbb1c9460	-0.002389215
31	0xbd0603ee	-0.03271859
32	0xbda16c5c	-0.07881996
33	0xbc98e6ce	-0.018664744
34	0xbce3d5e9	-0.027811961
35	0x3d6e5b13	0.058192324
36	0xb9e9719d	-0.00044525872
37	0x3cf8c00e	0.030365016
38	0xbc8443e6	-0.016145658
39	0xbcfd6de8	-0.030936196
40	0x3d0a5f84	0.033782497
41	0x3c95b02a	0.018272478
42	0xbd92bd14	-0.0716497
43	0xbce49dc5	-0.027907262
44	0xba581c1b	-0.0008243934
45	0x3d2cfbf8	0.042232484
46	0xbb33d404	-0.0027439604
47	0xbd5809d3	-0.052743744
